models/ConditionalFlowMatchingModel.pth (torch, 52016 bytes, 11 tensors)

time_net.0.weight f4 [32, 1]
0	0x3f064fb8	0.5246539
1	0xbf841908	-1.0320139
2	0xbf39c861	-0.7257138
3	0xbf78f019	-0.9724136
4	0xbb0eb77e	-0.002177685
5	0x3d4003cf	0.046878632
6	0x3ec2cbad	0.38046017
7	0x3eff8a82	0.4991036
8	0x3f88843a	1.0665352
9	0xbf50dcc3	-0.81586856
10	0xbe4fd0a3	-0.20294432
11	0xbcf9ac0d	-0.030477548
12	0xbe3902cf	-0.18067478
13	0xbe864f36	-0.26232308
14	0xbf10adbd	-0.56515104
15	0xbeea4ecb	-0.4576324
16	0x3e82b776	0.25530595
17	0xbe5f274c	-0.21792334
18	0xbef3ee29	-0.4764264
19	0x3df56b00	0.11983299
20	0x3f167fa8	0.5878854
21	0xbea41b47	-0.3205206
22	0x3ea320e8	0.31861043
23	0xbf1de3bc	-0.6167562
24	0xbef6f907	-0.48236868
25	0x3ed0f4dd	0.40811816
26	0x3f555841	0.8333779
27	0x3f827884	1.0193028
28	0xbb4b5bee	-0.0031030136
29	0xbf793377	-0.97344154
30	0xbca30291	-0.019898685
31	0x3ec5735c	0.38564575

time_net.0.bias f4 [32]
0	0x3e463e5b	0.19359724
1	0x3f162b01	0.5865937
2	0x3f0a440f	0.540101
3	0x3ef9f36f	0.48818538
4	0xbedb2745	-0.42803398
5	0xbd2185ff	-0.03943443
6	0xbd7719fc	-0.060327515
7	0xbe250c2e	-0.16117927
8	0xbf5af486	-0.85529363
9	0x3f43df5a	0.7651268
10	0xbeeb6126	-0.45972556
11	0x3caf6d3d	0.021414394
12	0x3e1d1c53	0.15342836
13	0xbebc75e5	-0.36808696
14	0x3ee96e8a	0.45592147
15	0xbee8f001	-0.45495608
16	0xbe50d5e9	-0.203941
17	0x3eb1f298	0.34755397
18	0x3ea94b75	0.33065382
19	0x3ec3c832	0.38238674
20	0x3e9ebb40	0.31002235
21	0xbd892161	-0.0669582
22	0xbe76bc56	-0.24095282
23	0x3f18bd12	0.596635
24	0x3ecddd3a	0.40207845
25	0xbefcf9fe	-0.4940948
26	0xbe56b84c	-0.20968741
27	0xbf412aae	-0.7545575
28	0xbe9c2e96	-0.30504292
29	0x3f1d8cd1	0.61542994
30	0x3c8299a8	0.01594241
31	0xbea0a80d	-0.31378213

class_embed.weight f4 [5, 16]
0	0xbe7363d2	-0.23768547
1	0x3f3e6a7a	0.7438122
2	0x3f06aed7	0.52610534
3	0xbf1ce573	-0.6128761
4	0x3d4208fb	0.047371846
5	0x3f8f5ac6	1.1199577
6	0x3f24b1d4	0.64333844
7	0xbf294c1f	-0.66131777
8	0x3f46f8dc	0.7772348
9	0xbed4126f	-0.41420314
10	0x3f63cf9c	0.8898866
11	0xbfcb14f8	-1.5865774
12	0x3f920933	1.1409057
13	0xbf34fc92	-0.7069789
14	0xbf8e73ea	-1.1129124
15	0x3e42c6f1	0.19021203
16	0x3fde2790	1.7355824
17	0x3fa4a6d2	1.286341
18	0xbe4637b0	-0.1935718
19	0xbf098c9e	-0.5373019
20	0x3eea3ca9	0.45749405
21	0x4015daa3	2.3414695
22	0x3f0b22a6	0.54349744
23	0xbe3494eb	-0.17634933
24	0x3e2ab6c9	0.1667129
25	0xbfb2869a	-1.3947327
26	0x3e3214e8	0.17390788
27	0x3f2d3ada	0.67667925
28	0xbf8092d4	-1.0044808
29	0x3effa2b8	0.49928832
30	0xbf694685	-0.9112323
31	0x3dc0c7fc	0.09413144
32	0x3f731bbd	0.949642
33	0xbf0c490b	-0.54798955
34	0x3ddefa4f	0.10887586
35	0x3e4fb5a7	0.20284139
36	0x3f9d22c2	1.2276232
37	0x3f1795d9	0.59213024
38	0xbec661ea	-0.38746578
39	0xbfab00af	-1.3359584
40	0x3ed91d04	0.4240495
41	0x3f80ff82	1.0077975
42	0x3d3489d8	0.04407677
43	0xbed7342c	-0.4203199
44	0xc018290f	-2.377506
45	0xbfc9f1fc	-1.5776973
46	0xbdeb014b	-0.11474856
47	0xbd50e28b	-0.0509973
48	0xbf2a9296	-0.6662992
49	0xbf81af41	-1.0131608
50	0x3f4d6e17	0.8024611
51	0xbf90b182	-1.1304171
52	0x3e880279	0.26564386
53	0xbf318916	-0.693498
54	0xbfbabb88	-1.458848
55	0xbf8dc0b7	-1.1074437
56	0x3e9272e6	0.28603286
57	0xbe21d279	-0.15802945
58	0x3d647f44	0.055785432
59	0x3ebe0f15	0.37120882
60	0xbf6792b6	-0.9045824
61	0x3f18c067	0.5966858
62	0x3e8f5be0	0.27999783
63	0xbebcbb69	-0.36861733
64	0xbf35790a	-0.70887816
65	0xbe7751b3	-0.2415226
66	0xbf75de62	-0.96042454
67	0x3e7fcdb2	0.2498081
68	0xbf075129	-0.52858216
69	0xbf2db0f1	-0.67848116
70	0xbf94611d	-1.1592137
71	0xbf306a37	-0.6891207
72	0xbfcb3879	-1.5876609
73	0x3fc6d04c	1.5532317
74	0x3f2fb87f	0.68640894
75	0x3f47d899	0.78064877
76	0x3f0d4204	0.55178857
77	0x3e4a47f7	0.19754015
78	0x3f5e6930	0.86879253
79	0x3f105d6f	0.5639257

main_net.0.weight f4 [64, 50]
0	0xbe1e8695	-0.15481026
1	0xbd65c360	-0.056094527
2	0xbb571725	-0.0032820192
3	0xbb545d37	-0.0032404193
4	0xbe0cef25	-0.13763101
5	0x3d2cad66	0.042157553
6	0x3dc98a13	0.09840789
7	0xbd95ba65	-0.073109426
8	0xbdbc3ac2	-0.09190895
9	0x3d2e01d1	0.0424822
10	0x3e788bf0	0.24272132
11	0xbe53f480	-0.20698738
12	0x3dd49afc	0.103811234
13	0xbdd29b84	-0.102835685
14	0xbe301c39	-0.17198266
15	0x3cddc2e9	0.02707048
16	0xbea3d7eb	-0.3200067
17	0x3cb683b8	0.022279605
18	0x3ddf38a7	0.108994775
19	0xbcc41542	-0.023935918
20	0xbdb9c991	-0.09071649
21	0x3dc3c170	0.0955838
22	0x3d96201f	0.07330345
23	0xbddac534	-0.10682145
24	0x3e7e7395	0.24848779
25	0xbe65b5dd	-0.22432657
26	0xbe196027	-0.14978085
27	0x3e09ea08	0.13468182
28	0x3d070063	0.032959353
29	0x3e16d428	0.14729369
30	0x3b841993	0.004031369
31	0xbdaa41c1	-0.08313323
32	0xbd22c64c	-0.039739892
33	0x3dc151b8	0.09439415
34	0xbdd5d9c3	-0.104419254
35	0xbdcac837	-0.09901469
36	0x3e616ebf	0.22014903
37	0xbe561c31	-0.20909192
38	0x3c86dd3c	0.016462915
39	0xbe3c17bf	-0.18368433
40	0xbcada23a	-0.02119552
41	0xbc3cb2b0	-0.011517212
42	0x3d9e31c9	0.077243395
43	0xbe1c68fa	-0.1527442
44	0xbe46c7ef	-0.19412206
45	0x3d69fb61	0.0571245
46	0xbd27c802	-0.040962227
47	0xbca8b042	-0.020591859
48	0x3e11b545	0.14229305
49	0xbe836be9	-0.25668266
50	0xbee030f0	-0.43787336
51	0xbe47f62b	-0.195275
52	0x3c8138cd	0.015774155
53	0xbc93b20c	-0.018029235
54	0xbe1aab49	-0.15104403
55	0xbe1e57c2	-0.15463164
56	0x3d8600af	0.06543099
57	0x3d976234	0.07391778
58	0x3db296f8	0.08720201
59	0xbc2f3bac	-0.010695379
60	0x3d7cd34b	0.061724942
61	0x3e092ee0	0.13396788
62	0xbcef7dad	-0.029234732
63	0x3d946ab8	0.072469175
64	0xbd360060	-0.04443395
65	0xbdc2cd47	-0.0951181
66	0x3d8791b8	0.066195905
67	0xbe1bbb87	-0.15208255
68	0x3da60f49	0.08108384
69	0xbdabe2ef	-0.083928935
70	0x3d3331f2	0.043748803
71	0x3dafb73e	0.085798725
72	0x3df852d9	0.12125177
73	0xbda08b05	-0.07839016
74	0x3d8bf47f	0.06833743
75	0xbddb01c7	-0.106936984
76	0xbddb82aa	-0.107182816
77	0x3d162858	0.03665957
78	0x3c8bd7bb	0.017070642
79	0x3c990473	0.01867888
80	0xbda838c1	-0.0821395
81	0x3d655a79	0.055994485
82	0xbd1e8397	-0.038699713
83	0x3cd54f8f	0.026038913
84	0xbe17ed68	-0.14836657
85	0xbc2d1dc8	-0.010566182
86	0x3e9f5ef4	0.3112713
87	0x3b8d31cd	0.004308915
88	0x3e14f92e	0.1454818
89	0xbd4a8709	-0.049445186
90	0xbdb4a08b	-0.08819684
91	0xbcfa69d8	-0.030568048
92	0x3e47cfe6	0.195129
93	0x3cf244d4	0.029573835
94	0x3c4a0f74	0.012332786
95	0xbe0e2d51	-0.13884474
96	0x3dbd916d	0.092562534
97	0xba692ce2	-0.00088949327
98	0xbbdc1b4f	-0.0067171226
99	0xbe63cf23	-0.22246985
100	0xbede9d9f	-0.4347963
101	0xbf15e806	-0.58557165
102	0xbdb8131d	-0.089880206
103	0x3d476716	0.048682295
104	0x3dcbd3c3	0.099525
105	0x3dea61d4	0.114444405
106	0x3dada25b	0.084782325
107	0xbd8d9056	-0.069122955
108	0xbe0ea3ba	-0.13929644
109	0x3d00e1c4	0.031465307
110	0x3a0521bd	0.0005078575
111	0xbabbb03f	-0.0014319493
112	0xbd7d1a2b	-0.061792534
113	0xbd3515fb	-0.044210415
114	0xbc960352	-0.01831213
115	0x3e24436b	0.16041343
116	0x3cf0349b	0.02932196
117	0x3c886cc8	0.016653433
118	0x3ca7a216	0.02046303
119	0xbdcf1630	-0.10111654
120	0xbd591064	-0.052994147
121	0xbdc95823	-0.09831264
122	0x3db14d9f	0.08657383
123	0x3d9a2e9d	0.07528422
124	0xbe060677	-0.13088404
125	0xbd8b6e5e	-0.0680816
126	0x3c930ee8	0.017951444
127	0x3db9a40f	0.09064495
128	0x3d8e2f76	0.06942646
129	0x3c98d3de	0.018655714
130	0x3da641fc	0.08118054
131	0x3e2f7cb4	0.17137414
132	0x3d232f57	0.03984007
133	0xbce93e58	-0.02847211
134	0x3d56dcaf	0.052456554
135	0xbe60aa6a	-0.21940008
136	0x3e603525	0.21895273
137	0xbda4d24f	-0.08047926
138	0x3d296a4e	0.041361146
139	0xbe16a859	-0.14712657
140	0xbcd03299	-0.025414752
141	0xbd802abc	-0.06258151
142	0x3db27367	0.087134175
143	0xbe037936	-0.12839207
144	0xbd8f86f6	-0.07008164
145	0xbe049501	-0.12947465
146	0x3d8ac03f	0.06774949
147	0x3e21a3fa	0.15785208
148	0xbdd2db37	-0.10295718
149	0xbe2b0f69	-0.16705097
150	0x3f49db80	0.78850555
151	0x3e29a1d6	0.16565642
152	0xbc14e376	-0.009087434
153	0xbcb97bd0	-0.022642046
154	0xbd26272c	-0.0405647
155	0xbd81ab6a	-0.06331523
156	0x3e1f2730	0.15542293
157	0x3db3c3d7	0.08777588
158	0xbd19989d	-0.03749906
159	0x3d79897a	0.060922123
160	0xbe3bdc72	-0.18345812
161	0xbd2ed54e	-0.042683892
162	0x3d254456	0.040348373
163	0x3d87f644	0.06638768
164	0xbdb1b82f	-0.08677708
165	0xbdd6cc8b	-0.10488232
166	0x3d7b37b9	0.06133244
167	0xbd8a77b7	-0.06761115
168	0xbd711312	-0.058856077
169	0xbe113a0b	-0.14182298
170	0x3c86faac	0.016476952
171	0x3b800b02	0.0039075622
172	0xbd0bc700	-0.034125328
173	0x3ca95753	0.020671522
174	0xbdb77a37	-0.089588575
175	0xbcf515a4	-0.029917546
176	0xbdbb0663	-0.091320775
177	0x3af75261	0.0018869155
178	0xbe212b0d	-0.15739079
179	0xbde45817	-0.11149614
180	0x3d5e64d8	0.05429539
181	0xbdd1e18d	-0.102480985
182	0xbcb267b9	-0.021777974
183	0x3d1adfbb	0.037811022
184	0xbd233a77	-0.03985068
185	0xbd948f22	-0.07253863
186	0xbc488cb6	-0.012240579
187	0x3e2379b7	0.159644
188	0xbd86b189	-0.06576831
189	0x3b953f0f	0.0045546363
190	0x3db0e6be	0.086377606
191	0xbb3be869	-0.0028672463
192	0x3dfd6202	0.12372209
193	0xbdc4412e	-0.095827445
194	0x3ba83065	0.005132722
195	0xbe4af675	-0.19820578
196	0x3d9c57f6	0.07633965
197	0xbe7bf4d0	-0.24605107
198	0xbe15c557	-0.1462606
199	0x3d98f56d	0.07468686
200	0x3e3d7d8e	0.18504927
201	0xbef40615	-0.4766089
202	0xbd42dd88	-0.04757455
203	0xbe71aa4e	-0.23600122
204	0xbe939338	-0.28823256
205	0xbe0f6e49	-0.14006914
206	0x3c57cff9	0.013172143
207	0x3def6f22	0.11691119
208	0x3c7b603f	0.015342771
209	0x3d5a25f6	0.05325886
210	0x3d6635d3	0.056203675
211	0xbc94ad80	-0.018149137
212	0xbd272fd5	-0.0408171
213	0xbbe075e0	-0.0068499893
214	0xbc8309c3	-0.015995866
215	0xbe23aed3	-0.15984659
216	0xbd9b5252	-0.07584061
217	0xbb3ccf4e	-0.0028810087
218	0x3d0ef3ff	0.03490066
219	0xbddc4819	-0.10755939
220	0xbde94c10	-0.11391461
221	0x3c888d6b	0.016668996
222	0x3df4f031	0.119598754
223	0xbe22763d	-0.15865417
224	0x3c9fafd9	0.01949303
225	0xbd5231ff	-0.05131721
226	0xbd809a93	-0.06279483
227	0x3c9b5a86	0.018964063
228	0x3d6d0826	0.0578691
229	0x3e068aa6	0.13138828
230	0x3dcee932	0.10103072
231	0xbe385507	-0.18001185
232	0xbe3cdb60	-0.1844306
233	0x3d092555	0.03348287
234	0x3e194b3a	0.14970103
235	0xbcbcc5f0	-0.023043603
236	0xbdc48535	-0.0959572
237	0x3d69660d	0.05698209
238	0xbb455b76	-0.003011433
239	0xbd6677ee	-0.056266718
240	0x3d5e9aa6	0.054346703
241	0xbdf88d6f	-0.12136351
242	0xbd2d41d8	-0.04229912
243	0xbd87e82d	-0.06636081
244	0xbd5618f7	-0.052269902
245	0xbe123347	-0.14277373
246	0xbd2bc234	-0.041933253
247	0x3caf08b1	0.02136645
248	0x3cbd3fa6	0.023101639
249	0x3e1519cc	0.14560622
250	0x3f0e664b	0.55624837
251	0x3d148181	0.036256317
252	0x3c96510e	0.018349197
253	0x3e49dc3c	0.19712919
254	0x3d8812df	0.066442244
255	0x3e4b690f	0.19864295

main_net.0.bias f4 [64]
0	0x3c0f7407	0.00875569
1	0x3d06467d	0.032782067
2	0x3d9f1c90	0.0776912
3	0xbdcf8468	-0.10132676
4	0x3e00c67d	0.12575717
5	0x3ddc5d71	0.1076001
6	0xbde03ef4	-0.10949507
7	0xbe148d71	-0.1450708
8	0xbddde932	-0.10835494
9	0x3dbfca65	0.093647756
10	0xbce50601	-0.027956964
11	0xbe2b6823	-0.16738944
12	0x3d6536bb	0.0559604
13	0xbe7a6d99	-0.2445587
14	0x3d2125b2	0.03934259
15	0x3deb982d	0.115036346
16	0xbd231482	-0.03981448
17	0xbd6447d4	-0.055732563
18	0xbd1c211a	-0.038117506
19	0xbe16f9e2	-0.1474376
20	0xbce051c8	-0.027382746
21	0xbce6b219	-0.028161095
22	0x3df4eb1d	0.11958907
23	0xbe0babfc	-0.13639826
24	0xbded86a1	-0.11597944
25	0xbe26421b	-0.16236155
26	0x3be48713	0.00697411
27	0xbc9350ca	-0.01798286
28	0x3e07d49f	0.13264702
29	0x3e04e938	0.12979591
30	0xbdbfebb6	-0.0937113
31	0x3db9ba7c	0.09068772
32	0x3dbddfd0	0.092712045
33	0x3d02b569	0.031911287
34	0xbd1b099b	-0.037850957
35	0x3c9407b1	0.018070074
36	0xbd6b8dca	-0.057508267
37	0x3d066a72	0.032816358
38	0x3ae67a76	0.0017584104
39	0xbb799e96	-0.003808891
40	0xbdf4fd7c	-0.11962411
41	0x3db5dfb2	0.08880557
42	0x3dbe2567	0.09284478
43	0xbd8593a8	-0.06522304
44	0xbddddb78	-0.10832876
45	0x3cdef816	0.027217906
46	0x3c19ca67	0.009386635
47	0xbe2d8c99	-0.16948165
48	0x3cea36b5	0.02859054
49	0xbe1e7896	-0.15475687
50	0x3dc119e5	0.09428767
51	0x3d092d36	0.033490382
52	0x3d45f958	0.048333496
53	0xbe47c49f	-0.19508599
54	0xbdb53d1d	-0.08849547
55	0xbe11bdf0	-0.14232612
56	0xbc1a8720	-0.00943163
57	0xbe3f8a6b	-0.18705146
58	0x3c6c347e	0.014416812
59	0x3ca3c92a	0.019993383
60	0x3ddde8ba	0.10835405
61	0xbd8a2ebe	-0.067471966
62	0xbe0f636c	-0.1400277
63	0xbcc6f285	-0.024285564

main_net.2.weight f4 [64, 64]
0	0xbe3cb716	-0.18429217
1	0xbd6262f7	-0.05527016
2	0x3d211b85	0.039332885
3	0x3e6aa0ca	0.22912899
4	0xbdb674b7	-0.0890898
5	0x3e8be221	0.2732096
6	0xbd4f16fc	-0.05055903
7	0x3da9584f	0.08268797
8	0x3df17c87	0.1179133
9	0xbda41e83	-0.08013632
10	0xbdde3baf	-0.108512275
11	0x3d28ea10	0.041238844
12	0x3c783882	0.015150191
13	0x3e03925f	0.12848805
14	0x3e28b9ff	0.16477202
15	0xbe927119	-0.28601912
16	0xbe2bdb89	-0.16782965
17	0x3dc6d42a	0.09708436
18	0x3d5c1888	0.053734332
19	0x3ef5f9b9	0.48042086
20	0xbdd78ad6	-0.10524528
21	0x3e4be9fa	0.19913474
22	0x3c2fa546	0.010720557
23	0x3e8db14e	0.27674335
24	0x3e14d174	0.14533025
25	0x3b908ab5	0.0044110664
26	0x3e2794c6	0.16365346
27	0x3d9c78a8	0.07640201
28	0x3e00b058	0.1256727
29	0xbd83d978	-0.06437963
30	0xbdf9e713	-0.12202277
31	0xbe214414	-0.15748626
32	0x3e554906	0.20828637
33	0x3e758184	0.23975188
34	0x3c44401b	0.011978175
35	0x3d9c793b	0.076403104
36	0x3ddfb2d9	0.10922784
37	0x3e80b72f	0.25139758
38	0xbe2d2196	-0.16907343
39	0x3e284970	0.16434264
40	0x3e668b95	0.22514184
41	0x3e1fdf12	0.15612438
42	0xbce6a39a	-0.028154183
43	0xbe0ef090	-0.13958955
44	0x3d928e7d	0.07156084
45	0xbdb68be2	-0.08913399
46	0x3e30f22a	0.17279878
47	0x3d1ca16f	0.038239893
48	0xbe022484	-0.12709242
49	0x3a4391f7	0.000746041
50	0x3e8fa67c	0.28056705
51	0x3e27159b	0.16316836
52	0x3e7b28ae	0.24527237
53	0x3e095ecc	0.13415068
54	0x3de36344	0.11102918
55	0xbda543db	-0.08069583
56	0xbdc14ea3	-0.09438827
57	0x3db8c055	0.090210594
58	0xbe11f32c	-0.14252919
59	0x3dc63ffe	0.09680174
60	0xbd1202c8	-0.035647184
61	0xbd5c1eea	-0.05374042
62	0x3dcca69d	0.099927165
63	0x3e49d5ea	0.19710508
64	0xbd613a1e	-0.054987065
65	0xbda91336	-0.08255617
66	0xbec34735	-0.38140264
67	0x3e398763	0.18118052
68	0x3df54cd1	0.11977542
69	0xbeda1329	-0.42592743
70	0x3d8a773f	0.06761026
71	0xbdb7b00c	-0.08969125
72	0xbe87803b	-0.2646502
73	0xbf1ca961	-0.6119595
74	0xbc7d0a15	-0.015444298
75	0xbd94711b	-0.07248136
76	0xbca670eb	-0.020317515
77	0x3d828b05	0.06374172
78	0xbf0619b3	-0.52382964
79	0xbda6c542	-0.08143093
80	0xbd41f2e5	-0.047350783
81	0xbde4ad90	-0.11165917
82	0x3adc4d9c	0.0016807797
83	0xbebc3391	-0.36758092
84	0xbc8cd9f4	-0.017193772
85	0x3e1bfa58	0.15232217
86	0xbf03fa5b	-0.5155389
87	0xbeae1208	-0.33998132
88	0x3ddf9d41	0.10918666
89	0x3c6603c1	0.014038981
90	0xbed89aff	-0.42305753
91	0x3d896884	0.06709388
92	0x3e4dd50d	0.20100804
93	0xbcbb74b4	-0.022882797
94	0xbdf15c05	-0.117851295
95	0xbce727fd	-0.02821731
96	0x3db2c90c	0.08729753
97	0x3d8d6b0a	0.06905182
98	0xbdfe32f9	-0.12412066
99	0xbed87723	-0.42278394
100	0x3d09801c	0.03356944
101	0xbe4a4f96	-0.19756922
102	0xbdc9bb4f	-0.098501794
103	0x3d351458	0.044208854
104	0x3e129566	0.14314803
105	0xbe8afa06	-0.27143878
106	0x3d2f2bf5	0.04276653
107	0xbbed15a4	-0.007235246
108	0xbd098527	-0.03357425
109	0x3dcfa8df	0.101396315
110	0xbc7fd2d0	-0.015614226
111	0xbe1911cd	-0.14948197
112	0xbe9a611b	-0.3015221
113	0xbb9f2d9a	-0.004857731
114	0xbe8e6071	-0.27807954
115	0xbdbc9e0c	-0.092098325
116	0xbf3cde24	-0.7377646
117	0x3de9c03d	0.1141362
118	0x3de4c925	0.11171178
119	0xbdfe7078	-0.124237955
120	0x3c073a95	0.008253713
121	0x3d951153	0.07278695
122	0xbd64d562	-0.05586756
123	0x3df77acf	0.12083971
124	0xbeb51d8b	-0.35374102
125	0xbc82bffe	-0.01596069
126	0x3c5755d9	0.013143026
127	0x3d61b4ec	0.05510418
128	0xbd5f13de	-0.054462306
129	0xbd8b4d14	-0.06801811
130	0x3dbae4a9	0.09125645
131	0x3e2665e3	0.16249804
132	0x3e49b17f	0.19696616
133	0xbc9b14a6	-0.018930744
134	0x3cc6a796	0.024249833
135	0xbe5df3e1	-0.21675064
136	0xbd218baa	-0.039439835
137	0xbdf0c308	-0.11755949
138	0x3e23816e	0.15967342
139	0xbdec86be	-0.115491375
140	0x3dde47f2	0.10853566
141	0xbde51fd1	-0.11187709
142	0x3d4556e3	0.048178565
143	0xbe596ce0	-0.21232939
144	0xbe1a9b8e	-0.15098402
145	0xbd01a0c5	-0.031647462
146	0xbe51c9fc	-0.20487207
147	0xbeb4f0d4	-0.35339987
148	0x3cc1a130	0.02363643
149	0x3e153239	0.1456994
150	0xbde8bc9a	-0.11364098
151	0xbe555230	-0.20832133
152	0xbe1a8723	-0.15090613
153	0xbc9f86db	-0.019473484
154	0x3e2abdb5	0.1667393
155	0x3cb33e59	0.021880316
156	0x3dcc5180	0.099764824
157	0xbdf194f1	-0.117959864
158	0xbe20909b	-0.15680163
159	0x3dec817c	0.11548135
160	0xbd597b77	-0.05309626
161	0x3dcc5ff9	0.09979243
162	0x3c8d518a	0.017250795
163	0x3deb2981	0.114825256
164	0xbe36feca	-0.17870632
165	0xbe1229ae	-0.14273712
166	0x3d5f96df	0.05458724
167	0xbdd97047	-0.10617118
168	0x3b534e02	0.0032242541
169	0xbe265d51	-0.16246535
170	0x3c37b1f4	0.011211861
171	0xbdfa71dc	-0.12228748
172	0x3c1bab27	0.009501255
173	0x3dd7e1ae	0.10541092
174	0x3d82cfc7	0.06387287
175	0xbe165a0b	-0.14682786
176	0x3d0a8470	0.03381771
177	0x3d1d5fd6	0.038421474
178	0xbeafe034	-0.3435074
179	0x3d769f47	0.060210492
180	0xbe846312	-0.25856835
181	0x3b0622f2	0.0020467606
182	0xbce45a1a	-0.027874995
183	0xbe01790f	-0.12643836
184	0x3c77fc79	0.015135878
185	0xbd36e37e	-0.044650547
186	0xbdcfd941	-0.1014886
187	0x3db85454	0.09000459
188	0xbd8eb4b3	-0.069680594
189	0x3da23079	0.07919402
190	0xbdc0a0b8	-0.09405655
191	0x3da7845b	0.08179542
192	0x3de9d811	0.114181645
193	0x3e56563e	0.20931336
194	0x3daac5c8	0.08338505
195	0xbd807a22	-0.06273295
196	0x3c31bea3	0.010848674
197	0x3c6f41d8	0.014603101
198	0xbe04523b	-0.12921993
199	0x3dff33cb	0.124610506
200	0xbba31545	-0.0049769008
201	0x3df5e963	0.120074056
202	0x3e22a4ad	0.15883131
203	0xbd9b14d8	-0.07572335
204	0x3e07dbc9	0.13267435
205	0x3c2f1a13	0.010687369
206	0x3e878749	0.26470402
207	0xbde84acd	-0.11342392
208	0x3ca583f9	0.020204531
209	0xbe084f9a	-0.13311616
210	0xbd448379	-0.047976945
211	0x3e257a69	0.16159977
212	0x3d868ac5	0.06569437
213	0xbe5ad04b	-0.2136852
214	0x3df34b78	0.11879629
215	0x3d218531	0.03943366
216	0xbe28ba30	-0.16477275
217	0x3e17321f	0.14765213
218	0x3e5e8adf	0.21732663
219	0xbe40e762	-0.18838266
220	0xbd9c7223	-0.07638957
221	0xbe01e6f7	-0.12685762
222	0xbe281acf	-0.16416477
223	0x3e237209	0.1596147
224	0xbc7fac0f	-0.015604987
225	0x3d84a06f	0.06475913
226	0xbccff69a	-0.025386143
227	0x3cfd47ba	0.030917991
228	0xbdb4e0e9	-0.08831961
229	0x3d845a78	0.06462568
230	0x3e0dc9bb	0.13846485
231	0xbdc573ca	-0.09641226
232	0x3d98d551	0.07462562
233	0x3dab706b	0.083710514
234	0xbe374725	-0.17898233
235	0x3cf74a68	0.030186847
236	0x3d377e5d	0.044798244
237	0xbe240ead	-0.16021223
238	0x3c1ebedb	0.009689058
239	0xbd7aba03	-0.06121255
240	0xbe05aea9	-0.13054909
241	0xbdd7e787	-0.10542207
242	0xbe7afa62	-0.24509576
243	0x3cf807f1	0.030277224
244	0xbe6c639d	-0.23084874
245	0xbd8557b2	-0.06510867
246	0xbdaba3c7	-0.083808474
247	0x3c9c4ba7	0.019079043
248	0xbd439b9b	-0.04775582
249	0xbe0a9924	-0.13534981
250	0xbd311089	-0.04322866
251	0x3cdf8303	0.027284151
252	0x3ce835c0	0.028345942
253	0xbdab14be	-0.08353566
254	0x3db61e34	0.088924795
255	0x3b707d2a	0.0036695697

main_net.2.bias f4 [64]
0	0xbd4716a5	-0.04860558
1	0x3d95a369	0.07306559
2	0x3d47d6a5	0.048788685
3	0x3cdb1e34	0.0267478
4	0x3ca0192c	0.019543253
5	0x3cd83da1	0.026396574
6	0x3d96abda	0.07356997
7	0xbe4fb5eb	-0.2028424
8	0xbdf7c8e4	-0.12098864
9	0x3dcfbf24	0.10143879
10	0xbdcc9998	-0.09990233
11	0x3d6c05ca	0.05762271
12	0xbe8724df	-0.26395318
13	0xbd2fa8e6	-0.042885683
14	0x3e3a1151	0.18170668
15	0xbe9fdcdb	-0.31223187
16	0x3e2b1cb7	0.16710173
17	0xbc1e7226	-0.00967077
18	0x3d41b574	0.047292188
19	0xbc5dca4a	-0.013536999
20	0xbe17fbb7	-0.14842115
21	0xbe83d34d	-0.25747147
22	0xbdeb7c69	-0.11498339
23	0xbde9fbbf	-0.1142497
24	0x3da4a6d9	0.08039636
25	0x3d05c7cf	0.032661255
26	0x3cac7418	0.021051452
27	0x3e2c7a50	0.16843534
28	0xbe026958	-0.12735498
29	0xba27244d	-0.00063759537
30	0xbda02ed2	-0.0782143
31	0x3dde0973	0.10841646
32	0x3d831576	0.06400578
33	0x3e104786	0.14089784
34	0xbd409bf5	-0.047023732
35	0x3df2098a	0.11818226
36	0x3e2cf83a	0.16891566
37	0xbd9e464c	-0.07728252
38	0xbc0bba7d	-0.008528349
39	0xbb729c82	-0.0037019555
40	0x3e031db4	0.128043
41	0x3d041683	0.03224803
42	0x3da8b37b	0.08237358
43	0xbd0e43d8	-0.03473267
44	0x3cac23a3	0.021013087
45	0xbcabdf87	-0.02098061
46	0x3e20f00b	0.15716569
47	0x3e0e563d	0.13900085
48	0x3d598a95	0.053110678
49	0xbc0ed74f	-0.008718326
50	0x3c0e4358	0.008683048
51	0xbe0740ae	-0.13208267
52	0xbd28102c	-0.041031048
53	0xbe8f48fd	-0.27985373
54	0x3dfb971d	0.12284682
55	0xbd93b561	-0.0721233
56	0x3e2f1631	0.17098309
57	0x3d0faa52	0.03507454
58	0xbc8bb427	-0.017053677
59	0xbd967727	-0.07346945
60	0x3da2d67e	0.079510674
61	0x3e29b326	0.16572246
62	0x3e49fa96	0.19724497
63	0x3d5abe8d	0.05340438

main_net.4.weight f4 [64, 64]
0	0xbe8acafc	-0.2710799
1	0xbef5999c	-0.47968757
2	0x3e0e5d3f	0.13902758
3	0xbd187279	-0.037218545
4	0xbe1a957b	-0.15096085
5	0xbdff9117	-0.124788456
6	0xbd99914c	-0.07498416
7	0x3e7e9144	0.24860102
8	0xbd72f77f	-0.059318062
9	0x3df13a08	0.11778647
10	0xbdb066a5	-0.08613328
11	0xbe9acbee	-0.3023371
12	0x3cc8d675	0.024516324
13	0xbd7a3e3f	-0.06109452
14	0x3e33a207	0.17542277
15	0xbdd13d7e	-0.10216807
16	0x3d93c61b	0.0721552
17	0x3d345275	0.04402395
18	0xbcc3b4f4	-0.023889996
19	0x3e062787	0.13101016
20	0xbe4a3157	-0.19745384
21	0xbe594190	-0.21216416
22	0xbf1c26d0	-0.60996723
23	0xbef4219f	-0.476819
24	0x3e30f3c9	0.17280497
25	0xbe173085	-0.14764602
26	0x3d83f878	0.06443876
27	0xbe063214	-0.13105041
28	0xbec42e3c	-0.38316524
29	0xbba25cd1	-0.0049549122
30	0xbf29148e	-0.6604699
31	0x3dcb087c	0.09913728
32	0x3c0e24a6	0.00867573
33	0xba8b3b0f	-0.0010622459
34	0x3e6688f8	0.22513187
35	0xbd9da113	-0.07696738
36	0x3de66e0b	0.11251458
37	0xbeb0eaf5	-0.34554258
38	0x3e6c1918	0.23056448
39	0x3dc7a442	0.097481266
40	0xbec2cbb9	-0.38046053
41	0xbccca2c9	-0.024979966
42	0x3e5959d5	0.21225674
43	0xbd143a1c	-0.03618823
44	0x3d9bbc05	0.07604221
45	0x3e318182	0.1733456
46	0x3e2b95eb	0.16756408
47	0xbdf4ec07	-0.11959081
48	0x3d8dafa2	0.06918265
49	0xbe8f8142	-0.28028303
50	0xbd7d1604	-0.061788574
51	0xbee62425	-0.4494945
52	0x3e8d8e5e	0.2764768
53	0xbe1fac89	-0.1559316
54	0x3cf168ce	0.02946892
55	0xbe836433	-0.25662383
56	0xbd478732	-0.048712917
57	0x3d07aea5	0.03312554
58	0x3d5f354a	0.05449418
59	0xbb0309ae	-0.0019994783
60	0xbe4c629e	-0.19959494
61	0xbe8c8e0e	-0.2745213
62	0x3da09f41	0.07842875
63	0xbd2668a2	-0.04062713
64	0xbebfcab4	-0.37459338
65	0x3db70906	0.08937268
66	0xbdf1fed6	-0.11816184
67	0x3d84046a	0.064461544
68	0xbdc5a136	-0.09649889
69	0x3dc43853	0.095810555
70	0xbdc11faa	-0.094298676
71	0x3d917424	0.0710223
72	0xbd89dc2b	-0.06731447
73	0x3e10ee2e	0.14153358
74	0x3da48aa6	0.080342576
75	0xbd04e524	-0.032445088
76	0x3d85239b	0.06500932
77	0x3aeb90ff	0.0017972289
78	0x3dc0dbf7	0.09416955
79	0xbd20fa35	-0.039301116
80	0xbdf0a0f6	-0.11749451
81	0xbe1c532f	-0.15266107
82	0xbe398ab2	-0.18119314
83	0x3d73b66b	0.05950014
84	0x3ecb238a	0.39675552
85	0xbe3d3136	-0.18475804
86	0xbdd74e36	-0.105129644
87	0x3cb9a9dd	0.022664005
88	0x3e1e97a8	0.1548754
89	0xbd076c90	-0.033062518
90	0x3dea32d6	0.114354774
91	0xbb0ea331	-0.002176475
92	0xbf141cf3	-0.57856673
93	0xbecf5614	-0.4049536
94	0x3c62c232	0.013840245
95	0xbd05d01d	-0.032669175
96	0x3e266abe	0.16251656
97	0xbd29616d	-0.041352678
98	0x3de06f00	0.109586716
99	0xbb868797	-0.004105519
100	0x3bb7f148	0.0056134798
101	0xbca825ce	-0.02052584
102	0xbd95d7a9	-0.073165245
103	0x3e00b6a4	0.12569672
104	0xbd8bbbc6	-0.06822924
105	0xbd74fa9f	-0.059809323
106	0xbe713ae6	-0.23557624
107	0xbdb2a7f7	-0.08723443
108	0x3e2bb772	0.16769198
109	0xbdf4a46b	-0.11945423
110	0xbd4d8d5a	-0.05018363
111	0x3dc192b5	0.0945181
112	0x3e2bb542	0.16768363
113	0x3ee80aa9	0.45320633
114	0xbe0f5f35	-0.14001162
115	0x3e89a435	0.26883093
116	0xbdc01ffd	-0.09381101
117	0xbd5e1473	-0.05421872
118	0x3e1c0e54	0.15239841
119	0x3decea2a	0.11568101
120	0xbd0ea813	-0.034828257
121	0xbd87d1fc	-0.06631848
122	0x3dce2f17	0.100675754
123	0x3e037857	0.12838875
124	0x3d7d116f	0.061784204
125	0xbae15375	-0.001719101
126	0x3d920360	0.0712955
127	0xbda6ba84	-0.08141044
128	0xbc8c221e	-0.017106112
129	0x3d4e36dc	0.050345287
130	0x3e5cc321	0.21558811
131	0x3de3a3d2	0.111152306
132	0xbd8d0156	-0.068850204
133	0x3d94698e	0.072466955
134	0xbc18418b	-0.00929297
135	0xbe81580f	-0.25262496
136	0xbd9c0463	-0.07618024
137	0x3e203b24	0.1564756
138	0x3dbf1d12	0.093317166
139	0xbe8df1c8	-0.27723527
140	0xbc73ccb3	-0.014880347
141	0xbde5aa7c	-0.11214158
142	0x3cd81b11	0.026380094
143	0xbe416aa9	-0.18888344
144	0xbe14a984	-0.1451779
145	0x3df049a6	0.11732797
146	0xbdfe13d0	-0.12406123
147	0x3d7b6b4e	0.06138163
148	0xbdd12738	-0.102125585
149	0x3dc2129e	0.09476207
150	0xbf1c33b7	-0.6101641
151	0xbe9d1608	-0.3068087
152	0x3d78c2bd	0.060732592
153	0x3cd91236	0.026497941
154	0x3df51504	0.11966899
155	0x3cdab3ea	0.026697118
156	0xbe056bde	-0.1302943
157	0x3e85bc7a	0.2612036
158	0xbf60050b	-0.87507695
159	0x3cbdf908	0.023190036
160	0x3e2bda18	0.16782415
161	0x3e6126b1	0.21987416
162	0xba5fe1a6	-0.0008540399
163	0xba8a5cb3	-0.0010556191
164	0xbd4ace40	-0.0495131
165	0xbec2fb14	-0.38082182
166	0x3e1bfe90	0.15233827
167	0xbd5d6c3a	-0.05405829
168	0xbe17bd96	-0.14818415
169	0x3e7802c5	0.24219806
170	0xbb1f359a	-0.0024293424
171	0x3e599c6a	0.21251073
172	0xbc101843	-0.008794847
173	0xbcafcf8b	-0.021461269
174	0x3e280f39	0.16412057
175	0xbd44ca24	-0.04804434
176	0x3e43e6cb	0.1913101
177	0xbdf631a6	-0.120211884
178	0x3c666dad	0.014064235
179	0xbe266d93	-0.16252737
180	0x3eb0e3db	0.3454884
181	0xbdfd7ced	-0.12377343
182	0x3e3fcd60	0.18730688
183	0xbe807fb5	-0.25097433
184	0x3e1871b6	0.14887127
185	0xbcb6376a	-0.02224322
186	0xbe832e6a	-0.2562135
187	0x3c946d2b	0.018118462
188	0x3e190833	0.14944534
189	0xbe0b1d10	-0.13585305
190	0x3e892a45	0.26790062
191	0xbe2e0a9b	-0.16996233
192	0xbe5ee38c	-0.2176649
193	0xbe0f560c	-0.13997668
194	0x3cefd5ef	0.029276816
195	0x3e34ed3b	0.17668621
196	0xbd9ebd19	-0.07750911
197	0x3bc39b7a	0.005969462
198	0xbd80aae9	-0.062825985
199	0xbda3cbb9	-0.079978414
200	0x3da385d5	0.07984511
201	0x3e3345ab	0.17507045
202	0xbd613d7f	-0.054990288
203	0xbe7a503c	-0.2444467
204	0xbe786a82	-0.2425938
205	0x3dce4e31	0.100735076
206	0xbe167e71	-0.14696671
207	0xbdf97ed9	-0.121823974
208	0x3de2d282	0.110753074
209	0xbd80a586	-0.06281571
210	0x3d4762ff	0.048678394
211	0x3e676ff7	0.22601305
212	0xbf00093c	-0.5001409
213	0xbe6a5291	-0.22883059
214	0xbf21487b	-0.6300122
215	0xbd17334e	-0.036914162
216	0x3ce772a9	0.028252916
217	0xbd7c93f8	-0.06166455
218	0xbf221421	-0.63311964
219	0xbe33df80	-0.17565727
220	0xbd92cd28	-0.07168037
221	0xbf0f9764	-0.5609038
222	0xbf6e0b28	-0.92985773
223	0x3dcf429a	0.10120125
224	0xbe8d7c84	-0.2763406
225	0xbdff0eaa	-0.12453969
226	0x3e4de53c	0.20106977
227	0x3dd9b8e5	0.10630969
228	0xb98ce422	-0.00026872853
229	0xbe7edab6	-0.24888119
230	0x3dc2e35d	0.09516022
231	0x3e35739f	0.17719887
232	0x3dfe1cee	0.12407862
233	0x3d6c5f4b	0.057708066
234	0x3e53b2bb	0.20673649
235	0xbeb80408	-0.35940576
236	0xbcd84e46	-0.026404511
237	0x3d8a041a	0.067390636
238	0x3cf8821d	0.03033548
239	0x3df55f36	0.11981051
240	0x3dcdf157	0.100557975
241	0xbedf292e	-0.43586105
242	0x3e029394	0.12751609
243	0xbcfa2b3c	-0.030538194
244	0x3e605716	0.2190822
245	0xbe42c13d	-0.19019027
246	0xbdf52c18	-0.11971301
247	0x3e596e1b	0.21233408
248	0xbd648a02	-0.055795677
249	0x3c4b6227	0.012413538
250	0x3e035e11	0.12828852
251	0x3e8bbedb	0.2729405
252	0xbec63f23	-0.38720044
253	0x3e1d7e3a	0.15380183
254	0xbe45f0ab	-0.19330089
255	0x3cc9922a	0.02460583

main_net.4.bias f4 [64]
0	0x3cfd5846	0.030925881
1	0xbe0a60bd	-0.13513465
2	0xbd730931	-0.059334937
3	0x3dc8565a	0.09782095
4	0x3e251d2e	0.16124412
5	0x3e25e4cb	0.16200559
6	0x3e4b124f	0.19831203
7	0x3e0adf80	0.13561821
8	0x3def7060	0.11691356
9	0xbdfd515b	-0.12369033
10	0x3e054f5e	0.13018557
11	0x3d9db992	0.0770141
12	0xbe1f0535	-0.1552933
13	0xbd7db0cd	-0.06193619
14	0xbce6bb69	-0.028165536
15	0x3d2799b2	0.04091806
16	0x3db3f52d	0.08786998
17	0x3d052f52	0.03251583
18	0xbd80ea93	-0.062947415
19	0x3e35ef99	0.1776718
20	0x3dcbddc8	0.09954411
21	0xbc88274e	-0.016620304
22	0xbe1865bc	-0.14882559
23	0x3dc3c496	0.0955898
24	0xbd7f26eb	-0.062292974
25	0x3c71851b	0.0147412075
26	0x3d875f03	0.06609919
27	0x3d71778c	0.0589519
28	0x3e3ee82a	0.18643251
29	0x3e55ee75	0.20891745
30	0x3e16578c	0.14681834
31	0x3e1369cd	0.14395829
32	0xbc8de3a9	-0.01732047
33	0x3e11bd36	0.14232334
34	0x3d8511a6	0.06497507
35	0xbe2fe5e6	-0.17177543
36	0x3e0e35db	0.13887732
37	0xbca7bb87	-0.020475162
38	0x3e1afbbd	0.15135093
39	0x3d6184ce	0.055058293
40	0x3d719079	0.05897567
41	0x3d7b9458	0.06142077
42	0x3b9c6f43	0.0047740056
43	0x3dd71bab	0.10503324
44	0x3e24285f	0.16031025
45	0x3da8b513	0.08237662
46	0x3e030777	0.12795816
47	0xbe0caea5	-0.13738497
48	0x3d5af417	0.05345544
49	0x3dee56cf	0.11637651
50	0x3e3b2ec2	0.18279555
51	0xbe7045b9	-0.23464097
52	0x3e1ad117	0.15118824
53	0xbd1b0599	-0.037847135
54	0xbd08b926	-0.033379696
55	0x3e3f79b6	0.18698773
56	0xbd3715bc	-0.044698462
57	0x3db2e210	0.08734524
58	0x3c3c6a6e	0.011499984
59	0xbca38681	-0.019961597
60	0x3d2a04aa	0.041508354
61	0x3e33e0d0	0.17566228
62	0x3dabcf65	0.08389167
63	0x3e02e661	0.12783195

main_net.6.weight f4 [2, 64]
0	0xbea7321b	-0.32655415
1	0x3dad49a7	0.08461314
2	0xbdecb41a	-0.11557789
3	0xbe0e59d1	-0.1390145
4	0xbe33889f	-0.17532586
5	0xbc7d78b0	-0.015470669
6	0x3e3c41f2	0.18384531
7	0x3db40015	0.08789078
8	0xbe6a3805	-0.22872932
9	0x3dd44d45	0.103663005
10	0x3d75e593	0.060033392
11	0x3e3ae95b	0.1825308
12	0xbee8340b	-0.45352206
13	0xbe12f598	-0.14351499
14	0xbf4475f0	-0.7674246
15	0xbe0664ef	-0.1312444
16	0x3e335c2c	0.1751563
17	0xbd923c97	-0.07140463
18	0x3efaf37e	0.49013895
19	0xbd09afde	-0.033614986
20	0x3dab9683	0.08378317
21	0xbb9a1c27	-0.004703063
22	0x3c3bec25	0.011469875
23	0xbe24e560	-0.16103125
24	0x3f01b35c	0.50664306
25	0xbe11cfa5	-0.14239366
26	0x3d9e08b9	0.077165075
27	0x3cd3683f	0.025806544
28	0xbd4b8c4a	-0.049694337
29	0x3e3b9de0	0.18321943
30	0xbe1e6b11	-0.1547053
31	0xbda82fc2	-0.08212234
32	0xbd68cccf	-0.056835946
33	0x3d0186fe	0.03162288
34	0x3e8892da	0.2667454
35	0xbebcb66f	-0.36857936
36	0x3e0dded6	0.13854536
37	0x3c174bcc	0.00923438
38	0x3d926fbd	0.07150219
39	0x3e2cde7c	0.16881746
40	0x3df545d9	0.11976213
41	0x3df9c447	0.1219564
42	0xbcaecea0	-0.02133876
43	0x3e0ad966	0.13559493
44	0xbd8d334c	-0.0689455
45	0xbdb5c913	-0.088762425
46	0x3dffb95f	0.124865286
47	0xbe88306f	-0.26599452
48	0xbea69c52	-0.32541138
49	0xbdc1da81	-0.094655044
50	0xbe3ae47d	-0.18251224
51	0xbe1edeb9	-0.1551465
52	0xbe12c882	-0.143343
53	0xbd5abff2	-0.05340571
54	0xbd44fd66	-0.048093222
55	0x3de20459	0.110359855
56	0x3db29c9d	0.08721278
57	0xbdffedca	-0.124965265
58	0x3e9eeac2	0.3103848
59	0xbb86280b	-0.004094129
60	0xbda32266	-0.07965545
61	0x3e193011	0.14959742
62	0xbdc945d8	-0.09827775
63	0xbe19f0b1	-0.15033223
64	0x3e6a754c	0.22896308
65	0x3e244320	0.16041231
66	0x3e49a5c4	0.19692141
67	0xbeda7723	-0.4266902
68	0xbcdd1285	-0.02698637
69	0xbe25dfdc	-0.16198677
70	0x3b35e80c	0.002775672
71	0xbe2734f7	-0.16328798
72	0xbe2615ec	-0.162193
73	0xbd9669e7	-0.07344418
74	0x3dd62e14	0.104580075
75	0x3e14ab9f	0.14518593
76	0x3dcb0614	0.09913269
77	0xbd157f84	-0.03649856
78	0xbda9ac09	-0.08284766
79	0xbe1eb318	-0.15498006
80	0xbdd51890	-0.104050756
81	0x3d60ae39	0.05485365
82	0x3e3f8899	0.18704452
83	0x3dc8f119	0.09811611
84	0x3deedf31	0.11663664
85	0x3de15586	0.110026404
86	0xbb852d50	-0.0040642396
87	0xbdf9e121	-0.12201143
88	0xbe891052	-0.26770264
89	0x3d5aa0f9	0.05337617
90	0x3db40d4b	0.08791598
91	0xbdac7797	-0.084212475
92	0x3daaf9c6	0.08348422
93	0x3e12c824	0.1433416
94	0x3cb78fbd	0.022407407
95	0x3c7c94b1	0.01541631
96	0xbdf80efe	-0.121122345
97	0xbda0ae4c	-0.078457445
98	0x3de287e4	0.11061075
99	0x3e7ed5dd	0.2488627
100	0x3caf7ebc	0.021422736
101	0xbd85476e	-0.06507765
102	0xbdeb45c1	-0.11487914
103	0xbc39b785	-0.011335258
104	0xbdd76ff8	-0.10519403
105	0xbd239834	-0.039940074
106	0x3d86fcb3	0.06591167
107	0xbb6d91bf	-0.0036250202
108	0x3e7b653b	0.24550335
109	0x3e01fa80	0.12693214
110	0x3e23f6f9	0.16012181
111	0xbdd8b4d7	-0.105813675
112	0x3e9c950a	0.30582458
113	0x3da3e3c7	0.080024295
114	0xbcd07653	-0.025447046
115	0x3edbb477	0.4291112
116	0x3d02a678	0.03189704
117	0xbdfe5451	-0.12418426
118	0xbbd4a3ac	-0.006489238
119	0x3d3ce6f8	0.046118706
120	0xbcf39257	-0.029732866
121	0x3e2787a5	0.16360338
122	0x3d919b9f	0.071097605
123	0xbd6c90d6	-0.057755314
124	0x3da91242	0.082554355
125	0xbda4c829	-0.0804599
126	0xbe10516f	-0.14093564
127	0x3c764a03	0.015032294

main_net.6.bias f4 [2]
0	0x3d88fdd9	0.066890426
1	0xbc43ad1d	-0.011943129
