models/normalizing_flow_epoch_7.pth (torch, 150638 bytes, 270 tensors)

layers.0.s_block.net.0.0.weight f4 [8, 1]
0.16776896 -0.93083 -0.6080808 0.4359698 0.52154917 -1.1268302 -1.0101343 -0.5416966
00000000: a0cb 2b3e e04a 6ebf 2fab 1bbf 6f37 df3e
00000010: 3f84 053f f93b 90bf 154c 81bf a1ac 0abf

layers.0.s_block.net.0.0.bias f4 [8]
-0.42017585 -0.17710741 -0.5858088 0.56239516 -1.0634818 0.39775625 -0.16857128 1.0693344
00000000: 4a21 d7be a55b 35be 91f7 15bf 21f9 0f3f
00000010: 2c20 88bf b5a6 cb3e f39d 2cbe f3df 883f

layers.0.s_block.net.1.0.weight f4 [8, 8]
-0.02525129 0.47657976 0.030169562 -0.40724316 -0.30594924 0.2848933 0.4127698 0.057929315
0.5489459 -0.23260753 -0.053943325 0.16959159 0.33568472 -0.26008442 0.19893168 -0.1054393
0.42327428 -0.20680751 -0.02373584 -0.2984103 0.49102992 0.2890535 -0.044703774 0.00023972742
0.04765105 -1.475824 -0.071721725 -0.08501117 -0.011929657 0.16451572 -0.5365369 0.3377927
0.076199725 0.022670435 -0.096723616 0.13121459 0.37620232 0.1067916 0.2758104 -0.21565068
0.31944236 -0.31624642 -0.49901012 0.13261163 0.6281471 0.38438407 0.3496918 -0.2467944
-0.13796264 -0.30320853 -0.500636 -0.34896407 -0.44045353 0.6137506 0.24083078 0.5563275
0.4292055 -0.33389243 -0.31419668 -0.2871251 0.20581125 0.16370729 -0.19002725 -0.1564306
00000000: cbdb cebc 4302 f43e 2826 f73c 2d82 d0be
00000010: 61a5 9cbe 89dd 913e 9056 d33e 4a47 6d3d
00000020: b887 0c3f ab30 6ebe adf3 5cbd 6ba9 2d3e
00000030: dede ab3e c929 85be bfb4 4b3e 8ff0 d7bd
00000040: 68b7 d83e 59c5 53be aa71 c2bc 3cc9 98be
00000050: 4668 fb3e d2fe 933e 4e1b 37bd 575f 7b39
00000060: bf2d 433d cde7 bcbf d7e2 92bd 561a aebd
00000070: 9c74 43bc cf76 283e 7b5a 09bf 2af3 ac3e
00000080: 9a0e 9c3d 59b7 b93c 0817 c6bd 1e5d 063e
00000090: 979d c03e 8eb5 da3d 0537 8d3e 88d3 5cbe
000000a0: f38d a33e 0deb a1be 417e ffbe 58cb 073e
000000b0: 40ce 203f fdcd c43e ce0a b33e acb7 7cbe
000000c0: 1446 0dbe 263e 9bbe ae29 00bf 6bab b2be
000000d0: 2083 e1be c21e 1d3f 589c 763e 7b6b 0e3f
000000e0: d3c0 db3e f3f3 aabe 63de a0be 1002 93be
000000f0: 2fc0 523e e2a2 273e 8196 42be 582f 20be

layers.0.s_block.net.1.0.bias f4 [8]
0.035128888 -0.366843 -0.32717562 0.0955088 -0.31631672 -0.38650927 -0.2393733 -0.03291053
00000000: 4fe3 0f3d d8d2 bbbe 9083 a7be 1e9a c33d
00000010: 44f4 a1be 8be4 c5be 461e 75be 31cd 06bd

layers.0.s_block.net.2.0.weight f4 [8, 8]
-1.0243852 -0.2300121 0.5715062 0.9629475 0.03945851 0.14539611 0.55206555 0.4762593
0.44242835 0.15964423 -0.23199497 -0.026340265 -0.06619096 0.15886945 0.4273444 -0.39959168
-0.25104633 -0.62961966 0.116974585 0.8898631 -0.38775262 -0.13196948 -0.0073904805 0.3730218
-0.29667875 0.09189364 0.72512853 0.28466767 -0.0799781 0.22394006 0.16464902 0.18196523
0.2667307 -0.18184805 -0.50896364 -0.8747742 -0.355375 -0.9109173 -0.075616874 -0.37852496
0.6256666 -0.029309863 -0.71387875 -0.6448829 -0.3756758 -0.3733864 0.017350905 -0.029532908
0.120875135 -0.2657328 -0.301338 -0.46886292 -0.4927581 -0.71122605 -0.8731884 -0.38469985
0.3634738 -0.84925896 -0.07866569 -0.8195829 -0.016624529 -0.7175388 0.07014835 -0.37047893
00000000: 0e1f 83bf 4b88 6bbe 3b4e 123f ba83 763f
00000010: 3f9f 213d b8e2 143e 2b54 0d3f 42d8 f33e
00000020: f885 e23e c779 233e 1790 6dbe 8ac7 d7bc
00000030: 208f 87bd acae 223e e3cc da3e 4897 ccbe
00000040: 2589 80be c12e 21bf 5f90 ef3d 11ce 633f
00000050: 8387 c6be 0223 07be d82b f2bb b7fc be3e
00000060: 47e6 97be bc32 bc3d 06a2 393f f6bf 913e
00000070: 8fcb a3bd 8b50 653e c199 283e 1855 3a3e
00000080: ed90 883e 6036 3abe 714b 02bf 34f1 5fbf
00000090: b6f3 b5be e031 69bf 05dd 9abd 06ce c1be
000000a0: b02b 203f 3d1b f0bc c2c0 36bf 0c17 25bf
000000b0: 9458 c0be 812c bfbe 7c23 8e3c ffee f1bc
000000c0: 628d f73d 210e 88be f948 9abe cd0e f0be
000000d0: ca4a fcbe e912 36bf 4689 5fbf 61f7 c4be
000000e0: 3d19 ba3e 0969 59bf 7a1b a1bd 2fd0 51bf
000000f0: 2a30 88bc 9fb0 37bf f0a9 8f3d 6aaf bdbe

layers.0.s_block.net.2.0.bias f4 [8]
0.006836706 -0.33854365 0.5581597 -0.34852916 0.36141434 0.12934475 0.4169919 0.31672257
00000000: 7206 e03b 9855 adbe 8ee3 0e3f 6a72 b2be
00000010: 4d0b b93e f372 043e f67f d53e 7629 a23e

layers.0.s_block.net.3.0.weight f4 [8, 8]
0.01985184 0.29828247 -0.42144802 0.25516126 -0.3364969 -0.15100986 -0.90740544 -0.6009119
0.08964507 -0.026854567 0.5939846 0.33304796 -0.5213725 -0.8689629 -0.19561209 -0.5755121
-0.662997 -0.5128215 -0.026464958 -0.5147737 0.32669723 0.036196236 0.85163057 0.58877635
0.69354135 -0.100392014 0.16696215 0.579751 -0.8793304 -0.3479368 -1.1083322 -0.6334755
-0.7003532 -0.63179725 0.41113266 -0.40715188 0.2863221 0.2627833 0.39865217 0.25404927
0.22012031 0.2655979 -0.031376522 0.51958054 -0.4872173 -0.3787875 -0.44787878 -0.727734
-0.07589727 0.5685372 -0.23326172 0.22547497 -0.015596751 -0.42223936 -0.36720404 -0.57001626
-0.22462466 0.46338665 -0.6490415 0.058999904 -0.12893714 0.13174611 0.44145465 0.022948379
00000000: 53a0 a23c 7bb8 983e 09c8 d7be 7fa4 823e
00000010: 5249 acbe 54a2 1abe b94b 68bf 5dd5 19bf
00000020: d697 b73d 1cfe dbbc 600f 183f 4385 aa3e
00000030: ab78 05bf 5a74 5ebf 894e 48be c354 13bf
00000040: 2cba 29bf 4548 03bf 0acd d8bc 36c8 03bf
00000050: dc44 a73e 8142 143d 7604 5a3f 0cba 163f
00000060: ed8b 313f 549a cdbd 20f8 2a3e 906a 143f
00000070: cc1b 61bf c624 b2be d4dd 8dbf 732b 22bf
00000080: 594a 33bf 77bd 21bf fb7f d23e 3676 d0be
00000090: cf98 923e 888b 863e 231c cc3e bf12 823e
000000a0: 3867 613e 73fc 873e ab84 00bd 3b03 053f
000000b0: 8c74 f9be 6ff0 c1be 5e50 e5be c74c 3abf
000000c0: 0770 9bbd a78b 113f 29dc 6ebe e9e2 663e
000000d0: 8489 7fbc c22f d8be 2b02 bcbe 96ec 11bf
000000e0: 0204 66be 0441 ed3e 9527 26bf e2a9 713d
000000f0: 1908 04be 74e8 063e 5806 e23e 3dfe bb3c

layers.0.s_block.net.3.0.bias f4 [8]
-0.5018975 0.24375209 0.43395346 0.00084806443 0.31322798 -0.3505205 -0.42526013 -0.27700633
00000000: 5b7c 00bf 269a 793e 262f de3e a450 5e3a
00000010: 6b5f a03e 6c77 b3be b2bb d9be c6d3 8dbe

layers.0.s_block.net.4.weight f4 [1, 8]
0.33530098 0.38949558 -0.5703541 0.9259696 -0.40460595 0.6886284 0.37388143 -0.29815182
00000000: 92ac ab3e f76b c73e ba02 12bf 580c 6d3f
00000010: 8328 cfbe f349 303f 636d bf3e 5ba7 98be

layers.0.b_block.net.0.0.weight f4 [8, 1]
0.342677 0.5075153 0.2679147 -0.24201128 -1.1151162 -0.4910887 -1.4688313 0.8991009
00000000: 5c73 af3e 86ec 013f 1e2c 893e ced1 77be
00000010: 21bc 8ebf fa6f fbbe aa02 bcbf 7a2b 663f

layers.0.b_block.net.0.0.bias f4 [8]
0.65235555 0.4802807 0.33278263 0.4116877 -0.67132014 0.6291874 0.87791395 -0.6133937
00000000: c600 273f 5ae7 f53e 7c62 aa3e bbc8 d23e
00000010: a3db 2bbf 6d12 213f f8be 603f 5f07 1dbf

layers.0.b_block.net.1.0.weight f4 [8, 8]
-0.39465734 -0.141245 -0.33198142 -0.40039608 -0.7318098 0.10322545 -0.53629553 0.13502945
-0.04705165 0.045066405 0.36402658 -0.31867272 -0.09159548 -0.6584918 -0.26563835 0.33302534
0.22194728 -0.03178242 -0.21348624 -0.02369835 -0.5989125 -0.34808782 0.5329293 0.27634564
-0.28391486 -0.05342256 0.18198997 -0.55057245 -0.626349 -0.44460893 -0.14349125 0.36568677
-0.20052688 -1.6484592 -0.6032042 0.26123258 0.9337198 -0.18115634 0.4362624 -0.51507854
0.11519468 -0.06505963 -0.25137067 -0.37162185 0.31915545 -0.4506369 0.21841809 0.36693382
0.38362178 -0.037945647 0.3259003 0.24356428 -0.30032378 0.09471672 -0.7931464 -0.619463
0.21853732 -0.9863959 -0.23075575 0.36381906 -0.8759439 0.141385 0.333905 -0.15979026
00000000: 8710 cabe 87a2 10be 78f9 a9be b700 cdbe
00000010: e357 3bbf dd67 d33d aa4a 09bf 2945 0a3e
00000020: 3bb9 40bd 8d97 383d b161 ba3e 1229 a3be
00000030: 6996 bbbd eb92 28bf c001 88be 4c82 aa3e
00000040: 2646 633e 482e 02bd 239c 5abe 0b23 c2bc
00000050: 5452 19bf 9138 b2be 0e6e 083f 2d7d 8d3e
00000060: 4a5d 91be 9dd1 5abd 945b 3a3e 51f2 0cbf
00000070: 6858 20bf c8a3 e3be 5fef 12be 4c3b bb3e
00000080: eb56 4dbe b600 d3bf 976b 1abf 47c0 853e
00000090: 4308 6f3f 0c81 39be c95d df3e 30dc 03bf
000000a0: 30eb eb3d fc3d 85bd a8b3 80be 3845 bebe
000000b0: 5868 a33e e1b9 e6be fea8 5f3e c0de bb3e
000000c0: 136a c43e e56c 1bbd 67dc a63e ea68 793e
000000d0: 0ac4 99be d7fa c13d a40b 4bbf 2195 1ebf
000000e0: 3fc8 5f3e 7184 7cbf 3c4b 6cbe 7e46 ba3e
000000f0: dc3d 60bf 3bc7 103e 99f5 aa3e 0fa0 23be

layers.0.b_block.net.1.0.bias f4 [8]
-0.06848596 0.06682406 0.41471055 -0.21565495 -0.43913344 -0.43224555 -0.16531788 0.12185364
00000000: 5e42 8cbd 0edb 883d f154 d43e a7d4 5cbe
00000010: 19d6 e0be 4a4f ddbe 1749 29be 678e f93d

layers.0.b_block.net.2.0.weight f4 [8, 8]
0.12958775 0.46507132 -0.18509586 0.49119383 0.06751042 0.3626174 -0.39225602 -1.1548187
-0.38460687 0.41210207 0.43799177 -0.03131243 -0.6353387 -0.04202951 -0.6201319 0.26549152
-0.12461779 0.5599932 0.5061386 -0.06548601 -0.303023 -0.14497153 -0.61707395 -0.1705195
-0.12812711 -0.13635483 0.06618582 0.2241187 -0.4240175 0.64900744 0.12653716 -0.2559095
-0.13486563 0.3924216 0.068901025 -0.3324599 -0.47358137 -0.29802755 -0.80273706 -0.19896325
0.36611295 -0.1137074 0.020191755 0.6058393 -0.6904875 0.5357978 0.49685374 0.5220201
-0.4565623 0.10092514 0.26951644 -0.14155608 0.3990802 0.38887092 0.73768073 -0.09982571
0.31403515 0.3676583 -0.011790266 0.41010585 -0.62144434 0.45261624 0.42687556 0.77836907
00000000: a7b2 043e d41d ee3e c589 3dbe c27d fb3e
00000010: e742 8a3d fda8 b93e c8d5 c8be 19d1 93bf
00000020: 31eb c4be 0bff d23e 7540 e03e 7641 00bd
00000030: 8fa5 22bf 2327 2cbd f7c0 1ebf 81ee 873e
00000040: 9d37 ffbd b75b 0f3f 4d92 013f 871d 86bd
00000050: d525 9bbe 6b73 14be 8ff8 1dbf aa9c 2ebe
00000060: c133 03be 9aa0 0bbe 6e8c 873d 5f7f 653e
00000070: d218 d9be 5a25 263f f592 013e 9206 83be
00000080: 371a 0abe 7ceb c83e fb1b 8d3d 2f38 aabe
00000090: 4279 f2be 1197 98be 2d80 4dbf 06bd 4bbe
000000a0: 2873 bb3e 6ddf e8bd 2e69 a53c 4918 1b3f
000000b0: cac3 30bf 0b2a 093f 9d63 fe3e 1ca3 053f
000000c0: 89c2 e9be d7b1 ce3d 0ffe 893e 14f4 10be
000000d0: 3d54 cc3e 171a c73e a5d8 3c3f 6c71 ccbd
000000e0: 37c9 a03e b53d bc3e f62b 41bc 65f9 d13e
000000f0: fa16 1fbf 51bd e73e 6f8f da3e 3243 473f

layers.0.b_block.net.2.0.bias f4 [8]
-0.40416405 0.06030094 0.04191108 -0.332209 0.27858067 -0.028703507 -0.017030034 -0.0450459
00000000: 97ee cebe 1efe 763d f4aa 2b3d 4c17 aabe
00000010: 20a2 8e3e 9e23 ebbc 9282 8bbc 0d82 38bd

layers.0.b_block.net.3.0.weight f4 [8, 8]
-0.14545 -0.41895208 -0.7164428 0.07714691 -0.34648705 0.5485794 0.024757171 0.29928797
-0.7636443 -0.004003169 0.33402833 -0.31330958 0.47745723 -0.40970808 -0.59652656 -1.1426336
-0.2644788 -0.71668965 -0.15109634 -0.29773393 -0.23330744 0.027114706 -0.21405418 0.02851257
0.3392199 0.15943873 0.68709064 0.09661911 0.30285376 0.091736324 -0.6271118 -0.35049576
-0.50330824 0.6656446 0.73532975 -0.15994622 0.5282352 -0.20752817 -0.4987674 0.1244115
0.2937651 0.21720655 0.12367064 0.114051536 -0.20505254 -0.073007345 -0.24071431 -0.39190722
-0.26827508 -0.3869688 0.13304277 0.16707674 0.0752149 -0.028695501 0.1684357 0.38354778
-0.17830567 0.27911216 0.0044122846 0.43419608 -0.02166391 -0.003052631 -0.51395714 0.07188683
00000000: d8f0 14be e380 d6be cc68 37bf 33ff 9d3d
00000010: c066 b1be b36f 0c3f 8dcf ca3c 463c 993e
00000020: 317e 43bf 042d 83bb c305 ab3e 1d6a a0be
00000030: 4675 f43e 42c5 d1be f7b5 18bf d141 92bf
00000040: c469 87be f978 37bf 00b9 1abe 9570 98be
00000050: 25e8 6ebe a91f de3c 0531 5bbe 3193 e93c
00000060: 3bae ad3e e843 233e 2ce5 2f3f 3de0 c53d
00000070: a60f 9b3e 41e0 bb3d 668a 20bf 2e74 b3be
00000080: cfd8 00bf af67 2a3f 923e 3c3f f1c8 23be
00000090: 6c3a 073f 4482 54be 715e ffbe 75cb fe3d
000000a0: 6168 963e 656b 5e3e 0847 fd3d da93 e93d
000000b0: 4bf9 51be e084 95bd d07d 76be 10a8 c8be
000000c0: 5a5b 89be c620 c6be 5d3c 083e 2a16 2b3e
000000d0: 450a 9a3d d412 ebbc 687a 2c3e 6060 c43e
000000e0: c395 36be cae7 8e3e ed94 903b f34e de3e
000000f0: 8378 b1bc a60e 48bb b292 03bf 6739 933d

layers.0.b_block.net.3.0.bias f4 [8]
-0.38312432 0.39234805 -0.29624528 0.2411038 0.2014494 -0.38250178 0.08353501 -0.21791543
00000000: df28 c4be d8e1 c83e 76ad 97be eae3 763e
00000010: c048 4e3e 46d7 c3be 6714 ab3d 3925 5fbe

layers.0.b_block.net.4.weight f4 [1, 8]
0.73066634 -0.5812503 0.24768825 -0.11480242 -0.4800678 -0.15712528 0.36597642 0.25490102
00000000: f30c 3b3f d2cc 14bf fda1 7d3e 881d ebbd
00000010: 72cb f5be 73e5 20be 4361 bb3e 6382 823e

layers.2.s_block.net.0.0.weight f4 [8, 1]
1.0269845 -0.082621984 0.9595031 0.3271731 0.17276946 -0.89418614 -0.7760232 0.91203445
00000000: 3a74 833f b735 a9bd ffa1 753f 3c83 a73e
00000010: 7aea 303e 62e9 64bf 75a9 46bf 177b 693f

layers.2.s_block.net.0.0.bias f4 [8]
-0.6286258 -0.42500418 -0.065374464 0.90856516 -1.2051328 0.37907076 -1.1062715 1.1096284
00000000: 9fed 20bf 269a d9be 0ce3 85bd ba97 683f
00000010: cb41 9abf 9015 c23e 4e9a 8dbf 4e08 8e3f

layers.2.s_block.net.1.0.weight f4 [8, 8]
-0.0515293 -0.1064213 0.21776034 0.2953706 0.12108102 0.52435434 -0.7902278 -0.35619226
0.49407402 -0.04446889 0.41939113 0.034061775 0.22985968 0.33544093 -0.5615091 -0.6589208
0.7069015 0.075851075 -0.124716245 -0.22169599 0.1476115 -0.084094375 -0.10707764 -0.35190356
-0.7119232 0.3575114 -0.47166398 -0.008230537 -0.40051156 -0.32006577 0.7126646 -0.14312114
0.03968743 0.00093161257 0.4283139 -0.20382455 0.3957298 0.24332167 -0.056111563 0.060234644
-0.1635244 -0.112814516 0.035407547 -0.27050167 -0.099569276 -0.15284243 0.35846117 -0.07742774
0.73260105 0.51340663 0.4862333 0.1258133 0.54267174 0.503151 -0.32168522 0.030860249
-0.30113533 -0.13115259 -0.416386 0.22630318 -0.75190604 0.25615942 0.0956073 0.32268167
00000000: 6310 53bd 69f3 d9bd 91fc 5e3e d13a 973e
00000010: 53f9 f73d 163c 063f 5e4c 4abf d55e b6be
00000020: 45f7 fc3e 0325 36bd 6fba d63e 5c84 0b3d
00000030: 5660 6b3e eabe ab3e 0fbf 0fbf 09af 28bf
00000040: 7ff7 343f cf57 9b3d 3b6b ffbd 4604 63be
00000050: 7827 173e ac39 acbd 864b dbbd b42c b4be
00000060: 9940 36bf bc0b b73e f17d f1be 60d9 06bc
00000070: da0f cdbe a9df a3be 3071 363f 598e 12be
00000080: 498f 223d 7637 743a f64b db3e 62b7 50be
00000090: 199d ca3e 5129 793e 3dd5 65bd 9ab8 763d
000000a0: f172 27be 4c0b e7bd 8107 113d 327f 8abe
000000b0: faea cbbd ba82 1cbe 3988 b73e 6f92 9ebd
000000c0: be8b 3b3f 9e6e 033f 92f3 f83e 34d5 003e
000000d0: 89ec 0a3f 81ce 003f edb3 a4be a2ce fc3c
000000e0: 692e 9abe dd4c 06be 8c30 d5be 05bc 673e
000000f0: ea7c 40bf 5427 833e c3cd c33d 8836 a53e

layers.2.s_block.net.1.0.bias f4 [8]
0.13632335 -0.30343828 0.1430563 0.15679741 -0.6440863 0.12786716 -0.12545553 0.5986927
00000000: 5998 0b3e 435c 9bbe 5a7d 123e 808f 203e
00000010: d7e2 24bf 9cef 023e 6a77 00be ed43 193f

layers.2.s_block.net.2.0.weight f4 [8, 8]
-0.13645272 0.3459459 -0.20455453 0.00922376 0.2002525 0.24018757 0.23292911 -0.62370056
0.2426414 0.5608557 0.2954271 0.06612535 -0.34686893 0.07115525 0.4889793 -0.33001307
-0.045389272 0.81111556 0.019977858 -0.5245714 0.08684539 -0.18065402 -0.22697729 0.20421039
0.020647729 -0.992071 0.06286016 -0.243943 -1.1325853 0.10192381 0.50226295 0.0881911
0.38173327 0.85851353 0.042076346 -0.65836483 0.62819433 -0.38225332 0.10293698 -0.38306656
-0.32521275 0.4330988 0.12333666 0.05416918 0.77795136 -0.017119415 0.1267577 -1.135364
-0.30446896 -0.24100772 -0.019458761 0.34840134 0.6230857 0.06492601 -0.40064812 -0.220865
0.065159336 0.25349542 -0.10125464 0.055929538 0.091961086 0.19251546 -0.24313304 -0.13553661
00000000: 43ba 0bbe d21f b13e be76 51be 411f 173c
00000010: fe0e 4d3e bbf3 753e f884 6e3e d7aa 1fbf
00000020: fd76 783e 3d94 0f3f 3942 973e ba6c 873d
00000030: ce98 b1be d8b9 913d 7f5b fa3e 79f7 a8be
00000040: 1aea 39bd 45a5 4f3f 9ba8 a33c 504a 06bf
00000050: ffdb b13d 5efd 38be bc6c 68be 871c 513e
00000060: 6d25 a93c 5df8 7dbf d4bc 803d 32cc 79be
00000070: 8ef8 90bf 6ebd d03d 4e94 003f 899d b43d
00000080: 8b72 c33e 8bc7 5b3f 3f58 2c3d 998a 28bf
00000090: 58d1 203f b5b6 c3be a0d0 d23d 4d21 c4be
000000a0: 4982 a6be 20bf dd3e ee97 fc3d 81e0 5d3d
000000b0: d227 473f 043e 8cbc c5cc 013e 9c53 91bf
000000c0: 5be3 9bbe baca 76be fb67 9fbc a961 b23e
000000d0: 8b82 1f3f eef7 843d c021 cdbe 6f2a 62be
000000e0: 4272 853d 27ca 813e 985e cfbd 5f16 653d
000000f0: 1856 bc3d c622 453e def7 78be 1cca 0abe

layers.2.s_block.net.2.0.bias f4 [8]
-0.124372356 0.2799531 0.3029801 0.057079304 0.03243611 -0.280957 -0.049535587 -0.1833266
00000000: efb6 febd 0356 8f3e 3520 9b3e fdcb 693d
00000010: badb 043d 99d9 8fbe d4e5 4abd f8b9 3bbe

layers.2.s_block.net.3.0.weight f4 [8, 8]
-0.2872002 0.24450594 0.15201882 -0.40648645 0.64347124 -1.0865302 0.15464634 0.024192914
-0.2323228 -0.0110437535 -0.15690307 0.46799207 -0.13743293 0.29355446 -0.42301315 -0.22502758
-0.06421818 -0.35600933 0.3923744 -0.5171485 0.11393666 -0.17564741 0.24174877 -0.2926
0.3100447 -0.17840506 -0.06334197 -0.3029365 0.3541928 0.97975266 0.49331215 0.24888633
-0.4238736 0.20429696 0.09290738 1.0196828 -0.60175425 -0.21340965 0.2839065 -0.20081228
0.2426236 0.053742297 0.38651496 -0.5363015 0.39106125 -0.53643674 -0.13992488 0.3348588
-0.08739051 0.28483433 0.2750416 -0.106223315 0.70522213 -1.0619053 -0.40312558 -0.01969885
0.10850313 0.12923206 -0.10913411 0.41839728 0.007937645 0.65692973 -0.16647443 -0.16820155
00000000: e80b 93be c45f 7a3e d2aa 1b3e fe1e d0be
00000010: 88ba 243f 6c13 8bbf 9c5b 1e3e 3830 c63c
00000020: 07e6 6dbe dcf0 34bc 33ab 20be a89c ef3e
00000030: 38bb 0cbe c54c 963e 2e95 d8be a16d 66be
00000040: d284 83bd db46 b6be 4ce5 c83e d863 04bf
00000050: a057 e93d eadc 33be fd8c 773e abcf 95be
00000060: 2ebe 9e3e d1af 36be 6fb9 81bd 7e1a 9bbe
00000070: c258 b53e 12d1 7a3f 6993 fc3e 0fdc 7e3e
00000080: f605 d9be 3933 513e 3946 be3d f784 823f
00000090: 910c 1abf 0f88 5abe 315c 913e bca1 4dbe
000000a0: 5272 783e e220 5c3d 4ae5 c53e 0e4b 09bf
000000b0: 2e39 c83e eb53 09bf 7848 0fbe 9d72 ab3e
000000c0: ccf9 b2bd ced5 913e 41d2 8c3e 9c8b d9bd
000000d0: 7089 343f 83ec 87bf 7a66 cebe 7c5f a1bc
000000e0: e436 de3d 6955 043e b481 dfbd 2b38 d63e
000000f0: e50c 023c 8c2c 283f 4678 2abe 073d 2cbe

layers.2.s_block.net.3.0.bias f4 [8]
-0.008583297 -0.12123713 0.275961 -0.23053366 0.3962638 0.162837 -0.16329439 0.2120251
00000000: f5a0 0cbc 2c4b f8bd c34a 8d3e 0411 6cbe
00000010: 17e3 ca3e bebe 263e a536 27be 1c1d 593e

layers.2.s_block.net.4.weight f4 [1, 8]
0.6666219 -0.38067648 0.2981974 -0.58251256 -0.42558137 0.4665527 0.9075315 -0.2257523
00000000: bca7 2a3f 07e8 c2be 54ad 983e 8b1f 15bf
00000010: cde5 d9be ffdf ee3e fc53 683f 9c2b 67be

layers.2.b_block.net.0.0.weight f4 [8, 1]
1.0944277 0.9401065 0.80296963 -0.6745789 -0.11164457 -0.12051073 -0.4942782 -0.9123253
00000000: 3516 8c3f d2aa 703f 6b8f 4d3f 34b1 2cbf
00000010: e9a5 e4bd 54ce f6bd 0812 fdbe 278e 69bf

layers.2.b_block.net.0.0.bias f4 [8]
-0.47487912 0.90299165 0.41903526 1.1618999 -1.0604439 -0.92683685 -0.48310384 -0.024153264
00000000: 5b23 f3be 762a 673f ca8b d63e 23b9 943f
00000010: a0bc 87bf 2e45 6dbf 6359 f7be 11dd c5bc

layers.2.b_block.net.1.0.weight f4 [8, 8]
-0.04081406 0.24222247 0.22747554 0.121933006 0.057913467 -0.18669757 -0.45140597 -0.34443086
0.42276242 -0.1467636 0.2808113 -0.13412079 0.101562425 0.2581829 0.23303394 0.18016976
-0.75914234 -0.21289624 0.08327988 0.16813804 -0.20247933 0.12898158 -0.3667376 -0.19465898
-0.8493199 0.11873577 -0.00794138 0.28173593 -0.49533212 -0.24741614 0.065806806 -0.3504167
0.0056638513 -0.6124119 -0.8133661 0.3091987 -0.02286786 0.057928644 -0.1580191 -0.081336126
-0.122562736 -0.659656 -0.12743221 0.22781618 0.25426844 -0.0865174 -0.4149943 0.022719858
-0.39552942 -0.3577948 -0.19252022 -0.061266787 0.071247876 0.24087955 0.03047516 -0.15820852
-0.118726395 0.32169044 0.24712531 -0.45196614 0.055277362 -0.07079004 -0.030729359 -0.07305753
00000000: a52c 27bd 2b09 783e 59ef 683e 03b8 f93d
00000010: ac36 6d3d a62d 3fbe af1e e7be 3e59 b0be
00000020: 5174 d83e 3249 16be 80c6 8f3e f656 09be
00000030: f6ff cf3d 8d30 843e 73a0 6e3e 6c7e 383e
00000040: 2757 42bf 7901 5abe a48e aa3d 612c 2c3e
00000050: be56 4fbe bf13 043e 08c5 bbbe af54 47be
00000060: 076d 59bf bd2b f33d 901c 02bc b13f 903e
00000070: 2c9c fdbe a85a 7dbe b8c5 863d d169 b3be
00000080: d497 b93b 07c7 1cbf c338 50bf 4b4f 9e3e
00000090: 6155 bbbc 9646 6d3d c2cf 21be 8e93 a6bd
000000a0: 2c02 fbbd 37df 28bf 977d 02be a548 693e
000000b0: 792f 823e 0930 b1bd 227a d4be ff1e ba3c
000000c0: d582 cabe e130 b7be 0524 45be e2f2 7abd
000000d0: 68ea 913d 21a9 763e 0ba7 f93c 6a01 22be
000000e0: d326 f3bd 9cb4 a43e 6b0e 7d3e 1b68 e7be
000000f0: 846a 623d 5efa 90bd 23bc fbbc 309f 95bd

layers.2.b_block.net.1.0.bias f4 [8]
0.29125425 0.17734975 -0.17133765 0.50727236 0.030171871 0.37171572 -0.16757998 0.2190475
00000000: 471f 953e 2c9b 353e 2373 2fbe 9adc 013f
00000010: 002b f73c 8651 be3e 169a 2bbe fd4d 603e

layers.2.b_block.net.2.0.weight f4 [8, 8]
-0.07389635 0.30393076 -0.30612907 -0.6428995 0.08511517 0.24301572 0.0056366036 0.1544099
0.40353465 0.1828702 -0.047246378 0.38926247 0.14614496 -0.29437062 -0.26010555 -0.073037006
-0.4958339 0.14077452 0.26439422 0.060051717 0.07195157 0.42390975 -0.24809696 -0.7048331
-0.22738567 0.16318533 -0.36077645 -0.8938756 -0.15978143 -0.02309414 -0.27062657 0.1509159
-0.4241528 0.1869408 0.06280148 -0.065655485 -0.23668215 0.2681664 -0.2163581 -0.2938151
-0.13051087 -0.08968941 0.39740393 0.5319512 -0.4983964 -0.4356642 -0.066115886 0.13097076
0.34483057 0.42460817 -0.7398707 -0.20055144 0.14811932 -0.028258063 -0.18293928 0.6399114
-0.0051640687 -0.14874932 -0.032455124 0.0056998474 0.5150594 0.8771069 -0.2915331 -0.643797
00000000: f856 97bd d09c 9b3e f3bc 9cbe 1095 24bf
00000010: dd50 ae3d 1dd9 783e 42b3 b83b a11d 1e3e
00000020: 189c ce3e 5342 3b3e 6b85 41bd 694d c73e
00000030: 06a7 153e bfb7 96be 8e2c 85be 6d94 95bd
00000040: f1dd fdbe 3227 103e ae5e 873e caf8 753d
00000050: 585b 933d b30a d93e 210d 7ebe f16f 34bf
00000060: cad7 68be 0e1a 273e b1b7 b8be 08d5 64bf
00000070: be9d 23be ec2f bdbc 918f 8abe b389 1a3e
00000080: 8e2a d9be 696d 3f3e 109e 803d 6276 86bd
00000090: ce5c 72be 1b4d 893e fa8c 5dbe ef6e 96be
000000a0: a4a4 05be 15af b7bd 8778 cb3e f42d 083f
000000b0: d02d ffbe 610f dfbe c467 87bd 331d 063e
000000c0: a28d b03e 3e66 d93e 2b68 3dbf 5b5d 4dbe
000000d0: 97ac 173e 747d e7bc 6f54 3bbe 3cd1 233f
000000e0: 5937 a9bb be51 18be aaef 04bd c9c5 ba3b
000000f0: efda 033f 148a 603f d443 95be e1cf 24bf

layers.2.b_block.net.2.0.bias f4 [8]
-0.3962666 -0.2406402 0.34238285 -0.1276681 -0.23781675 0.23262638 0.15878893 0.2903501
00000000: 75e3 cabe 626a 76be ce4c af3e 6dbb 02be
00000010: 3c86 73be 9c35 6e3e 9199 223e c5a8 943e

layers.2.b_block.net.3.0.weight f4 [8, 8]
-0.108126365 0.04498593 0.034506854 -0.09467671 0.032614026 0.3122961 -0.09469286 -0.49470484
0.040540636 -0.2910594 -0.16095912 -0.4184669 0.043646276 -0.41524246 0.36126232 0.63275397
0.23187672 -0.15824504 -0.18497637 0.020448755 0.05426092 -0.19518971 -0.25461844 0.15588616
-0.59699017 0.09573127 0.23702517 -0.24015798 -0.33271775 -0.3074753 0.555279 0.38422993
-0.08333118 0.37223613 -0.6997599 0.4405687 -0.2055575 0.331581 -0.5960311 -0.64571947
0.023158388 0.07273445 0.12605605 0.013920285 0.17187205 0.17310138 -0.31741828 -0.3969033
-0.07078248 -0.35971576 -0.15049946 0.13163008 -0.20066841 -0.887242 0.09146062 0.5527668
0.3629427 0.1043135 -0.25405702 -0.21940143 -0.30180407 0.0051204115 -0.16544035 0.15534589
00000000: 5b71 ddbd 2b43 383d 0f57 0d3d dde5 c1bd
00000010: 4996 053d 46e5 9f3e 55ee c1bd f449 fdbe
00000020: f00d 263d bd05 95be 78d2 24be 4b41 d6be
00000030: 70c6 323d a99a d4be 60f7 b83e 2afc 213f
00000040: 1771 6d3e fd0a 22be 726a 3dbe 2684 a73c
00000050: b340 5e3d d0df 47be 595d 82be 9fa0 1f3e
00000060: 59d4 18bf c20e c43d bab6 723e f9eb 75be
00000070: fb59 aabe 676d 9dbe c426 0e3f c9b9 c43e
00000080: 8aa9 aabd bc95 be3e 7723 33bf 3892 e13e
00000090: aa7d 52be fcc4 a93e 7f95 18bf df4d 25bf
000000a0: a9b6 bd3c cdf5 943d d614 013e e811 643c
000000b0: 3aff 2f3e 7d41 313e a684 a2be e936 cbbe
000000c0: 68f6 90bd aa2c b8be 881c 1abe 09ca 063e
000000d0: 057c 4dbe 4b22 63bf b54f bb3d 2082 0d3f
000000e0: a0d3 b93e 51a2 d53d c313 82be c5aa 60be
000000f0: 1086 9abe 20c9 a73b 3269 29be fe12 1f3e

layers.2.b_block.net.3.0.bias f4 [8]
-0.207594 -0.101777114 -0.03230284 0.24715348 0.12442037 -0.20291308 -0.34357896 -0.28978208
00000000: 8693 54be 8570 d0bd fc4f 04bd cd15 7d3e
00000010: 1bd0 fe3d 72c8 4fbe 95e9 afbe 515e 94be

layers.2.b_block.net.4.weight f4 [1, 8]
0.16702664 -0.41892436 -0.021898618 -0.4893555 0.5652579 0.12579663 -0.20213613 0.28557813
00000000: 0809 2b3e 417d d6be bb64 b3bc ce8c fabe
00000010: beb4 103f d5d0 003e c6fc 4ebe 4c37 923e

layers.4.s_block.net.0.0.weight f4 [8, 1]
0.67055684 -0.6099521 -0.9160955 -0.3280213 0.8080081 -0.49421233 -0.42440805 0.6919105
00000000: 9da9 2b3f d225 1cbf 3c85 6abf 68f2 a7be
00000010: 9ed9 4e3f 6609 fdbe 034c d9be 0c21 313f

layers.4.s_block.net.0.0.bias f4 [8]
0.7839069 -0.7453279 0.20085184 -0.49140048 1.0377679 0.84639466 0.76660806 -0.90283424
00000000: 1fae 483f cfcd 3ebf 1bac 4d3e d898 fbbe
00000010: 94d5 843f 52ad 583f 6d40 443f 2520 67bf

layers.4.s_block.net.1.0.weight f4 [8, 8]
-0.39198422 -0.080931924 0.10018223 -0.14844197 -0.021770064 0.048165996 -0.15548098 0.58862674
-0.5448594 -0.048692454 0.4345749 -0.38490915 -0.8655198 0.16010317 0.13016587 -0.2141377
0.22674762 -0.18674281 -0.028208248 -0.03474288 -0.1735362 -0.48590356 -0.51204884 -0.5130484
0.09077909 -0.20828088 0.20969816 0.10318234 0.09332029 0.08877633 0.14045551 -0.1890079
-0.69493717 -0.33294567 0.098574646 -0.42459244 -0.38409093 0.14595638 -0.26774853 0.10752195
0.21406357 0.10121718 -0.19204572 -0.19866614 -0.23780623 0.08651569 0.22074908 -0.29702067
-0.0035706782 0.111193985 0.040180493 0.11437588 0.34605253 0.40714318 0.23692761 -0.60282016
-0.035242334 -0.6448473 -0.05755122 -0.14092559 -0.25639528 -0.22046492 0.37560317 -0.18774943
00000000: 28b2 c8be a3bf a5bd 572c cd3d 2c01 18be
00000010: 2257 b2bc b549 453d 6836 1fbe 3eb0 163f
00000020: e87b 0bbf bd71 47bd 9a80 de3e d012 c5be
00000030: b592 5dbf 16f2 233e 344a 053e ea46 5bbe
00000040: 8730 683e 8239 3fbe fc14 e7bc 8d4e 0ebd
00000050: 79b3 31be 5ac8 f8be a215 03bf 2457 03bf
00000060: 63ea b93d 9547 55be 1dbb 563e 4351 d33d
00000070: b51e bf3d 5dd0 b53d 92d3 0f3e 498b 41be
00000080: 67e7 31bf db77 aabe 81e1 c93d 2e64 d9be
00000090: 91a7 c4be 9775 153e 5616 89be 7834 dc3d
000000a0: 7b33 5b3e f44a cf3d a2a7 44be 236f 4bbe
000000b0: 7a83 73be 232f b13d 0c0c 623e 1813 98be
000000c0: 0a02 6abb acb9 e33d 4d94 243d e73d ea3d
000000d0: cc2d b13e 1275 d03e 279d 723e 6c52 1abf
000000e0: 445a 10bd b614 25bf d4ba 6bbd cc4e 10be
000000f0: 3e46 83be 8ec1 61be 0f4f c03e 6341 40be

layers.4.s_block.net.1.0.bias f4 [8]
0.06881928 0.21723706 0.01853743 0.34726733 0.17207634 -0.20555156 0.117345996 -0.07964298
00000000: 1ff1 8c3d 6473 5e3e cfdb 973c 06cd b13e
00000010: c834 303e 1c7c 52be 1953 f03d dc1b a3bd

layers.4.s_block.net.2.0.weight f4 [8, 8]
-0.32022607 -0.02412054 0.12291828 -0.0403155 -0.5782914 -0.21163794 0.0028731427 -0.37212905
-0.3642473 -1.141019 0.25907195 0.3154289 -0.39533266 0.08804409 0.3962 0.015014684
0.1054486 -0.74223876 0.31334436 0.22092585 0.3781959 0.03153298 0.2772539 0.1397063
0.32964116 0.33635867 -0.19729672 -0.28525966 -0.3053879 0.20460945 -0.09671929 -0.2591177
0.06680645 0.040465478 0.031796232 -0.30185 0.1837723 -0.20020953 -0.32305032 0.33901146
-0.03742056 0.20445941 -0.28436485 -0.2693918 -0.33875167 0.32335368 -0.24448235 -0.095099024
0.040271644 0.09547133 -0.27362424 -0.2312575 -0.034572143 -0.10474991 -0.30736032 0.42527017
-0.09354625 -0.6930196 0.25346133 0.29575327 0.23681433 0.16332603 0.21925092 -0.06666479
00000000: acf4 a3be 7098 c5bc 94bc fb3d de21 25bd
00000010: e80a 14bf 9eb7 58be 564b 3c3b b387 bebe
00000020: 9f7e babe e90c 92bf 14a5 843e e67f a13e
00000030: 0b69 cabe 7650 b43d bada ca3e 2600 763c
00000040: 70f5 d73d 5c03 3ebf ac6e a03e 633a 623e
00000050: e5a2 c13e ba28 013d 39f4 8d3e 2b0f 0f3e
00000060: bac6 a83e 3437 ac3e 2708 4abe 8e0d 92be
00000070: ce5b 9cbe 2485 513e c314 c6bd 13ab 84be
00000080: d2d1 883d 21bf 253d c43c 023d 158c 9abe
00000090: ce2e 3c3e ba03 4dbe da66 a5be e992 ad3e
000000a0: 4d46 19bd cf5d 513e 4598 91be b9ed 89be
000000b0: dc70 adbe 9d8e a53e 9559 7abe 47c3 c2bd
000000c0: e1f3 243d 7986 c33d 7a18 8cbe c4ce 6cbe
000000d0: 859b 0dbd 1f87 d6bd 555e 9dbe 03bd d93e
000000e0: 2d95 bfbd bc69 31bf afc5 813e f96c 973e
000000f0: 757f 723e f03e 273e 5083 603e 8d87 88bd

layers.4.s_block.net.2.0.bias f4 [8]
-0.019788306 0.08221105 -0.0041425033 -0.2066366 0.018598976 0.1017642 0.01116143 -0.028299144
00000000: 161b a2bc 445e a83d d6bd 87bb 8b98 53be
00000010: e15c 983c c069 d03d 6ede 363c 9bd3 e7bc

layers.4.s_block.net.3.0.weight f4 [8, 8]
-0.23243783 0.08720051 -0.17442633 0.1972407 0.33071962 0.15054123 -0.26354358 0.08173583
0.10702901 -0.0016045314 0.16609342 0.08790127 0.34444007 0.38900945 -0.14479187 0.21070138
0.0817866 -0.4471625 0.028822439 -0.26075697 -0.33289385 -0.18313287 0.32727498 0.03681526
-0.12721784 0.14047281 -0.26463813 0.19200814 0.06798628 -0.07933775 0.15414055 0.21035187
0.2562273 0.33085027 0.14210692 -0.31538352 0.4064101 -0.22905493 0.27364892 0.39872807
-0.33739117 0.12741381 0.37265185 0.041622564 0.37702906 -0.097891204 0.11374599 0.45300835
-0.3536427 0.16907603 -0.2099328 -0.11231627 0.33013925 0.10287511 -0.14514355 -0.049741626
-0.21250546 0.12514845 0.07225168 -0.09267699 0.11588512 0.39790636 0.29965264 -0.25906664
00000000: 2f04 6ebe 2e96 b23d d19c 32be 77f9 493e
00000010: 1554 a93e 7b27 1a3e 2fef 86be 1d65 a73d
00000020: 0732 db3d 244f d2ba 6514 2a3e 9505 b43d
00000030: 735a b03e 3f2c c73e 5244 14be 1ac2 573e
00000040: bc7f a73d 7cf2 e4be 091d ec3c f081 85be
00000050: 1071 aabe 2f87 3bbe 9690 a73e 99cb 163d
00000060: 6545 02be 1bd8 0f3e a67e 87be c89d 443e
00000070: 643c 8b3d d57b a2bd 05d7 1d3e 7b66 573e
00000080: 3a30 833e 3565 a93e 7a84 113e f379 a1be
00000090: fc14 d03e 608d 6abe b61b 8c3e 1626 cc3e
000000a0: 89be acbe c478 023e 39cc be3e 6c7c 2a3d
000000b0: f409 c13e 2f7b c8bd a8f3 e83d b6f0 e73e
000000c0: a810 b5be 4422 2d3e a0f8 56be 1306 e6bd
000000d0: 0308 a93e 30b0 d23d 83a0 14be e0bd 4bbd
000000e0: 089b 59be ea26 003e b0f8 933d 6fcd bdbd
000000f0: 2e55 ed3d 62ba cb3e 126c 993e 62a4 84be

layers.4.s_block.net.3.0.bias f4 [8]
-0.030999592 -0.25681987 -0.24329466 -0.12295319 -0.0065868725 -0.0051935227 0.016926607 -0.016824197
00000000: dbf2 fdbc e57d 83be 3c22 79be e2ce fbbd
00000010: b1d6 d7bb 6d2e aabb aba9 8a3c e6d2 89bc

layers.4.s_block.net.4.weight f4 [1, 8]
-0.0031319065 0.14159016 -0.1626248 0.14863339 0.3689358 0.23505563 0.015854808 0.003257023
00000000: ac40 4dbb 03fd 103e 1e87 26be 5a33 183e
00000010: 27e5 bc3e 6cb2 703e f1e1 813c c773 553b

layers.4.b_block.net.0.0.weight f4 [8, 1]
-0.47346586 -0.47043514 0.12827092 -0.74046814 0.10805287 0.6179567 -0.40927583 -0.050932642
00000000: 1e6a f2be e0dc f0be 7459 033e 528f 3dbf
00000010: d34a dd3d 6932 1e3f 9a8c d1be bf9e 50bd

layers.4.b_block.net.0.0.bias f4 [8]
-0.48388132 -0.45395455 1.0308826 0.054422222 -0.2387203 0.04801162 -0.37803173 -0.6717412
00000000: 4bbf f7be bb6c e8be f6f3 833f d6e9 5e3d
00000010: 1873 74be d5a7 443d 608d c1be 3bf7 2bbf

layers.4.b_block.net.1.0.weight f4 [8, 8]
0.2858847 0.5950934 -0.09116852 0.2979429 -0.25400493 0.0018168245 0.7627572 -0.09616123
0.01062629 0.6616518 0.3085451 0.42600128 0.08399572 -0.40156013 0.21624611 -0.41406724
0.02266511 0.48853427 0.15651762 -0.1402985 -0.1511425 -0.51859474 0.023685904 -0.104386285
-1.0984061 -1.030697 -0.02332626 -0.035582233 0.011553077 0.48634413 -0.6779718 -0.11674533
-0.38599306 -0.32337853 -0.052600075 -0.18252058 -0.08655789 -0.65974116 -0.09617722 0.1179184
0.38152823 -0.020559639 -0.3877436 -0.11216976 0.3298943 0.3443596 0.14205986 -0.12406644
0.33727336 0.061430976 0.16353954 -0.27104652 0.073269784 -0.2493002 0.28278655 0.19530365
0.35521203 0.25813574 0.48164448 -0.2546889 0.052972734 -0.4422574 0.6141025 0.026347792
00000000: 7b5f 923e 0b58 183f 90b6 babd f98b 983e
00000010: ef0c 82be 8422 ee3a 0e44 433f 2ef0 c4bd
00000020: e419 2e3c 0362 293f a0f9 9d3e d71c da3e
00000030: f305 ac3d 4a99 cdbe 9f6f 5d3e 9f00 d4be
00000040: 2eac b93c 2a21 fa3e 2846 203e 69aa 0fbe
00000050: 19c5 1abe a0c2 04bf f108 c23c 7ac8 d5bd
00000060: 9298 8cbf e1ed 83bf b616 bfbc adbe 11bd
00000070: 1e49 3d3c 1902 f93e 8f8f 2dbf 2d18 efbd
00000080: e2a0 c5be df91 a5be 2d73 57bd ade6 3abe
00000090: 4345 b1bd cce4 28bf 90f8 c4bd 347f f13d
000000a0: ab57 c33e b06c a8bc 5486 c6be 42b9 e5bd
000000b0: e8e7 a83e e74f b03e 2478 113e 8c16 febd
000000c0: 18af ac3e 0c9f 7b3d e976 273e 9cc6 8abe
000000d0: 780e 963d 8d48 7fbe 66c9 903e aefd 473e
000000e0: 5ade b53e 5e2a 843e 1b9a f63e 9566 82be
000000f0: f0f9 583d 906f e2be d235 1d3f 53d7 d73c

layers.4.b_block.net.1.0.bias f4 [8]
-0.15822375 -0.08646785 -0.3455314 0.35480914 -0.41636544 -0.14199361 0.036027182 -0.16146015
00000000: 6805 22be 0e16 b1bd 7ee9 b0be 8ba9 b53e
00000010: da2d d5be c666 11be 3d91 133d cf55 25be

layers.4.b_block.net.2.0.weight f4 [8, 8]
0.34348798 0.24633753 -0.3150468 -0.27593967 0.18550244 -0.0416935 0.1525102 0.11516867
0.4378361 0.03704493 0.10653016 -0.28052443 0.4417437 0.22839622 -0.09821779 -0.005645017
0.5687289 0.5239127 -0.086128704 -1.1721946 -0.46803233 0.297644 0.0686841 0.2595142
0.3956782 0.28446856 0.21795116 0.03579574 -0.25707212 0.34657446 -0.121924475 0.34187433
-0.050575264 -0.038482264 0.026400361 -0.23682466 -0.20560402 0.34660935 -0.039220225 0.07413972
-0.6405824 0.14758462 -0.41166753 0.22042216 -0.41749611 -0.48579416 -0.39727247 -1.0598625
-0.27184224 0.17569634 0.07808254 -0.53696173 -0.17747453 0.23432319 -0.19006017 0.2246386
0.41555214 0.0075715096 0.11555519 -0.3151882 -0.366283 0.12500449 0.073224165 0.19930479
00000000: a8dd af3e e83f 7c3e d04d a1be f747 8dbe
00000010: 5af4 3d3e cec6 2abd a22b 1c3e 8ddd eb3d
00000020: 0e2c e03e 6dbc 173d 7c2c da3d e6a0 8fbe
00000030: 3b2c e23e b3e0 693e 6926 c9bd d6f9 b8bb
00000040: 3898 113f 251f 063f 3f64 b0bd 790a 96bf
00000050: efa1 efbe cb64 983e 40aa 8c3d 0cdf 843e
00000060: 5596 ca3e dda5 913e 972e 5f3e 8e9e 123d
00000070: f59e 83be 3572 b13e 8ab3 f9bd 270a af3e
00000080: 0228 4fbd 949f 1dbd 9245 d83c 2a82 72be
00000090: dc89 52be c876 b13e 63a5 20bd 91d6 973d
000000a0: 35fd 23bf 6c20 173e 16c6 d2be 59b6 613e
000000b0: 0dc2 d5be 03ba f8be 4c67 cbbe 93a9 87bf
000000c0: e82e 8bbe bee9 333e bde9 9f3d 5376 09bf
000000d0: e2bb 35be 6bf2 6f3e 229f 42be a907 663e
000000e0: 40c3 d43e 6d1a f83b 33a8 ec3d 5960 a1be
000000f0: 7289 bbbe 2d01 003e 8df6 953d 8e16 4c3e

layers.4.b_block.net.2.0.bias f4 [8]
0.20751582 0.2963853 -0.088752575 0.09473647 0.42638344 0.20305814 0.22583064 0.324493
00000000: 077f 543e d0bf 973e e9c3 b5bd 3205 c23d
00000010: ee4e da3e 79ee 4f3e 2640 673e f223 a63e

layers.4.b_block.net.3.0.weight f4 [8, 8]
0.41919717 -0.081206486 0.6414658 0.1642372 0.34740523 -0.34337774 -0.050258894 -0.10291312
0.04495942 -0.15996885 -1.2792934 -0.06905442 0.18961237 0.6439978 0.23131847 0.016086254
0.24802645 0.14963037 0.5000027 0.33478433 0.33651102 -0.5703231 0.23722282 0.2651122
0.39678904 0.056456845 0.42734173 0.11429647 0.03482091 -0.71582437 -0.02800749 -0.11490934
-0.2945557 0.10254631 -0.307699 0.096850485 0.13595629 0.6013823 -0.0025009457 -0.15714395
-0.2029587 -0.22414358 0.40385032 -0.0905403 -0.004116172 -0.50421256 -0.06677513 0.009105817
0.22065122 0.0029700547 -0.27417296 -0.3465256 -0.28043386 0.60390484 0.16486791 0.2491281
0.10238322 0.13263714 -0.43161252 0.16884919 -0.41233388 0.02019211 -0.062489968 -0.30930322
00000000: 03a1 d63e 964f a6bd 1a37 243f cc2d 283e
00000010: 19df b13e 35cf afbe 45dc 4dbd 1dc4 d2bd
00000020: 5e27 383d e0ce 23be e3bf a3bf 676c 8dbd
00000030: bf29 423e 0add 243f c0de 6c3e 52c7 833c
00000040: a5fa 7d3e b438 193e 2d00 003f da68 ab3e
00000050: 2c4b ac3e b200 12bf 8aea 723e c9bc 873e
00000060: ef27 cb3e 4b3f 673d 89cc da3e 4514 ea3d
00000070: 5fa0 0e3d 4440 37bf f76f e5bc 9755 ebbd
00000080: 01d0 96be cd03 d23d b98a 9dbe 8c59 c63d
00000090: 2038 0b3e 31f4 193f e8e6 23bb 58ea 20be
000000a0: 68d4 4fbe e585 65be 78c5 ce3e 316d b9bd
000000b0: f4e0 86bb 1314 01bf 66c1 88bd 9130 153c
000000c0: 65f2 613e 40a5 423b 6660 8cbe ce6b b1be
000000d0: 0795 8fbe 8299 1a3f 22d3 283e 701b 7f3e
000000e0: 4bae d13d 08d2 073e 51fc dcbe cde6 2c3e
000000f0: 6d1d d3be ed69 a53c 7bf5 7fbd fe5c 9ebe

layers.4.b_block.net.3.0.bias f4 [8]
0.07554346 0.40104914 0.07478051 0.35659268 -0.39828056 -0.31656125 -0.10502946 0.14927013
00000000: 88b6 9a3d 5056 cd3e 8626 993d 5193 b63e
00000010: 6eeb cbbe 5114 a2be af19 d7bd 45da 183e

layers.4.b_block.net.4.weight f4 [1, 8]
-0.26577017 0.33475298 -0.49758324 -0.10008815 0.24886638 -0.06693637 0.057662684 0.020812903
00000000: 0713 88be be64 ab3e 3bc3 febe 04fb ccbd
00000010: d4d6 7e3e f015 89bd b52f 6c3d d27f aa3c

layers.6.s_block.net.0.0.weight f4 [8, 1]
-0.530943 -0.947282 -0.19819233 0.27646983 0.342238 -0.7335292 0.74450386 0.6862782
00000000: e1eb 07bf 1381 72bf eef2 4abe 748d 8d3e
00000010: d239 af3e 92c8 3bbf ce97 3e3f eeaf 2f3f

layers.6.s_block.net.0.0.bias f4 [8]
-0.6528599 -0.3111957 -0.5843556 0.7534225 0.84027666 -0.69553804 -0.71637076 0.123777375
00000000: d421 27bf 0b55 9fbe 5498 15bf 4ce0 403f
00000010: 5f1c 573f c80e 32bf 1364 37bf fe7e fd3d

layers.6.s_block.net.1.0.weight f4 [8, 8]
-0.11293681 0.10192449 0.1549948 0.19163795 0.05313064 -0.17394552 0.32875723 0.41182443
0.6508979 0.4424546 0.14983885 -0.3731465 -0.30401453 0.16008288 0.38434443 0.06300304
0.14803945 0.06883825 0.3781298 -0.29351687 0.12408392 0.10089924 -0.0128588425 -0.22331381
0.29520425 -0.113543026 -0.009518736 -0.02503264 -0.0072227116 0.34543917 0.4733661 0.40808424
-0.31734687 -0.15912938 -0.2616276 0.14872068 0.23671916 0.3067122 -0.08375227 0.6903106
-0.08635604 -0.31101626 -0.13175467 -0.1994617 -0.2704783 0.049859643 -0.5012199 -0.02220372
-0.36640182 0.133007 0.12782079 -0.049194075 -0.24909802 -0.12950644 -0.6125279 0.20378676
0.20363598 0.36583766 0.61003995 0.2869711 0.272082 -0.21661454 -0.18378343 0.0834862
00000000: 6a4b e7bd c9bd d03d f5b6 1e3e bd3c 443e
00000010: 849f 593d c61e 32be de52 a83e a7da d23e
00000020: 3fa1 263f 6989 e23e 5b6f 193e 0f0d bfbe
00000030: cba7 9bbe c4ec 233e cbc8 c43e bd07 813d
00000040: a797 173e 12fb 8c3d 3b9a c13e d847 96be
00000050: b61f fe3d 43a4 ce3d e5ad 52bc 60ac 64be
00000060: 0325 973e 3f89 e8bd 79f4 1bbc 4011 cdbc
00000070: 7fac ecbb 67dd b03e 0b5d f23e 6bf0 d03e
00000080: 4a7b a2be d0f2 22be 0ef4 85be 3c4a 183e
00000090: 8266 723e 6209 9d3e 4f86 abbd 32b8 303f
000000a0: 6fdb b0bd 863d 9fbe b2ea 06be b03f 4cbe
000000b0: 227c 8abe a039 4c3d f34f 00bf 93e4 b5bc
000000c0: 0599 bbbe fd32 083e 74e3 023e ba7f 49bd
000000d0: 8d13 7fbe 569d 04be a1ce 1cbf 7aad 503e
000000e0: f385 503e 134f bb3e 942b 1c3f e0ed 923e
000000f0: 554e 8b3e 34d0 5dbe b931 3cbe d0fa aa3d

layers.6.s_block.net.1.0.bias f4 [8]
-0.21106015 -0.12533762 0.2198126 -0.36503798 0.11479607 0.2469159 0.3942549 0.19893879
00000000: 2720 58be 8158 00be 8e16 613e 42e6 babe
00000010: 341a eb3d 86d7 7c3e c7db c93e 9cb6 4b3e

layers.6.s_block.net.2.0.weight f4 [8, 8]
-0.62960666 0.30960822 0.17613071 -0.31317365 -0.42932835 0.22372758 0.148947 0.08558599
-0.035319015 -0.5430151 -0.19459264 -0.46866423 0.34510168 0.111033395 0.1026208 0.11077923
-0.3616411 -0.8635926 -0.1916608 -0.64740187 -0.5105272 -0.18333703 0.123481624 -0.31945127
0.08022624 0.6783242 -0.008629689 0.6998888 0.09384933 -0.31177858 0.1195534 0.32381094
-0.44608182 -0.45532802 0.29219168 -0.50467044 -0.20746222 0.34879613 0.45357877 0.24544874
0.020402918 -0.32847327 0.24606158 -0.54068094 0.048501782 0.13503416 0.3491535 -0.1215149
-0.01391511 -0.49061263 -0.34188443 -0.4980147 -0.026632505 0.29531315 0.16916402 0.3068088
-0.0007362358 0.28347975 -0.24995661 -0.052447554 0.07653167 0.15524866 -0.22752215 0.26598358
00000000: e72d 21bf f884 9e3e 9c5b 343e 4c58 a0be
00000010: edd0 dbbe d818 653e 9085 183e b547 af3d
00000020: acaa 10bd 0a03 0bbf 4b43 47be c2f4 efbe
00000030: 2bb1 b03e 7a65 e33d db2a d23d 39e0 e23d
00000040: 0629 b9be 6814 5dbf bb42 44be 21bc 25bf
00000050: e9b1 02bf b4bc 3bbe efe3 fc3d 1e8f a3be
00000060: a84d a43d a8a6 2d3f 8a63 0dbc ea2b 333f
00000070: 1434 c03d 71a1 9fbe 6ad8 f43d 8cca a53e
00000080: d664 e4be c120 e9be 269a 953e 1532 01bf
00000090: fa70 54be 6895 b23e 7a3b e83e ea56 7b3e
000000a0: 0524 a73c a62d a8be 91f7 7b3e 116a 0abf
000000b0: cea9 463d 6546 0a3e 3fc4 b23e cedc f8bd
000000c0: 34fc 63bc 9431 fbbe 7a0b afbe c8fb febe
000000d0: 692c dabc 4933 973e 5539 2d3e 0b16 9d3e
000000e0: f3ff 40ba 4224 913e a0f4 7fbe 3fd3 56bd
000000f0: a3bc 9c3d 81f9 1e3e 91fb 68be 002f 883e

layers.6.s_block.net.2.0.bias f4 [8]
0.18589173 0.105916634 -0.27137187 -0.304453 0.35380217 -0.1556188 0.061925817 0.16218208
00000000: 675a 3e3e d2ea d83d 41f1 8abe 43e1 9bbe
00000010: 8f25 b53e 895a 1fbe eda5 7d3d 0f13 263e

layers.6.s_block.net.3.0.weight f4 [8, 8]
0.16045047 -0.54761595 -0.5036421 0.50616914 -0.4813532 -0.10129434 -0.059450675 -0.028202634
-0.6877248 0.067426935 0.12404458 -0.9825409 0.4245806 0.25462773 -0.20132273 -0.06492803
-0.4014933 0.0988831 0.19474924 -0.16349272 -0.11607307 0.15651451 0.34268177 -0.20862462
-0.36276588 0.2168043 0.061382778 -0.5961863 0.23428854 0.06343369 0.10715071 -0.20636165
0.5269031 -0.08793991 -0.5863745 0.32191226 -0.3569259 -0.09964236 -0.41674635 0.06693115
0.33030358 -0.28262416 -0.40029794 0.6201771 0.04021615 -0.35975713 -0.5565597 -0.16740988
-0.17049325 0.19975418 -0.12101182 -0.38712183 -0.09163456 -0.27676553 -0.16813204 -0.2514568
0.47069317 -0.50030893 -0.008948017 0.22836252 0.07862938 -0.12312807 0.008186057 0.09330705
00000000: 214d 243e 8f30 0cbf b0ee 00bf 4d94 013f
00000010: ed73 f6be 6873 cfbd 8d82 73bd 3609 e7bc
00000020: bc0e 30bf 2217 8a3d 160b fe3d cd87 7bbf
00000030: a162 d93e 915e 823e 8c27 4ebe fdf8 84bd
00000040: 8890 cdbe 3983 ca3d 586c 473e a36a 27be
00000050: b8b7 edbd 5745 203e fc73 af3e b1a1 55be
00000060: 73bc b9be f201 5e3e 826c 7b3d aa9f 18bf
00000070: 56e9 6f3e 86e9 813d d571 db3d 7850 53be
00000080: 1fe3 063f d719 b4bd a41c 16bf afd1 a43e
00000090: febe b6be 4b11 ccbd c75f d5be 3313 893d
000000a0: 8d1d a93e 1db4 90be daf3 ccbe edc3 1e3f
000000b0: b1b9 243d 1632 b8be b27a 0ebf 7f6d 2bbe
000000c0: c895 2ebe 5c8c 4c3e 0cd5 f7bd d534 c6be
000000d0: e6aa bbbd 36b4 8dbe ce2a 2cbe f2be 80be
000000e0: b2fe f03e 3f14 00bf b49a 12bc ddd7 693e
000000f0: 7108 a13d 922a fcbd d01e 063c c417 bf3d

layers.6.s_block.net.3.0.bias f4 [8]
0.32486546 0.29055843 -0.036394875 0.20653671 0.12967455 -0.049523633 -0.046823077 0.10743732
00000000: c454 a63e 13c4 943e cb12 15bd 5c7e 533e
00000010: 68c9 043e 4bd9 4abd 8ec9 3fbd 1908 dc3d

layers.6.s_block.net.4.weight f4 [1, 8]
-0.3788788 0.17861205 0.007980705 0.3245207 -0.5489495 -0.39474958 0.24227428 -0.26817638
00000000: 67fc c1be 14e6 363e 81c1 023c 9427 a63e
00000010: f487 0cbf 9e1c cabe c016 783e 6a4e 89be

layers.6.b_block.net.0.0.weight f4 [8, 1]
0.5957805 0.19647636 0.22351035 -0.1509247 0.5816952 -1.2164464 -0.7589828 -1.0034158
00000000: 1285 183f 1931 493e e6df 643e 018c 1abe
00000010: fae9 143f 84b4 9bbf b24c 42bf ee6f 80bf

layers.6.b_block.net.0.0.bias f4 [8]
0.7689322 -0.79777944 0.3767396 0.22811253 -1.015087 0.35004103 -0.69845855 0.6536782
00000000: bed8 443f 463b 4cbf 03e4 c03e 5596 693e
00000010: 5fee 81bf 9438 b33e 2ece 32bf 7457 273f

layers.6.b_block.net.1.0.weight f4 [8, 8]
-0.915795 0.18687446 -0.013974581 -0.2671686 -0.011648665 0.07068113 0.43425044 0.37409016
-0.2856252 -0.2962439 -0.08586678 -0.15126449 -0.42048493 -0.29000282 0.12439672 0.23006472
-1.2797048 -0.14313653 -0.27645275 0.067265116 -0.14063857 0.039262544 0.4460551 0.33014223
-0.18692306 0.10291281 0.20764424 0.019124873 0.39968503 0.04532209 0.54989266 0.12155871
-0.436433 0.28221557 0.044792216 -0.24948741 0.14047615 -0.11189975 -0.36129346 0.26405755
0.0924452 -0.42536503 0.2157433 -0.30502072 -0.4346465 0.32060167 -1.278921 0.088200964
0.109079026 -0.30234778 0.37430295 0.074564636 0.024057677 -0.021771487 -0.10487177 0.28462246
-0.13247995 0.2764525 0.07531697 -0.062290106 0.39429754 0.12660089 -0.3259636 -0.12678279
00000000: 8b71 6abf 055c 3f3e a4f5 64bc 53ca 88be
00000010: 0bda 3ebc 45c1 903d 1356 de3e bf88 bf3e
00000020: 773d 92be 48ad 97be ecda afbd 14e5 1abe
00000030: cd49 d7be 407b 94be b5c3 fe3d 1696 6b3e
00000040: 5ecd a3bf 6292 12be 378b 8dbe 4bc2 893d
00000050: 8f03 10be c3d1 203d 5661 e43e 6708 a93e
00000060: c268 3fbe f4c3 d23d b1a0 543e c4ab 9c3c
00000070: 84a3 cc3e a8a3 393d c4c5 0c3f c6f3 f83d
00000080: 2574 dfbe 8f7e 903e 0b78 373d a179 7fbe
00000090: fbd8 0f3e b22b e5bd 75fb b8be 8d32 873e
000000a0: e953 bd3d 72c9 d9be d0eb 5c3e ad2b 9cbe
000000b0: fc89 debe e725 a43e afb3 a3bf b5a2 b43d
000000c0: d364 df3d 54cd 9abe a3a4 bf3e 58b5 983d
000000d0: 9b14 c53c 1e5a b2bc 03c7 d6bd 09ba 913e
000000e0: d3a8 07be 2f8b 8d3e c93f 9a3d e923 7fbd
000000f0: 5ee1 c93e aaa3 013e b3e4 a6be 59d3 01be

layers.6.b_block.net.1.0.bias f4 [8]
-0.40928796 0.108398944 -0.4896765 0.14551975 -0.15083118 0.42545268 0.37576976 -0.16029915
00000000: 318e d1be 4400 de3d e1b6 fabe 2103 153e
00000010: 7d73 1abe efd4 d93e e564 c03e 7625 24be

layers.6.b_block.net.2.0.weight f4 [8, 8]
0.034390207 -0.08105072 -0.1657746 0.11780244 -0.1791957 0.030626612 0.05278512 -0.32455543
0.28786582 -0.2979644 -0.31420532 0.10078502 0.15228617 0.10757084 0.23870887 -0.23496109
-1.2944709 0.21476732 -1.2784543 -0.23916042 -0.19770323 0.5123125 0.26516795 0.04727418
0.04033911 0.24598265 -0.12560518 -0.14437823 -0.33754924 0.27542484 -0.19453551 0.016815437
-0.2031211 0.10468602 -0.376514 0.1050583 0.1700821 0.17280698 -0.19791993 0.25232065
0.3576392 -0.24018833 0.39725044 0.08004994 -0.13217017 -0.045987993 -0.18139687 0.22258368
0.365273 -0.2895739 -0.12843165 0.008244007 -0.20518474 0.0376175 0.3353387 0.05078408
-0.35198498 -0.043896418 0.37534297 -0.33109993 0.3673509 0.10263093 0.035228185 -0.14977926
00000000: bfdc 0c3d ebfd a5bd d1c0 29be 6842 f13d
00000010: 147f 37be a9e4 fa3c 3635 583d 212c a6be
00000020: 2663 933e ca8e 98be 85df a0be 6068 ce3d
00000030: e8f0 1b3e 1a4e dc3d 1970 743e a499 70be
00000040: 39b1 a5bf f7eb 5b3e 64a4 a3bf 78e6 74be
00000050: b772 4abe e926 033f 18c4 873e 92a2 413d
00000060: 9f3a 253d e0e2 7b3e a59e 00be e3d7 13be
00000070: 41d3 acbe 7c04 8d3e 5134 47be 87c0 893c
00000080: fafe 4fbe a065 d63d 71c6 c0be ce28 d73d
00000090: 012a 2e3e 50f4 303e 86ab 4abe 2c30 813e
000000a0: 7c1c b73e eef3 75be 6964 cb3e 39f1 a33d
000000b0: 9e57 07be e85d 3cbd 1ac0 39be faec 633e
000000c0: 1005 bb3e 0843 94be 9683 03be df11 073c
000000d0: f31b 52be cf14 1a3d 84b1 ab3e f802 503d
000000e0: 6037 b4be bbcc 33bd f42c c03e ee85 a9be
000000f0: 6b15 bc3e 2a30 d23d 6e4b 103d bc5f 19be

layers.6.b_block.net.2.0.bias f4 [8]
-0.12121792 0.2533039 0.085931115 -0.19665237 0.36356857 0.1283655 -0.22321616 -0.041121423
00000000: 1a41 f8bd 0cb1 813e a7fc af3d 3d5f 49be
00000010: a925 ba3e 3f72 033e c792 64be f06e 28bd

layers.6.b_block.net.3.0.weight f4 [8, 8]
0.16832617 0.2478084 -0.47459036 0.095541224 0.27721658 0.051445443 0.23333001 -0.099262945
-0.06868931 -0.17771779 -0.61412793 -0.06344119 -0.33187333 0.019889567 -0.22195119 0.16116475
-0.017556278 0.047305427 0.75021654 0.061643854 0.18251126 -0.16144067 -0.00047878554 0.21028346
0.019366264 0.2416852 0.85254544 0.16656806 0.20107585 -0.42140418 -0.35263875 -0.26062638
0.35595307 0.09253138 -0.1009501 0.40292564 -0.168939 0.09106457 0.10484309 -0.07861349
-0.25992522 0.22586668 0.2768638 0.108465284 -0.29380313 0.28355014 -0.09449633 0.22735828
-0.033986546 -0.2586692 -0.809676 -0.17067057 -0.17761531 0.13672347 -0.1531033 -0.22321175
-0.2657119 0.30482262 -0.7985419 -0.23392844 -0.051168777 0.3043804 -0.25008285 -0.028062152
00000000: b25d 2c3e 7cc1 7d3e 82fd f2be 1eab c33d
00000010: 55ef 8d3e 75b8 523d 10ee 6e3e 5f4a cbbd
00000020: fbac 8cbd a7fb 35be 7d37 1dbf 74ed 81bd
00000030: 4deb a9be 72ef a23c 2c47 63be 5f08 253e
00000040: 2fd2 8fbc 56c3 413d 310e 403f 447e 7c3d
00000050: 3be4 3a3e b450 25be 8205 fbb9 8c54 573e
00000060: 00a6 9e3c 537c 773e 6b40 5a3f d190 2a3e
00000070: d4e6 4d3e 4ac2 d7be 118d b4be d270 85be
00000080: 7b3f b63e 1881 bd3d edbe cebd 454c ce3e
00000090: 58fe 2cbe 1080 ba3d f9b7 d63d 1c00 a1bd
000000a0: eb14 85be 9849 673e 18c1 8d3e 0c23 de3d
000000b0: 5d6d 96be 7c2d 913e 4b87 c1bd 9cd0 683e
000000c0: 7a35 0bbd 4a70 84be ed46 4fbf 44c4 2ebe
000000d0: cae0 35be 3d01 0c3e 1dc7 1cbe 9f91 64be
000000e0: 640b 88be b611 9c3e 3e6d 4cbf f08a 6fbe
000000f0: 5a96 51bd bfd7 9b3e dc0a 80be 99e2 e5bc

layers.6.b_block.net.3.0.bias f4 [8]
-0.07245062 -0.16446765 -0.014226507 0.116840936 -0.14955658 -0.27095935 -0.002232257 0.25598484
00000000: fe60 94bd 356a 28be 4c16 69bc 4d4a ef3d
00000010: 5c25 19be 2fbb 8abe 0f4b 12bb 7210 833e

layers.6.b_block.net.4.weight f4 [1, 8]
-0.27146325 -0.3820219 0.50732327 0.43450737 0.05766906 0.10961987 -0.1094975 -0.18087992
00000000: 3bfd 8abe 6098 c3be f0df 013f c077 de3e
00000010: 6436 6c3d 6280 e03d 3a40 e0bd 9638 39be

layers.8.s_block.net.0.0.weight f4 [8, 1]
0.2968429 -0.09877821 -0.06848165 0.057442352 -0.70665854 0.25095016 -0.9038098 -1.1091542
00000000: cbfb 973e 3b4c cabd 1b40 8cbd ac48 6b3d
00000010: 93e7 34bf 8a7c 803e 1460 67bf c4f8 8dbf

layers.8.s_block.net.0.0.bias f4 [8]
-0.19705723 0.3016802 0.3157095 -0.23193522 -0.39638278 0.9325387 -1.0489533 0.753919
00000000: 5fc9 49be d475 9a3e ada4 a13e 6d80 6dbe
00000010: aff2 cabe dbba 6e3f 1a44 86bf d600 413f

layers.8.s_block.net.1.0.weight f4 [8, 8]
0.01721937 -0.103662446 0.17068413 0.07839995 -0.024118174 0.12446283 -0.2240087 0.073815376
-0.035813212 -0.22477809 0.19899397 -0.10270032 0.0019659703 -0.13723965 0.23279119 0.0934614
0.19665119 0.20774037 0.017042862 -0.0046184547 0.180653 0.014826418 0.14617863 0.010059808
-0.57613325 0.038726 0.2682573 -0.40941533 0.18644014 0.40584576 0.12591681 -0.6798831
0.24159145 -0.24424343 0.09489639 -0.06369708 0.20436352 -0.14955889 0.048599046 -0.14746451
-0.12386656 -0.021563366 -0.28130326 0.3028819 0.33724034 -0.4197818 0.20192203 0.15591401
0.10796057 0.22087279 -0.1325316 0.047063276 -0.1629039 0.27996382 -0.85387427 0.24415879
-0.38548708 -0.008662462 -0.13267805 -0.2539588 0.008103822 -0.09924357 0.19871828 0.39066827
00000000: a30f 8d3c fa4c d4bd d2c7 2e3e 2790 a03d
00000010: 7a93 c5bc 5ee6 fe3d 8962 65be 842c 973d
00000020: e0b0 12bd 3a2c 66be 13c5 4b3e 8c54 d2bd
00000030: 82d7 003b 8d88 0cbe d060 6e3e b168 bf3d
00000040: ee5e 493e e4b9 543e 799d 8b3c 6856 97bb
00000050: 1afd 383e 81ea 723c daaf 153e e5d1 243c
00000060: 787d 13bf 279f 1e3d 0559 893e e39e d1be
00000070: 2aea 3e3e 04cb cf3e 56f0 003e d20c 2ebf
00000080: c063 773e f31a 7abe 0a59 c23d 9d73 82bd
00000090: ac44 513e f725 19be cb0f 473d f000 17be
000000a0: c0ad fdbd a8a5 b0bc fb06 90be 5613 9b3e
000000b0: c4aa ac3e a4ed d6be a6c4 4e3e eca7 1f3e
000000c0: 6e1a dd3d 7a2c 623e 5db6 07be 6cc5 403d
000000d0: 48d0 26be 6b57 8f3e 8197 5abf c304 7a3e
000000e0: 905e c5be 00ed 0dbc c1dc 07be e306 82be
000000f0: e5c5 043c 3640 cbbd ce7c 4b3e ac05 c83e

layers.8.s_block.net.1.0.bias f4 [8]
0.209377 -0.13715017 -0.13265298 -0.045275226 0.0172206 -0.06881728 0.21315731 -0.35817438
00000000: ed66 563e 1871 0cbe 2fd6 07be 8472 39bd
00000010: 3712 8d3c 13f0 8cbd e945 5a3e a262 b7be

layers.8.s_block.net.2.0.weight f4 [8, 8]
-0.037676986 0.1967739 -0.032073155 0.628123 0.17580003 0.3548492 -0.36700037 0.048015423
0.34045237 0.027214598 -0.057932477 -0.10231412 0.11279538 -0.29781726 0.049966764 -0.6965621
0.12940904 0.33194825 0.31465578 0.050732538 0.17669348 0.16381288 -0.01106538 0.28574258
0.3451717 0.09260047 -0.015835285 -0.7049991 0.10553266 -0.11811261 -0.10615421 0.004533975
-0.471575 -0.11609171 0.15520045 0.4503164 0.45010942 0.19662142 0.15231216 0.06979717
0.019818733 -0.11742941 0.048013967 -0.49419338 -0.06097638 -0.18027523 0.47732854 -0.39563173
-0.011559686 -0.3205928 -0.053747255 0.08300007 0.074763454 0.004355958 0.017039262 -0.30432358
0.15140891 0.21297334 -0.17679614 -0.7656292 0.1832715 0.13673083 0.39268884 -0.4520152
00000000: 2f53 1abd 197f 493e 245f 03bd abcc 203f
00000010: ec04 343e cbae b53e 79e7 bbbe d2ab 443d
00000020: c64f ae3e 26f1 de3c 9b4a 6dbd 118a d1bd
00000030: 4401 e73d 817b 98be f3a9 4c3d e551 32bf
00000040: ce83 043e 1ff5 a93e 901a a13e eccc 4f3d
00000050: 23ef 343e 90be 273e 914b 35bc da4c 923e
00000060: 58ba b03e 51a5 bd3d 00b9 81bc d27a 34bf
00000070: 8221 d83d 06e5 f1bd 6167 d9bd bd91 943b
00000080: 4772 f1be 7ec1 edbd deec 1e3e df8f e63e
00000090: be74 e63e 2057 493e b8f7 1b3e d2f1 8e3d
000000a0: e55a a23c d57e f0bd 4baa 443d ea06 fdbe
000000b0: 5ec2 79bd 129a 38be 6864 f43e 3e90 cabe
000000c0: d664 3dbc bd24 a4be 1526 5cbd f1fb a93d
000000d0: 951d 993d 6dbc 8e3b ec95 8b3c 4dd0 9bbe
000000e0: f00a 1b3e af15 5a3e 0c0a 35be 4600 44bf
000000f0: 86ab 3b3e 2b03 0c3e 830e c93e 896e e7be

layers.8.s_block.net.2.0.bias f4 [8]
0.2560447 -0.20774594 -0.36021355 0.27180955 -0.35528654 0.385946 -0.06545365 0.38219848
00000000: 4a18 833e 5abb 54be e96d b8be 9f2a 8b3e
00000010: 1ee8 b5be b79a c53e 900c 86bd 85af c33e
