models/normalizing_flow_epoch_5.pth (torch, 150638 bytes, 270 tensors)

layers.0.s_block.net.0.0.weight f4 [8, 1]
0.17263715 -0.92269343 -0.56833816 0.37832576 0.55062485 -0.9731934 -0.99960303 -0.6823499
00000000: cbc7 303e a335 6cbf 9c7e 11bf eab3 c13e
00000010: c0f5 0c3f 3423 79bf fce5 7fbf 7cae 2ebf

layers.0.s_block.net.0.0.bias f4 [8]
-0.38991088 -0.19008322 -0.55815566 0.5693933 -1.009498 0.3710416 -0.19561325 1.0249666
00000000: 66a2 c7be 2da5 42be 4ae3 0ebf c2c3 113f
00000010: 3b37 81bf 2af9 bd3e d74e 48be 1b32 833f

layers.0.s_block.net.1.0.weight f4 [8, 8]
-0.041716754 0.49891958 -0.016086018 -0.386407 -0.33502635 0.28750852 0.4305726 0.06686785
0.33148977 -0.25991789 -0.014711384 0.18390732 0.22859822 -0.3181686 0.1725538 -0.11008943
0.43762642 -0.21035865 0.0009287039 -0.27381366 0.51929855 0.22756533 -0.04770088 -0.013990353
0.043349653 -1.4799067 -0.06061436 -0.09487955 0.07006686 0.06639289 -0.53603864 0.33851308
0.04259408 -0.0055369977 -0.16496338 0.13437206 0.3422653 0.057107605 0.24859574 -0.19305655
0.28280503 -0.3007157 -0.46890727 0.14165561 0.59683496 0.37482545 0.3655416 -0.22608316
-0.12908304 -0.30771592 -0.3748975 -0.29102895 -0.41498214 0.49825206 0.24041706 0.5418311
0.4404925 -0.36372066 -0.29563034 -0.27008307 0.23856106 0.013370601 -0.21503304 -0.16876113
00000000: 30df 2abd 6372 ff3e d3c6 83bc 23d7 c5be
00000010: 9388 abbe 5134 933e 0374 dc3e 03f2 883d
00000020: 07b9 a93e f513 85be 0408 71bc 3352 3c3e
00000030: a715 6a3e ffe6 a2be f1b1 303e 9176 e1bd
00000040: 9210 e03e 4268 57be 4474 733a 4e31 8cbe
00000050: c0f0 043f e306 693e ff61 43bd cb37 65bc
00000060: 688f 313d 956d bdbf c346 78bd 3650 c2bd
00000070: 377f 8f3d fff8 873d d439 09bf 9651 ad3e
00000080: 2177 2e3d b46f b5bb 29ec 28be d498 093e
00000090: 663d af3e aae9 693d e28f 7e3e 9eb0 45be
000000a0: d2cb 903e 69f7 99be 9d14 f0be 2b0e 113e
000000b0: 2dca 183f 1fe9 bf3e 4528 bb3e 5882 67be
000000c0: 582e 04be f18c 9dbe 91f2 bfbe bf01 95be
000000d0: 8a78 d4be e51a ff3e e42f 763e 71b5 0a3f
000000e0: 3c88 e13e 9839 babe dc5c 97be 5448 8abe
000000f0: 5a49 743e 5e10 5b3c 9f31 5cbe b8cf 2cbe

layers.0.s_block.net.1.0.bias f4 [8]
0.048254684 -0.32554433 -0.3159682 0.085497886 -0.29097652 -0.3650582 -0.2186277 -0.027202792
00000000: b4a6 453d bfad a6be 95c6 a1be 8419 af3d
00000010: e0fa 94be e9e8 babe f1df 5fbe 64d8 debc

layers.0.s_block.net.2.0.weight f4 [8, 8]
-1.0059652 0.036994003 0.5786206 0.9541181 0.26499572 0.37725312 0.4971985 0.48874465
0.42218566 0.1740695 -0.21484588 0.013682102 -0.095946334 0.12740895 0.41860858 -0.39426267
-0.15489712 -0.47492054 0.20761666 0.9117311 -0.25997066 0.019255303 0.026225336 0.4091325
-0.318216 0.12893546 0.7257274 0.2764087 -0.06356296 0.25651997 0.11638581 0.18206502
0.30619872 -0.0190052 -0.4417268 -0.91668916 -0.22322223 -0.71476984 0.0027680432 -0.35274696
0.65607846 0.074770726 -0.63011605 -0.5784821 -0.25911087 -0.22196846 0.049981665 -0.004885847
0.14008418 -0.1713218 -0.24565654 -0.42928576 -0.4130683 -0.6020332 -0.55856305 -0.3548992
0.38643742 -0.7413494 -0.03609421 -0.8540918 0.075887494 -0.56512266 0.11259458 -0.35798687
00000000: 78c3 80bf 0687 173d 7b20 143f 1541 743f
00000010: 85ad 873e 5227 c13e cd90 fe3e bd3c fa3e
00000020: b828 d83e 463f 323e 8f00 5cbe e52a 603c
00000030: 837f c4bd 7e77 023e dd53 d63e ccdc c9be
00000040: 5a9d 1ebe c928 f3be 7699 543e 3667 693f
00000050: e01a 85be 4cbd 9d3c 84d6 d63c d179 d13e
00000060: 35ed a2be a807 043e 45c9 393f 7185 8d3e
00000070: 4c2d 82bd 9656 833e af5b ee3d 416f 3a3e
00000080: 14c6 9c3e cbb0 9bbc 042a e2be 24ac 6abf
00000090: 5e94 64be 28fb 36bf 0f68 353b 409b b4be
000000a0: c2f4 273f 6521 993d 494f 21bf 6717 14bf
000000b0: 2eaa 84be b34b 63be 93b9 4c3d 7519 a0bb
000000c0: 3a72 0f3e fb6e 2fbe 638d 7bbe 58cb dbbe
000000d0: b07d d3be d91e 1abf fdfd 0ebf 59b5 b5be
000000e0: 20db c53e 13c9 3dbf 86d7 13bd c3a5 5abf
000000f0: e76a 9b3d e1ab 10bf fd97 e63d 0e4a b7be

layers.0.s_block.net.2.0.bias f4 [8]
0.002349115 -0.33701184 0.49730656 -0.3344129 0.3206094 0.08611405 0.3965161 0.28629595
00000000: 9cf3 193b d18c acbe f79e fe3e 2b38 abbe
00000010: ea26 a43e 905c b03d 2904 cb3e 6295 923e

layers.0.s_block.net.3.0.weight f4 [8, 8]
0.0284264 0.2834304 -0.39042702 0.25335062 -0.33873773 -0.16361104 -0.7760886 -0.6138569
0.10235329 0.10454089 0.58935684 0.35636017 -0.58356816 -0.7268226 -0.20650585 -0.6295416
-0.6125693 -0.49905327 -0.033552032 -0.51120484 0.32711995 0.04706669 0.719853 0.6004752
0.6525942 -0.07630496 0.15155979 0.5758609 -0.7223294 -0.3958747 -0.8713207 -0.6023138
-0.7064374 -0.62139153 0.3797103 -0.3993632 0.28614014 0.2718021 0.26836747 0.26381856
0.22676325 0.25300902 -0.00671926 0.5195649 -0.48769853 -0.38910195 -0.31793255 -0.73834157
-0.06661057 0.5543962 -0.20205143 0.22484995 -0.01753855 -0.4341131 -0.23743796 -0.5823224
-0.20634387 0.43877614 -0.40493286 0.014808681 -0.091224276 0.13967474 0.3594873 0.05087969
00000000: 7bde e83c ca1d 913e 0de6 c7be 2cb7 813e
00000010: 086f adbe a789 27be bead 46bf ba25 1dbf
00000020: 9a9e d13d 8919 d63d 17e0 163f d774 b63e
00000030: b964 15bf 0c11 3abf 4576 53be a329 21bf
00000040: 57d1 1cbf e983 ffbe db6d 09bd 52de 02bf
00000050: 447c a73e 00c9 403d 4948 383f beb8 193f
00000060: 6a10 273f c645 9cbd 7d32 1b3e 9f6b 133f
00000070: 94ea 38bf 17b0 cabe e00e 5fbf 3d31 1abf
00000080: 15d9 34bf 8413 1fbf 6369 c23e 5579 ccbe
00000090: f680 923e a529 8b3e 7667 893e 3a13 873e
000000a0: a034 683e 668a 813e 3d2d dcbb 3502 053f
000000b0: 9fb3 f9be 5f38 c7be 0ec8 a2be f403 3dbf
000000c0: 1f6b 88bd e9ec 0d3f 92e6 4ebe 113f 663e
000000d0: 01ad 8fbc 1244 debe f022 73be 1513 15bf
000000e0: cf4b 53be 44a7 e03e 5c53 cfbe 1ca0 723c
000000f0: cbd3 babd e506 0f3e b80e b83e 3967 503d

layers.0.s_block.net.3.0.bias f4 [8]
-0.46675602 0.22978891 0.41237798 0.0051586404 0.27798057 -0.32502818 -0.39005378 -0.19463019
00000000: a5fa eebe c94d 6b3e 3523 d33e d009 a93b
00000010: 7853 8e3e 186a a6be 21b5 c7be 234d 47be

layers.0.s_block.net.4.weight f4 [1, 8]
0.3013685 0.39264706 -0.5289176 0.8030683 -0.37167385 0.6780427 0.35160136 -0.18014248
00000000: f94c 9a3e 0909 c93e 2567 07bf e295 4d3f
00000010: 094c bebe 3594 2d3f 1805 b43e 4577 38be

layers.0.b_block.net.0.0.weight f4 [8, 1]
0.34211227 0.51386666 0.25680992 -0.25374097 -1.093504 -0.4473534 -1.3615029 0.8691046
00000000: 5729 af3e c48c 033f 977c 833e 56ea 81be
00000010: f0f7 8bbf 810b e5be ba45 aebf a47d 5e3f

layers.0.b_block.net.0.0.bias f4 [8]
0.6344989 0.4603104 0.32419732 0.40172333 -0.65705585 0.6764116 0.9038335 -0.668483
00000000: 856e 223f cead eb3e 31fd a53e aeae cd3e
00000010: d034 28bf 5029 2d3f a261 673f b421 2bbf

layers.0.b_block.net.1.0.weight f4 [8, 8]
-0.3583373 -0.122607365 -0.30327034 -0.32131842 -0.70531684 0.173248 -0.48423672 0.09838208
-0.02781181 0.06915427 0.38358673 -0.34095684 -0.10972021 -0.66391784 -0.32397893 0.37822163
0.22104147 -0.015139678 -0.20875567 -0.06465196 -0.5598719 -0.3849303 0.5006543 0.32282063
-0.2721568 -0.04548179 0.1922862 -0.48005936 -0.6319068 -0.39006728 -0.12007746 0.35890839
-0.15460727 -1.5138925 -0.5170399 0.26860154 0.8681171 -0.17580505 0.4353519 -0.5336836
0.14492579 -0.042292744 -0.22487073 -0.3680099 0.25221848 -0.45876536 0.18201365 0.36650544
0.37029332 -0.05436935 0.31483552 0.23981594 -0.29008085 0.0769839 -0.6590601 -0.60974234
0.23839459 -0.92109406 -0.19603579 0.3455031 -0.8509192 0.12178972 0.3053063 -0.1555272
00000000: fd77 b7be 9219 fbbd 4046 9bbe d983 a4be
00000010: a58f 34bf ec67 313e e0ed f7be 8b7c c93d
00000020: 98d5 e3bc c1a0 8d3d 7b65 c43e e591 aebe
00000030: fdb4 e0bd 85f6 29bf 91e0 a5be 44a6 c13e
00000040: b258 623e 690c 78bc 0cc4 55be 3f68 84bd
00000050: c453 0fbf 9615 c5be e12a 003f bf48 a53e
00000060: 2358 8bbe 1d4b 3abd ace6 443e 57ca f5be
00000070: a5c4 21bf e6b6 c7be 2ceb f5bd d7c2 b73e
00000080: 5e51 1ebe 3bc7 c1bf ba5c 04bf 2486 893e
00000090: ec3c 5e3f 3d06 34be 72e6 de3e 7d9f 08bf
000000a0: 6d67 143e 283b 2dbd 8344 66be cb6b bcbe
000000b0: c822 813e 4be3 eabe c961 3a3e 9aa6 bb3e
000000c0: 1697 bd3e 65b2 5ebd 1f32 a13e 4f92 753e
000000d0: 7a85 94be bca9 9d3d 2ab8 28bf 1318 1cbf
000000e0: b61d 743e d2cc 6bbf 9bbd 48be c8e5 b03e
000000f0: d7d5 59bf e46c f93d 1b51 9c3e 8642 1fbe

layers.0.b_block.net.1.0.bias f4 [8]
-0.009833269 0.08217897 0.39668584 -0.19199723 -0.42093626 -0.3797302 -0.18291968 0.1159085
00000000: b81b 21bc 734d a83d 681a cb3e ec9a 44be
00000010: f584 d7be ff6b c2be 4c4f 3bbe 7061 ed3d

layers.0.b_block.net.2.0.weight f4 [8, 8]
0.10262036 0.45475563 -0.1867027 0.42688122 0.061003268 0.22859329 -0.27183917 -1.3321917
-0.35402077 0.44272342 0.40743753 -0.04534383 -0.62187725 0.069707714 -0.5297775 0.22417206
-0.12972926 0.59114957 0.5059616 -0.10359482 -0.2433898 -0.03592663 -0.55708236 -0.15950283
-0.10527508 -0.16705653 0.04171987 0.20836306 -0.45385173 0.49184638 0.03400015 -0.3026016
-0.13291931 0.42380542 0.06735731 -0.3742173 -0.3532772 -0.1944401 -0.6774697 -0.1857591
0.26643372 -0.11329144 0.09222953 0.54847366 -0.65148354 0.36418813 0.5155721 0.51514554
-0.43747732 0.07700989 0.25400794 -0.09320746 0.36375472 0.27793244 0.6134865 -0.13296956
0.3020311 0.3457942 -0.020355795 0.4600721 -0.6115874 0.33702934 0.48334575 0.7317586
00000000: a02a d23d bbd5 e83e fe2e 3fbe 2d90 da3e
00000010: 90de 793d 5c14 6a3e 812e 8bbe 4285 aabf
00000020: 3642 b5be a5ac e23e a79b d03e 74ba 39bd
00000030: 5933 1fbf ebc2 8e3d 809f 07bf 5c8d 653e
00000040: bfd7 04be 9455 173f b386 013f 8529 d4bd
00000050: 2d3b 79be cd27 13bd f39c 0ebf b654 23be
00000060: 769a d7bd de10 2bbe 74e2 2a3d 205d 553e
00000070: 415f e8be 4ad3 fb3e be43 0b3d 99ee 9abe
00000080: 001c 08be 06fd d83e a1f2 893d 6999 bfbe
00000090: c0e0 b4be 4e1b 47be a76e 2dbf a237 3ebe
000000a0: 006a 883e 5805 e8bd d6e2 bc3d c568 0c3f
000000b0: a0c7 26bf de76 ba3e 88fc 033f 94e0 033f
000000c0: 07fd dfbe 5cb7 9d3d 540d 823e 8ee3 bebd
000000d0: 0f3e ba3e 294d 8e3e 740d 1d3f 2c29 08be
000000e0: d2a3 9a3e f00b b13e 32c1 a6bc 928e eb3e
000000f0: fe90 1cbf 1c8f ac3e 1879 f73e 8854 3b3f

layers.0.b_block.net.2.0.bias f4 [8]
-0.36508486 0.030370213 0.026832843 -0.3408029 0.27567112 0.07078989 -0.024915945 -0.016466739
00000000: 67ec babe f4ca f83c 8dd0 db3c b87d aebe
00000010: c424 8d3e 4afa 903d 861c ccbc 41e5 86bc

layers.0.b_block.net.3.0.weight f4 [8, 8]
-0.23203987 -0.3778793 -0.6995669 0.05702919 -0.32140675 0.5400347 0.020194054 0.3010589
-0.65142876 0.024920667 0.34528098 -0.3538573 0.45130768 -0.4490176 -0.6113074 -1.0841002
-0.37171006 -0.67972606 -0.13784328 -0.3194716 -0.21165726 -0.012740715 -0.22391456 0.025444897
0.45353016 0.13025314 0.68167615 0.06484113 0.28486 0.086668015 -0.5378022 -0.35832632
-0.42090583 0.62543553 0.7197754 -0.20733657 0.5035738 -0.17020278 -0.37162086 0.124714255
0.4153691 0.16647695 0.09820993 0.14917356 -0.23835003 -0.039976306 -0.2432457 -0.40031657
-0.3830977 -0.34134868 0.15432009 0.13724613 0.1043863 -0.06417582 0.16645657 0.38758603
-0.20319143 0.28415087 0.00590862 0.42564717 -0.018843275 -0.0060246913 -0.51653606 0.07266525
00000000: dc9b 6dbe 6579 c1be d116 33bf 7197 693d
00000010: 6d8f a4be b73f 0a3f 006e a53c 6424 9a3e
00000020: 09c4 26bf 6d26 cc3c abc8 b03e c92c b5be
00000030: cd11 e73e a3e5 e5be a47e 1cbf ccc3 8abf
00000040: c850 bebe 8702 2ebf ca26 0dbe c891 a3be
00000050: aebc 58be 6fbe 50bc dc49 65be d171 d03c
00000060: 1b35 e83e 1461 053e 5482 2e3f 6dcb 843d
00000070: 2bd9 913e 007f b13d 68ad 09bf 8c76 b7be
00000080: f880 d7be 8b1c 203f 3343 383f 0a50 54be
00000090: 36ea 003f a349 2ebe 1745 bebe 306a ff3d
000000a0: 42ab d43e ef78 2a3e 4a22 c93d f4c0 183e
000000b0: 0812 74be 32be 23bd 6715 79be 4bf6 ccbe
000000c0: 6225 c4be 41c5 aebe 1606 1e3e 408a 0c3e
000000d0: 7cc8 d53d 9d6e 83bd 9773 2a3e ad71 c63e
000000e0: 6a11 50be 397c 913e 199d c13b 6dee d93e
000000f0: 365d 9abc c66a c5bb b53b 04bf 85d1 943d

layers.0.b_block.net.3.0.bias f4 [8]
-0.39662105 0.33823267 -0.32761222 0.2708517 0.27613735 -0.36395454 0.0603674 -0.2228589
00000000: ea11 cbbe d52c ad3e cabc a7be 13ad 8a3e
00000010: e061 8d3e 4058 babe cf43 773d 2035 64be

layers.0.b_block.net.4.weight f4 [1, 8]
0.7265134 -0.5066333 0.2481414 -0.0940583 -0.45894796 -0.14240906 0.3604644 0.2698213
00000000: c8fc 393f b8b2 01bf c718 7e3e a3a1 c0bd
00000010: 3afb eabe aed3 11be ca8e b83e 0426 8a3e

layers.2.s_block.net.0.0.weight f4 [8, 1]
0.9444876 -0.09012897 0.93093884 0.305436 0.18138403 -0.91821116 -0.821072 0.8756162
00000000: f0c9 713f 8a95 b8bd 0252 6e3f 1b62 9c3e
00000010: bcbc 393e e30f 6bbf c631 52bf 6228 603f

layers.2.s_block.net.0.0.bias f4 [8]
-0.57557833 -0.42132908 -0.049090795 0.95975137 -1.1989611 0.34656006 -1.0463594 1.1153172
00000000: 1a59 13bf 72b8 d7be 6e13 49bd 44b2 753f
00000010: 8f77 99bf 5270 b13e 1bef 85bf b7c2 8e3f

layers.2.s_block.net.1.0.weight f4 [8, 8]
-0.06053184 -0.12697522 0.20609213 0.3148114 0.11280544 0.52841926 -0.7902301 -0.3434008
0.5073294 -0.071760826 0.4279639 0.063760206 0.22161439 0.33609968 -0.54173076 -0.5134299
0.61174697 0.08013257 -0.12995416 -0.2150319 0.16551417 -0.13323219 -0.109900445 -0.33608988
-0.71803075 0.31483597 -0.47616944 0.03078017 -0.45505005 -0.2642111 0.7692193 -0.16748676
0.03707913 -0.0070243455 0.4256453 -0.20201439 0.38380975 0.24922429 -0.053740118 0.06443403
-0.25669935 -0.14479181 -0.01645773 -0.21145642 -0.1251524 -0.13714992 0.35562828 -0.103825554
0.39322835 0.5061458 0.42477852 0.13980192 0.5259011 0.49894273 -0.35136214 0.03488346
-0.29539078 -0.12604685 -0.42720973 0.22282638 -0.7596536 0.2724223 0.092635244 0.29437727
00000000: 3cf0 77bd cb05 02be d109 533e f62e a13e
00000010: 8a06 e73d 7c46 073f 854c 4abf 3bd2 afbe
00000020: 57e0 013f 57f7 92bd 161e db3e b694 823d
00000030: e2ee 623e 4215 ac3e deae 0abf 2470 03bf
00000040: 739b 1c3f 8b1c a43d b412 05be 5331 5cbe
00000050: 8c7c 293e 056e 08be 7c13 e1bd f913 acbe
00000060: ddd0 37bf 2e32 a13e 7bcc f3be b226 fc3c
00000070: 52fc e8be ad46 87be 8eeb 443f a681 2bbe
00000080: 49e0 173d 7b2c e6bb 2eee d93e dcdc 4ebe
00000090: b682 c43e a734 7f3e 991e 5cbd fdf5 833d
000000a0: 196e 83be 4e44 14be 5dd2 86bc 0888 58be
000000b0: f327 00be 0771 0cbe e914 b63e 7ea2 d4bd
000000c0: 3a55 c93e c592 013f 927c d93e 3c28 0f3e
000000d0: 74a1 063f 6c75 ff3e bde5 b3be f5e1 0e3d
000000e0: 763d 97be 6d12 01be 3cbb dabe 992c 643e
000000f0: a978 42bf f07a 8b3e 8cb7 bd3d 9eb8 963e

layers.2.s_block.net.1.0.bias f4 [8]
0.14852718 -0.29013762 0.13391988 0.21046762 -0.62910324 0.15608954 -0.1093234 0.6028487
00000000: 8217 183e eb8c 94be 4b22 093e d384 573e
00000010: e90c 21bf f0d5 1f3e f2e4 dfbd 4b54 1a3f

layers.2.s_block.net.2.0.weight f4 [8, 8]
-0.13508447 0.3464241 -0.14680886 0.052635744 0.18369578 0.26253518 0.18442574 -0.69373965
0.22305842 0.5205492 0.21201123 0.09336259 -0.36507195 0.051452685 0.4132773 -0.29960415
-0.039880637 0.7382795 0.060018636 -0.49929833 0.10402852 -0.18886325 -0.18556803 0.19059192
0.02235813 -0.9103 0.027651444 -0.26575455 -1.1665229 0.10159204 0.4559075 0.108709544
0.3822565 0.7710315 0.012759316 -0.6743645 0.5834968 -0.45685175 0.07925405 -0.3742376
-0.3249181 0.43395665 0.12765123 0.026097782 0.78817225 -0.025827566 0.15773238 -1.1093595
-0.3181884 -0.19736053 -0.022275003 0.34786987 0.62653536 0.065634385 -0.32964763 -0.22746623
0.055150166 0.24849561 -0.046619378 0.07476275 0.09050463 0.19122522 -0.23768798 -0.17623726
00000000: 9553 0abe 805e b13e 1055 16be 9498 573d
00000010: bf1a 3c3e 036b 863e 1ada 3c3e ec98 31bf
00000020: 6d69 643e b642 053f 7919 593e e334 bf3d
00000030: b6ea babe 0dc0 523d 1599 d33e b765 99be
00000040: e159 23bd e3ff 3c3f 1ad6 753d 08a4 ffbe
00000050: e80c d53d 5e65 41be 8c05 3ebe 872a 433e
00000060: 6628 b73c 6c09 69bf 4885 e23c fb10 88be
00000070: 9f50 95bf 7d0f d03d b56c e93e 1ca3 de3d
00000080: 20b7 c33e 5262 453f 730c 513c 27a3 2cbf
00000090: 0c60 153f 79e8 e9be f34f a23d 129c bfbe
000000a0: aa5b a6be 912f de3e 01b7 023e 04cb d53c
000000b0: a8c5 493f 5594 d3bc 9984 213e 7eff 8dbf
000000c0: 97e9 a2be e118 4abe 117a b6bc 001c b23e
000000d0: 9f64 203f 526b 863d 93c7 a8be e8ec 68be
000000e0: 24e5 613d a275 7e3e f6f3 3ebd 361d 993d
000000f0: 7e5a b93d 8bd0 433e 7a64 73be 8a77 34be

layers.2.s_block.net.2.0.bias f4 [8]
-0.17173876 0.30089766 0.3000449 0.06540956 0.04034803 -0.2567285 -0.05404287 -0.20931658
00000000: 49dc 2fbe 420f 9a3e 7c9f 993e 73f5 853d
00000010: fa43 253d eb71 83be 0e5c 5dbd 1657 56be

layers.2.s_block.net.3.0.weight f4 [8, 8]
-0.29063457 0.2333822 0.1469633 -0.38896766 0.59645 -1.0926092 0.15392126 0.015996695
-0.2033692 -0.16158852 -0.15368597 0.3549784 -0.24843742 0.28921843 -0.3733981 -0.15552974
-0.046082523 -0.2873145 0.3713984 -0.49315307 0.05951412 -0.16241138 0.2323837 -0.29031214
0.3113533 -0.1769315 -0.06334328 -0.2981821 0.35511637 0.98052627 0.4931644 0.2485062
-0.3878902 0.15074447 0.106023595 0.9944843 -0.5344791 -0.20970018 0.29102352 -0.1979844
0.2484624 0.09618515 0.35168377 -0.5426732 0.37302512 -0.5312438 -0.13253365 0.35603958
-0.15635207 0.23643067 0.26994964 -0.13039848 0.64045453 -1.0827442 -0.37864882 0.0059663653
0.13188045 0.08316254 -0.09392808 0.39541125 0.03782642 0.659991 -0.16177759 -0.16923068
00000000: 0ece 94be befb 6e3e 8c7d 163e c526 c7be
00000010: f2b0 183f 9eda 8bbf 899d 1d3e 800b 833c
00000020: 0440 50be 7677 25be db5f 1dbe bbbf b53e
00000030: 6166 7ebe 7014 943e 092e bfbe 3043 1fbe
00000040: 07c1 3cbd e31a 93be ee27 be3e 8f7e fcbe
00000050: 14c5 733d 2b4f 26be fef5 6d3e cba3 94be
00000060: b369 9f3e 882d 35be 1fba 81bd 53ab 98be
00000070: d0d1 b53e c503 7b3f 0b80 fc3e 6978 7e3e
00000080: 8b99 c6be c25c 1a3e e622 d93d 8696 7e3f
00000090: 9fd3 08bf a5bb 56be 0901 953e 6cbc 4abe
000000a0: ed6c 7e3e b8fc c43d e50f b43e a1ec 0abf
000000b0: 26fd be3e 98ff 07bf e7b6 07be d24a b63e
000000c0: c21a 20be e21a 723e d736 8a3e 2e87 05be
000000d0: d4f4 233f 5d97 8abf 42de c1be 8081 c33b
000000e0: ab0b 073e 1f51 aa3d 5d5d c0bd 5873 ca3e
000000f0: e0ef 1a3d 2cf5 283f 06a9 25be cf4a 2dbe

layers.2.s_block.net.3.0.bias f4 [8]
-0.0025878085 -0.17341176 0.27158272 -0.23000948 0.39305025 0.13947624 -0.17241839 0.2112296
00000000: 3998 29bb da92 31be e40c 8b3e 9b87 6bbe
00000010: e23d c93e dcd2 0e3e 728e 30be 924c 583e

layers.2.s_block.net.4.weight f4 [1, 8]
0.62706983 -0.28336936 0.24477416 -0.58324677 -0.40872115 0.42962515 0.8577587 -0.21415614
00000000: a687 203f ca15 91be 14a6 7a3e a94f 15bf
00000010: e643 d1be d4f7 db3e 1396 5b3f bf4b 5bbe

layers.2.b_block.net.0.0.weight f4 [8, 1]
1.0553943 0.9810165 0.8155042 -0.63052213 -0.12274369 -0.1578597 -0.50964814 -1.0453849
00000000: 2917 873f e623 7b3f e2c4 503f e669 21bf
00000010: 0b61 fbbd f9a5 21be 4d78 02bf 2ccf 85bf

layers.2.b_block.net.0.0.bias f4 [8]
-0.5009704 0.8731697 0.37368536 1.1630915 -1.0667113 -0.9493869 -0.44946766 0.03829559
00000000: 993f 00bf 0d88 5f3f b053 bf3e 2fe0 943f
00000010: ff89 88bf 050b 73bf a020 e6be d6db 1c3d

layers.2.b_block.net.1.0.weight f4 [8, 8]
-0.03859866 0.24881727 0.22726558 0.12798268 0.07277499 -0.17391449 0.06995491 -0.41054446
0.4303294 -0.14773387 0.2762045 -0.11972122 0.10376462 0.2597092 0.22796586 0.19501211
-0.75329065 -0.22303846 0.08209416 0.16580035 -0.20602189 0.1271653 -0.35617417 -0.16126277
-0.76976115 0.13383803 0.022801543 0.25261885 -0.48847708 -0.2419524 0.076946914 -0.3362843
0.033739224 -0.59019715 -0.44544107 0.27144998 0.021160675 0.10101033 -0.16196129 -0.11204885
-0.12044143 -0.64400935 -0.14146574 0.22463404 0.25759715 -0.08467596 -0.42068237 0.017424138
-0.43608505 -0.42141938 -0.24189207 -0.07442202 0.10578684 0.27812237 0.040138174 -0.15330555
-0.12180299 0.31467977 0.24380596 -0.4538496 0.07179671 -0.055693287 -0.024569256 0.011427218
00000000: a119 1ebd f4c9 7e3e 4fb8 683e e40d 033e
00000010: 0e0b 953d a416 32be 8544 8f3d e232 d2be
00000020: 2354 dc3e 8c47 17be ad6a 8d3e 6630 f5bd
00000030: 8c82 d43d 9bf8 843e e26f 693e 41b1 473e
00000040: a8d7 40bf 3264 64be fc20 a83d 91c7 293e
00000050: 67f7 52be 9f37 023e 765c b6be 1122 25be
00000060: 110f 45bf d60c 093e 4dca ba3c 4257 813e
00000070: ab19 fabe 5fc2 77be 5896 9d3d 752d acbe
00000080: 2432 0a3d 2917 17bf da10 e4be 7efb 8a3e
00000090: 2759 ad3c 81de ce3d 2ed9 25be de79 e5bd
000000a0: ffa9 f6bd ccdd 24bf 65dc 10be 7706 663e
000000b0: c6e3 833e 976a adbd ae63 d7be 11bd 8e3c
000000c0: 8a46 dfbe 48c4 d7be 8eb2 77be 926a 98bd
000000d0: c5a6 d83d 0e66 8e3e ed67 243d 21fc 1cbe
000000e0: d973 f9bd b51d a13e 45a8 793e fa5e e8be
000000f0: 270a 933d a51e 64bd 7745 c9bc 3a39 3b3c

layers.2.b_block.net.1.0.bias f4 [8]
0.27493197 0.17694812 -0.16823435 0.49470556 -0.010814469 0.3699914 -0.19903784 0.20119888
00000000: e2c3 8c3e e331 353e a045 2cbe 0c4a fd3e
00000010: 2c2f 31bc 836f bd3e 93d0 4bbe 1407 4e3e

layers.2.b_block.net.2.0.weight f4 [8, 8]
-0.08710804 0.27018917 -0.27252755 -0.6646595 0.11372349 0.22196883 0.02270219 0.14524983
0.41541344 0.20532264 -0.07346353 0.36945504 0.14567165 -0.22311436 -0.28586125 -0.042688433
-0.52669525 0.16599894 0.25235555 0.05046811 0.02282677 0.51081824 -0.24529126 -0.38227716
-0.21075043 0.15946749 -0.35886493 -0.90889305 -0.16037053 -0.023051849 -0.28094557 0.16839525
-0.4268838 0.17493059 0.07539137 -0.12614244 -0.19016576 0.22524852 -0.20202804 -0.28596592
-0.1389274 -0.08375147 0.39104962 0.47011152 -0.43098462 -0.46482944 -0.06918664 0.15090948
0.34284836 0.41669306 -0.7341817 -0.15878583 0.089568764 -0.028316611 -0.1815022 0.62476295
-0.02308571 -0.1412402 -0.06635146 0.014314059 0.4680799 0.86891776 -0.31069493 -0.6542154
00000000: b365 b2bd 3c56 8a3e bb88 8bbe 2027 2abf
00000010: dce7 e83d cc4b 633e f1f9 b93c 5fbc 143e
00000020: 12b1 d43e 1940 523e 0c74 96bd 3629 bd3e
00000030: f32a 153e 1778 64be 685c 92be 11da 2ebd
00000040: 80d5 06bf a0fb 293e bf34 813e a6b7 4e3d
00000050: 35ff ba3c fcc4 023f a22d 7bbe d5b9 c3be
00000060: f6ce 57be 724b 233e 25bd b7be 37ad 68bf
00000070: 2c38 24be 3bd7 bcbc 19d8 8fbe ce6f 2c3e
00000080: 8390 dabe 0121 333e ca66 9a3d 7c2b 01be
00000090: d0ba 42be 8ca7 663e 70e0 4ebe 206a 92be
000000a0: fc42 0ebe e485 abbd a837 c83e 75b2 f03e
000000b0: 04aa dcbe 20fe edbe bab1 8dbd 0488 1a3e
000000c0: d289 af3e cb58 d53e 55f3 3bbf c198 22be
000000d0: d46f b73d 3df8 e7bc b6db 39be 77f0 1f3f
000000e0: 3e1e bdbc 45a1 10be 46e3 87bd 8485 6a3c
000000f0: 2ba8 ef3e 6571 5e3f 6813 9fbe a97a 27bf

layers.2.b_block.net.2.0.bias f4 [8]
-0.37218133 -0.20549579 0.34216028 -0.07966299 -0.26522097 0.22213897 0.1617244 0.29755685
00000000: 8d8e bebe 7d6d 52be a22f af3e 5a26 a3bd
00000010: 0bcb 87be 6678 633e 159b 253e 5f59 983e

layers.2.b_block.net.3.0.weight f4 [8, 8]
-0.15397419 0.029508062 -0.009182053 -0.08274255 0.037490625 0.27436733 -0.086631514 -0.5277231
0.14936653 -0.2806898 -0.18144384 -0.39278775 0.0694671 -0.43102816 0.34578502 0.5940844
0.25665927 -0.1927947 -0.16875087 0.0037235096 0.08977517 -0.20987722 -0.30433407 0.16935183
-0.51121897 0.11086363 0.27694917 -0.24780528 -0.3357817 -0.26992708 0.5458202 0.4127945
-0.08157067 0.35049504 -0.43081644 0.4443754 -0.18523069 0.30005294 -0.5922059 -0.59213525
-0.028761232 0.053165343 0.08333987 0.024784515 0.17875235 0.13144657 -0.31345096 -0.42919374
-0.10479953 -0.118453234 -0.11652442 0.09194846 -0.21927498 -0.552498 0.08873349 0.57602525
0.3368229 0.090159334 -0.29396966 -0.20634957 -0.2971017 -0.030357845 -0.15722167 0.12646957
00000000: 69ab 1dbe e4ba f13c 5270 16bc ed74 a9bd
00000010: c58f 193d e079 8c3e dd6b b1bd dc18 07bf
00000020: 8af3 183e 93b6 8fbe 6acc 39be 7a1b c9be
00000030: c444 8e3d b9af dcbe bc0a b13e ea15 183f
00000040: d868 833e f96b 45be 07cd 2cbe 2006 743b
00000050: 0bdc b73d 0eea 56be add1 9bbe 916a 2d3e
00000060: 3fdf 02bf 790c e33d 48cc 8d3e abc0 7dbe
00000070: 94eb abbe e233 8abe dfba 0b3f cd59 d33e
00000080: 860e a7bd 1674 b33e f993 dcbe 2c85 e33e
00000090: 1dad 3dbe 8aa0 993e ce9a 17bf 2d96 17bf
000000a0: ad9c ebbc e7c3 593d 18ae aa3d e508 cb3c
000000b0: db0a 373e ee99 063e a57c a0be 48bf dbbe
000000c0: 23a1 d6bd 9c97 f2bd 5ba4 eebd 794f bc3d
000000d0: 9f89 60be 8270 0dbf e7b9 b53d 6476 133f
000000e0: 0d74 ac3e 75a5 b83d 3183 96be 4d4d 53be
000000f0: b71d 98be 04b1 f8bc b8fe 20be 3d81 013e

layers.2.b_block.net.3.0.bias f4 [8]
-0.2232109 -0.14881422 -0.038850456 0.259585 0.11180632 -0.2214361 -0.31278497 -0.30333984
00000000: 6691 64be c162 18be a821 1fbd 53e8 843e
00000010: b6fa e43d 25c0 62be 5a25 a0be 5c4f 9bbe

layers.2.b_block.net.4.weight f4 [1, 8]
0.18882932 -0.38496417 -0.028436465 -0.4967419 0.49215308 0.13600007 -0.1574841 0.30073944
00000000: 795c 413e 061a c5be 97f3 e8bc f454 febe
00000010: 7dfb fb3e 9a43 0b3e 8343 21be 85fa 993e

layers.4.s_block.net.0.0.weight f4 [8, 1]
0.6680346 -0.62538725 -0.9022363 -0.33066556 0.81728625 -0.44259277 -0.3521853 0.6746049
00000000: 5104 2b3f 6119 20bf f5f8 66bf ff4c a9be
00000010: ac39 513f 859b e2be a251 b4be e8b2 2c3f

layers.4.s_block.net.0.0.bias f4 [8]
0.7880207 -0.78297955 0.15844762 -0.49954325 1.0364579 0.82834697 0.7591495 -0.9329994
00000000: b9bb 493f 5971 48bf 1840 223e 22c4 ffbe
00000010: a7aa 843f 8c0e 543f 9f57 423f 0cd9 6ebf

layers.4.s_block.net.1.0.weight f4 [8, 8]
-0.35696784 -0.11936993 0.13044274 -0.18710761 0.014797891 0.08031192 -0.12324416 0.57646084
-0.53496873 -0.06701486 0.42424285 -0.40392464 -0.8555689 0.15270616 0.12289764 -0.20066896
0.24508013 -0.2037873 -0.15730394 -0.04855163 -0.15602058 -0.53819805 -0.56088233 -0.4960243
0.10241956 -0.21712902 0.088707894 0.1009171 0.10345488 0.044150826 0.09888778 -0.20324184
-0.69874245 -0.31973013 0.11403203 -0.4191588 -0.38554588 0.16377342 -0.25025168 0.07484286
0.22632973 0.09183187 -0.26484722 -0.20546933 -0.22557007 0.07775217 0.21420898 -0.32048154
0.008127573 0.10188545 -0.08253822 0.11195265 0.35622627 0.36161882 0.19452898 -0.6172816
-0.09391431 -0.5985232 -0.07082181 -0.1231439 -0.29678848 -0.22376454 0.37266582 -0.2583762
00000000: 7dc4 b6be 3978 f4bd c892 053e 2399 3fbe
00000010: da72 723c 937a a43d 6f67 fcbd f092 133f
00000020: b6f3 08bf 163f 89bd 5c36 d93e 36cf cebe
00000030: 9006 5bbf 015f 1c3e c2b1 fb3d 2a7c 4dbe
00000040: 49f6 7a3e 9ead 50be 4914 21be 13de 46bd
00000050: dcc3 1fbe 59c7 09bf fc95 0fbf e6f6 fdbe
00000060: 59c1 d13d 1257 5ebe 7cac b53d a0ad ce3d
00000070: 27e0 d33d 7fd7 343d ad85 ca3d a11e 50be
00000080: c9e0 32bf abb3 a3be a089 e93d fb9b d6be
00000090: 4566 c5be 38b4 273e fd20 80be 3747 993d
000000a0: fbc2 673e 5912 bc3d 0e9a 87be 8d66 52be
000000b0: d7fb 66be 883c 9f3d 9959 5b3e 2816 a4be
000000c0: 8329 053c 52a9 d03d cc09 a9bd 6e47 e53d
000000d0: 4a63 b63e 1a26 b93e 9b32 473e 2b06 1ebf
000000e0: 2556 c0bd d138 19bf 060b 91bd de32 fcbd
000000f0: a9f4 97be 8822 65be 0ece be3e e349 84be

layers.4.s_block.net.1.0.bias f4 [8]
0.10279998 0.21473968 0.01880374 0.3300431 0.1897953 -0.20128475 0.099686705 -0.08745189
00000000: cc88 d23d b8e4 5b3e 4d0a 9a3c 69fb a83e
00000010: b359 423e 971d 4ebe 8b28 cc3d fa19 b3bd

layers.4.s_block.net.2.0.weight f4 [8, 8]
-0.30935597 0.0039315564 0.120218255 -0.06642827 -0.46886027 -0.20972039 -0.022837386 -0.30417448
-0.4432262 -1.146229 0.32154113 0.3026901 -0.3999436 0.15445822 0.3857612 0.025234105
0.040854815 -0.74919814 0.37826106 0.20533317 0.37407768 0.09603424 0.26439744 0.14984617
0.27537024 0.23983377 -0.17873834 -0.3214539 -0.30490914 0.16487522 -0.13189396 -0.28056762
0.108644895 0.13191155 0.02721173 -0.2786365 0.1842663 -0.15349162 -0.30075157 0.3620518
-0.09355318 0.10593232 -0.2680788 -0.30321917 -0.35438794 0.28650498 -0.27731806 -0.123310275
0.08561238 0.19090909 -0.27451017 -0.21364309 -0.011337166 -0.057035442 -0.2908401 0.46450302
-0.1450299 -0.677183 0.31128627 0.2832087 0.23418619 0.22684123 0.20892787 -0.05607738
00000000: e863 9ebe 49d4 803b fd34 f63d 8b0b 88bd
00000010: 740e f0be f1c0 56be 7815 bbbc c2bc 9bbe
00000020: 8bee e2be a2b7 92bf 0aa1 a43e 32fa 9a3e
00000030: 68c5 ccbe 4c2a 1e3e 7e82 c53e c1b7 ce3c
00000040: 6157 273d 73cb 3fbf 6fab c13e dc42 523e
00000050: 1c87 bf3e 9aad c43d 1a5f 873e 4671 193e
00000060: 54fd 8c3e fc96 753e 2f07 37be 9b95 a4be
00000070: 0d1d 9cbe 0dd5 283e 360f 07be 8fa6 8fbe
00000080: 3781 de3d d213 073e 22eb de3c 71a9 8ebe
00000090: 4eb0 3c3e e82c 1dbe 1cfc 99be db5e b93e
000000a0: cf98 bfbd 0bf3 d83d a041 89be 8b3f 9bbe
000000b0: 5672 b5be c8b0 923e a2fc 8dbe 198a fcbd
000000c0: 8b55 af3d ac7d 433e 998c 8cbe 41c5 5abe
000000d0: 85bf 39bc ff9d 69bd fee8 94be 57d3 ed3e
000000e0: b882 14be dd5b 2dbf ea60 9f3e bb00 913e
000000f0: 81ce 6f3e 1149 683e 30f1 553e 65b1 65bd

layers.4.s_block.net.2.0.bias f4 [8]
-0.047505457 0.05861218 -0.02898047 -0.22972044 0.028723488 0.08112428 0.015251111 -0.050454848
00000000: 1595 42bd 5313 703d 7368 edbc d63b 6bbe
00000010: 854d eb3c 7d24 a63d ccdf 793c bea9 4ebd

layers.4.s_block.net.3.0.weight f4 [8, 8]
-0.23651375 0.082238585 -0.17939161 0.20040609 0.33784407 0.15266421 -0.25622794 0.07675436
0.11982767 0.006797463 0.18059081 0.058487754 0.32280883 0.3546655 -0.16216427 0.22631359
0.06670356 -0.4378205 0.031353902 -0.24687362 -0.328244 -0.16371477 0.32701486 0.037984297
-0.1332092 0.1488637 -0.25201342 0.17011519 0.05510131 -0.10512227 0.14427319 0.22399487
0.2209778 0.31609717 0.13422526 -0.32767004 0.39582297 -0.2596094 0.2696705 0.39217132
-0.3703984 0.11522808 0.36746392 0.030424325 0.36888617 -0.12692387 0.11166891 0.44912583
-0.36053383 0.18625635 -0.18635103 -0.14878814 0.29826325 0.06118862 -0.17253095 -0.024937417
-0.20553026 0.12644073 0.075799994 -0.09486866 0.12016452 0.39778304 0.30396712 -0.25551754
00000000: a930 72be b46c a83d 6fb2 37be 4137 4d3e
00000010: e6f9 ac3e 0254 1c3e 4f30 83be 6431 9d3d
00000020: 3668 f53d 41bd de3b ccec 383e db90 6f3d
00000030: 3347 a53e b796 b53e 640e 26be c0be 673e
00000040: e09b 883d 022a e0be f36c 003d 70cc 7cbe
00000050: 990f a8be d8a4 27be 7e6e a73e 6c95 1b3d
00000060: fe67 08be ba6f 183e e707 81be ad32 2e3e
00000070: e9b1 613d 584a d7bd 5abc 133e e95e 653e
00000080: 0148 623e 7dd7 a13e 5972 093e 5ec4 a7be
00000090: 4fa9 ca3e 86eb 84be 4012 8a3e aeca c83e
000000a0: dca4 bdbe b3fc eb3d 3b24 bc3e 6f3c f93c
000000b0: a6de bc3e 55f8 01be abb2 e43d d2f3 e53e
000000c0: e497 b8be fcb9 3e3e ced2 3ebe eb5b 18be
000000d0: f6b5 983e eba0 7a3d f4ab 30be 8e49 ccbc
000000e0: 8676 52be ae79 013e 073d 9b3d 804a c2bd
000000f0: d118 f63d 38aa cb3e 94a1 9b3e 32d3 82be

layers.4.s_block.net.3.0.bias f4 [8]
-0.036448915 -0.23591141 -0.2493492 -0.10793873 0.0077300295 0.006442687 0.04763053 -0.021925613
00000000: 754b 15bd c392 71be 6655 7fbe fb0e ddbd
00000010: 304c fd3b 2d1d d33b 3b18 433d 589d b3bc

layers.4.s_block.net.4.weight f4 [1, 8]
0.0244759 0.15715991 -0.15922567 0.17134097 0.36321947 0.2323431 0.045570314 0.0024548545
00000000: af81 c83c 87ee 203e 0e0c 23be 0274 2f3e
00000010: e7f7 b93e 59eb 6d3e f0a7 3a3d a0e1 203b

layers.4.b_block.net.0.0.weight f4 [8, 1]
-0.47287157 -0.46425426 0.09850942 -0.7168638 0.10980623 0.63456535 -0.38897938 -0.075132154
00000000: 391c f2be bcb2 edbe 4fbf c93d 6384 37bf
00000010: 17e2 e03d e072 223f 4e28 c7be e3de 99bd

layers.4.b_block.net.0.0.bias f4 [8]
-0.47693744 -0.45463136 1.0179435 0.11647162 -0.22742753 -0.019396584 -0.39560995 -0.6902301
00000000: 2531 f4be 71c5 e8be f94b 823f ac88 ee3d
00000010: c3e2 68be 96e5 9ebc 638d cabe ebb2 30bf

layers.4.b_block.net.1.0.weight f4 [8, 8]
0.27934363 0.5895239 -0.10193265 0.28474516 -0.23947278 0.0289983 0.75939137 -0.086546674
0.014616721 0.6669104 0.3093363 0.41951457 0.08772348 -0.36658335 0.22338119 -0.4164429
-0.062052947 0.4002613 0.14389008 -0.13629247 -0.14096309 -0.47715348 -0.06520377 -0.08764618
-1.076623 -1.0140299 -0.03695295 -0.061114468 0.019687662 0.4672324 -0.66476285 -0.10601578
-0.39560282 -0.3348916 -0.059739478 -0.16755497 -0.08239713 -0.61758834 -0.109293796 0.13011824
0.3911732 -0.010883055 -0.3789091 -0.09801103 0.33530098 0.34473175 0.15328246 -0.13413298
0.327121 0.053575844 0.15857504 -0.22801235 0.06206968 -0.28090283 0.27823237 0.20301607
0.33807865 0.24029137 0.4583052 -0.2482271 0.06534222 -0.4719542 0.5983843 0.05247513
00000000: 2106 8f3e 0aeb 163f 11c2 d0bd 1eca 913e
00000010: 5a38 75be d88d ed3c 7967 423f 623f b1bd
00000020: f97a 6f3c a4ba 2a3f 5461 9e3e 9dca d63e
00000030: 5ea8 b33d d0b0 bbbe 0abe 643e 0138 d5be
00000040: 3b2b 7ebd 0def cc3e ec57 133e 4190 0bbe
00000050: a158 10be 764d f4be 8e89 85bd d77f b3bd
00000060: c8ce 89bf bbcb 81bf fa5b 17bd 2a53 7abd
00000070: 0548 a13c 1639 ef3e e62d 2abf cd1e d9bd
00000080: 748c cabe e976 abbe 62b1 74bd 8893 2bbe
00000090: d4bf a8bd 451a 1ebf 6dd5 dfbd b73d 053e
000000a0: db47 c83e d74e 32bc 6000 c2be 02ba c8bd
000000b0: 92ac ab3e ae80 b03e 14f6 1c3e 285a 09be
000000c0: 677c a73e 5872 5b3d 7f61 223e 127c 69be
000000d0: c73c 7e3d 7fd2 8fbe 7974 8e3e 72e3 4f3e
000000e0: a518 ad3e f10e 763e fba6 ea3e 3f2f 7ebe
000000f0: 24d2 853d fba3 f1be b72f 193f 29f0 563d

layers.4.b_block.net.1.0.bias f4 [8]
-0.1720296 -0.08947638 -0.3612173 0.34141383 -0.42293212 -0.12928821 0.03343274 -0.18454269
00000000: 8728 30be 643f b7bd 79f1 b8be cbcd ae3e
00000010: 8f8a d8be 2164 04be c5f0 083d c2f8 3cbe

layers.4.b_block.net.2.0.weight f4 [8, 8]
0.3501556 0.23963347 -0.28364077 -0.28822193 0.20491114 -0.015819302 0.17660049 0.12330446
0.45736602 0.05036829 0.07937298 -0.24611439 0.41330388 0.22503659 -0.072617754 0.01208506
0.574284 0.5226566 -0.07554934 -1.0969075 -0.46496627 0.31027716 0.10398565 0.27495468
0.40178555 0.2774149 0.22539707 0.046667118 -0.25409868 0.3549513 -0.10068901 0.34800476
-0.047600493 -0.050765377 0.05395288 -0.24029568 -0.18782735 0.36722487 -0.015718365 0.07901664
-0.5517315 0.15082923 -0.41018644 0.21215798 -0.42047417 -0.4798518 -0.3755084 -1.03302
-0.26373228 0.16819043 0.09887825 -0.39739108 -0.17137909 0.26344174 -0.1440445 0.24288246
0.42490152 0.0071335114 0.14483006 -0.32825097 -0.35002476 0.1341125 0.101098716 0.21301654
00000000: 9847 b33e 7a62 753e 5d39 91be d391 93be
00000010: 3ad4 513e 7b97 81bc c2d6 343e 0c87 fc3d
00000020: e12b ea3e fb4e 4e3d 4d8e a23d 6905 7cbe
00000030: 919c d33e fe6f 663e 9eb8 94bd 6a00 463c
00000040: 4704 133f d3cc 053f 9db9 9abd 7767 8cbf
00000050: 0f10 eebe a6dc 9e3e 6ef6 d43d dcc6 8c3e
00000060: d6b6 cd3e 5309 8e3e 7dce 663e 0526 3f3d
00000070: 3919 82be 2dbc b53e 0a36 cebd ae2d b23e
00000080: bcf8 42bd 5bef 4fbd b2fd 5c3d 1210 76be
00000090: d055 40be e604 bc3e cdc3 80bc 7ad3 a13d
000000a0: 473e 0dbf fa72 1a3e f503 d2be f13f 593e
000000b0: 6448 d7be 23af f5be a342 c0be 003a 84bf
000000c0: eb07 87be 1d3a 2c3e ae80 ca3d d876 cbbe
000000d0: 007e 2fbe d6e1 863e 6780 13be 2eb6 783e
000000e0: b18c d93e 3bc0 e93b 554e 143e 8310 a8be
000000f0: 7236 b3be ca54 093e d80c cf3d 0221 5a3e

layers.4.b_block.net.2.0.bias f4 [8]
0.18490297 0.30933574 -0.09857836 0.08291119 0.4032376 0.21265373 0.20797634 0.30827415
00000000: 3457 3d3e 4161 9e3e 74e3 c9bd 58cd a93d
00000010: 2975 ce3e e6c1 593e c0f7 543e 1cd6 9d3e

layers.4.b_block.net.3.0.weight f4 [8, 8]
0.41562498 -0.08765864 0.6379997 0.16630685 0.33653265 -0.33438486 -0.08010399 -0.10900403
0.024445599 -0.1811438 -1.2845082 -0.0968948 0.16804004 0.5953925 0.23218483 0.0019328229
0.24212962 0.13908915 0.4942708 0.33177122 0.31841007 -0.58389956 0.20579594 0.25607067
0.40185174 0.060215753 0.43044057 0.12868245 0.039093748 -0.6750986 -0.05099714 -0.11181237
-0.2912011 0.10681871 -0.3031135 0.08998094 0.13708287 0.5550983 0.026959011 -0.15192823
-0.21444042 -0.23810244 0.40250298 -0.09337241 -0.026564166 -0.47103736 -0.11161504 -0.0065805013
0.2413861 -0.016940199 -0.2672093 -0.3898028 -0.34531805 0.48058644 0.19476944 0.24866284
0.112889655 0.14173335 -0.39483577 0.1741487 -0.40150076 -0.0002635427 -0.034484 -0.29170495
00000000: cccc d43e 6086 b3bd f353 233f 584c 2a3e
00000010: 024e ac3e 7e34 abbe 900d a4bd 813d dfbd
00000020: 2342 c83c c37d 39be c46a a4bf c870 c6bd
00000030: b012 2c3e a56b 183f dcc1 6d3e c656 fd3a
00000040: d4f0 773e 636d 0e3e 1011 fd3e ebdd a93e
00000050: a506 a33e 717a 15bf 2cbc 523e b21b 833e
00000060: 83bf cd3e cba4 763d b562 dc3e 55c5 033e
00000070: c420 203d 43d3 2cbf 61e2 50bd e2fd e4bd
00000080: 5018 95be c5c3 da3d b131 9bbe ed47 b83d
00000090: 745f 0c3e ec1a 0e3f 25d9 dc3c 1393 1bbe
000000a0: 4596 5bbe 20d1 73be df14 ce3e 093a bfbd
000000b0: 189d d9bc cf2b f1be 6d96 e4bd 3fa1 d7bb
000000c0: eb2d 773e 2cc6 8abc a8cf 88be 3c94 c7be
000000d0: 87cd b0be 6d0f f63e a471 473e 79a1 7e3e
000000e0: b132 e73d 8c22 113e ea27 cabe 0954 323e
000000f0: 8291 cdbe 1a2c 8ab9 183f 0dbd 5a5a 95be

layers.4.b_block.net.3.0.bias f4 [8]
0.060772855 0.3777045 0.049470235 0.36184868 -0.40008444 -0.3354034 -0.18251808 0.15853429
00000000: f5ec 783d 7c62 c13e 4da1 4a3d 3b44 b93e
00000010: ded7 ccbe ffb9 abbe 05e6 3abe d056 223e

layers.4.b_block.net.4.weight f4 [1, 8]
-0.26335666 0.30889243 -0.491448 -0.09291536 0.24217813 -0.07039073 0.067862555 0.03984399
00000000: afd6 86be 2627 9e3e 129f fbbe 694a bebd
00000010: 8bfd 773e 0429 90bd 86fb 8a3d 7433 233d

layers.6.s_block.net.0.0.weight f4 [8, 1]
-0.51883006 -0.94603795 -0.21072863 0.27172124 0.33487737 -0.7282416 0.77327144 0.71346897
00000000: 0cd2 04bf 8b2f 72bf 3fc9 57be 0c1f 8b3e
00000010: 0c75 ab3e 0b6e 3abf 1ef5 453f e7a5 363f

layers.6.s_block.net.0.0.bias f4 [8]
-0.66067183 -0.282894 -0.56847906 0.7718823 0.86710525 -0.7019595 -0.6794929 0.11576342
00000000: ca21 29bf 7bd7 90be d887 11bf 149a 453f
00000010: 9cfa 5d3f 9eb3 33bf 3ff3 2dbf 5f15 ed3d

layers.6.s_block.net.1.0.weight f4 [8, 8]
-0.093199536 0.092176415 0.1421534 0.20429735 0.06621214 -0.16680224 0.3893359 0.4444628
0.6356436 0.43075168 0.1847685 -0.38256326 -0.31194824 0.14492945 0.39906758 0.080973506
0.14649813 0.0892822 0.39430252 -0.30669492 0.10870773 0.124816306 -0.03238152 -0.12735935
0.2944574 -0.11371152 0.013523512 -0.016283186 0.0015053572 0.3455549 0.49126697 0.4212607
-0.26151806 -0.1608929 -0.2818721 0.17139743 0.26087016 0.28528613 -0.08662508 0.69452024
-0.07406522 -0.30426925 -0.15260625 -0.20366295 -0.27537146 0.06260028 -0.523881 -0.035147335
-0.34754252 0.14347407 0.13660158 -0.051923744 -0.25223213 -0.13620552 -0.6216869 0.19100982
0.1955308 0.3602771 0.6283632 0.30767575 0.29470873 -0.22465229 -0.083567485 0.1439674
00000000: 66df bebd fdc6 bc3d a990 113e 5333 513e
00000010: 3b9a 873d 35ce 2abe 0957 c73e a190 e33e
00000020: 8ab9 223f 7c8b dc3e f433 3d3e 55df c3be
00000030: aeb7 9fbe 6368 143e 9652 cc3e 70d5 a53d
00000040: 9b03 163e 96d9 b63d 05e2 c93e 1e07 9dbe
00000050: 29a2 de3d b19f ff3d 7ca2 04bd 7d6a 02be
00000060: 1fc3 963e 96e1 e8bd b891 5d3c 5164 85bc
00000070: 684f c53a 92ec b03e 5887 fb3e 7caf d73e
00000080: b2e5 85be 1cc1 24be 8a51 90be cf82 2f3e
00000090: c690 853e 0611 923e 7d68 b1bd 14cc 313f
000000a0: 82af 97bd 2ec9 9bbe d044 1cbe 058d 50be
000000b0: 7dfd 8cbe 9334 803d 111d 06bf a7f6 0fbd
000000c0: 18f1 b1be deea 123e 49e1 0b3e fead 54bd
000000d0: 9224 81be 7679 0bbe df26 1fbf 1498 433e
000000e0: 3a39 483e 3d76 b83e 69dc 203f ad87 9d3e
000000f0: 10e4 963e 400b 66be 6e25 abbd 316c 133e

layers.6.s_block.net.1.0.bias f4 [8]
-0.20628977 -0.13319671 0.22454703 -0.35696682 0.12329349 0.2467689 0.39217365 0.20316543
00000000: a03d 53be b864 08be a8ef 653e 5bc4 b6be
00000010: 4c81 fc3d fdb0 7c3e fcca c83e 990a 503e

layers.6.s_block.net.2.0.weight f4 [8, 8]
-0.5603098 0.3013675 0.1952563 -0.2656481 -0.4425425 0.22146343 0.1632137 0.08852637
-0.06108219 -0.48828992 -0.20625395 -0.5084927 0.3381074 0.13065085 0.11550305 0.10848394
-0.38979676 -0.8559117 -0.20357314 -0.69026595 -0.53032875 -0.15145989 0.09912815 -0.3474026
0.11099837 0.66929865 -0.006260971 0.7463539 0.09751759 -0.33650082 0.09570604 0.32260454
-0.48002252 -0.44988006 0.2693503 -0.5418689 -0.22004142 0.37371892 0.44839597 0.23159206
-0.022656487 -0.32230914 0.22741912 -0.5924517 0.018794885 0.17520313 0.33580226 -0.149789
0.014442321 -0.49007025 -0.35702378 -0.47042596 0.0025793216 0.27530864 0.16127473 0.31427777
0.031625163 0.30894414 -0.19011246 -0.037699226 0.087838255 0.13180064 -0.22692722 0.2789179
00000000: 7770 0fbf d74c 9a3e 44f1 473e 0703 88be
00000010: ee94 e2be 4fc7 623e 7e21 273e 504d b53d
00000020: 5231 7abd 2301 fabe 3c34 53be 942c 02bf
00000030: 6a1c ad3e 56c9 053e dd8c ec3d d42c de3d
00000040: 7193 c7be 071d 5bbf 7a75 50be 45b5 30bf
00000050: a0c3 07bf 4d18 1bbe b303 cb3d c1de b1be
00000060: 1d53 e33d 2857 2b3f d528 cdbb 0d11 3f3f
00000070: 4db7 c73d d649 acbe 8701 c43d 6c2c a53e
00000080: 83c5 f5be ae56 e6be 48e8 893e ecb7 0abf
00000090: 8a52 61be 1658 bf3e 2894 e53e 7826 6d3e
000000a0: 199a b9bc b405 a5be 8fe0 683e eaaa 17bf
000000b0: bbf7 993c 7368 333e 46ee ab3e 4a62 19be
000000c0: 7c9f 6c3c 7dea fabe d2cb b6be acdb f0be
000000d0: d609 293b 41f5 8c3e 3425 253e 04e9 a03e
000000e0: 6389 013d ed2d 9e3e d7ac 42be 816a 1abd
000000f0: 8be4 b33d bff6 063e 9c5f 68be 54ce 8e3e

layers.6.s_block.net.2.0.bias f4 [8]
0.1904024 0.10664106 -0.2956814 -0.3170493 0.3417702 -0.17833327 0.065273896 0.177435
00000000: d9f8 423e a166 da3d 8d63 97be 4954 a2be
00000010: 81fc ae3e ff9c 36be 52ae 853d 85b1 353e

layers.6.s_block.net.3.0.weight f4 [8, 8]
0.17139024 -0.5657238 -0.5198662 0.5304493 -0.45428133 -0.13168946 -0.07682833 -0.017422847
-0.705441 0.0784778 0.12603752 -1.0064713 0.4355029 0.2593258 -0.18840899 -0.070479356
-0.40391415 0.1249086 0.17231359 -0.15672478 -0.08191783 0.1358713 0.36852434 -0.1855442
-0.3806579 0.2309094 0.060610894 -0.61047184 0.24299446 0.06685304 0.123564966 -0.21055079
0.53760374 -0.09324113 -0.60703427 0.34612185 -0.32777682 -0.1324437 -0.41745734 0.08337075
0.33231676 -0.28155166 -0.43183511 0.6572766 0.046727415 -0.40273345 -0.5806464 -0.14945552
-0.18595181 0.21043877 -0.105567746 -0.41580346 -0.091385275 -0.24857348 -0.15721326 -0.26535964
0.4871592 -0.5084224 -0.032048326 0.25824073 0.085672475 -0.15747887 0.0006698143 0.10920915
00000000: ec80 2f3e 46d3 10bf f415 05bf 86cb 073f
00000010: 9097 e8be 9ad9 06be 2c58 9dbd 5cba 8ebc
00000020: c897 34bf f8b8 a03d fb0f 013e 0dd4 80bf
00000030: 3cfa de3e 5ac6 843e 49ee 40be 7b57 90bd
00000040: d6cd cebe 14d0 ff3d f972 303e 767c 20be
00000050: 89c4 a7bd d921 0b3e 39af bc3e 4cff 3dbe
00000060: 98e5 c2be 8473 6c3e 2143 783d e247 1cbf
00000070: 8ad3 783e 3fea 883d a10f fd3d a09a 57be
00000080: 66a0 093f 35f5 bebd 9966 1bbf e236 b13e
00000090: 5dd2 a7be 529f 07be f8bc d5be 49be aa3d
000000a0: 6c25 aa3e 8a27 90be 7e19 ddbe 4743 283f
000000b0: 3f65 3f3d 1433 cebe 3ea5 14bf de0a 19be
000000c0: 276a 3ebe 437d 573e e733 d8bd 31e4 d4be
000000d0: 3428 bbbd 0c8a 7ebe 83fc 20be 38dd 87be
000000e0: ee6c f93e f827 02bf 1b45 03bd 2138 843e
000000f0: 0d75 af3d 2442 21be 7a96 2f3a 0ca9 df3d

layers.6.s_block.net.3.0.bias f4 [8]
0.34032744 0.29179347 -0.01012049 0.20862755 0.1522758 -0.031886358 -0.055250976 0.121201195
00000000: 663f ae3e f465 953e 69d0 25bc 76a2 553e
00000010: 30ee 1b3e 459b 02bd d94e 62bd 5538 f83d

layers.6.s_block.net.4.weight f4 [1, 8]
-0.41387504 0.19934364 0.055770133 0.35071877 -0.5742969 -0.43596548 0.27455527 -0.31296372
00000000: 6ee7 d3be bd20 4c3e 396f 643d 6991 b33e
00000010: 1f05 13bf de36 dfbe 8292 8c3e c83c a0be

layers.6.b_block.net.0.0.weight f4 [8, 1]
0.592705 0.21523929 0.21006545 -0.20216596 0.6242008 -1.2327843 -0.7427519 -1.0195726
00000000: 84bb 173f b067 5c3e 661b 573e 9804 4fbe
00000010: a0cb 1f3f e0cb 9dbf fd24 3ebf 5b81 82bf

layers.6.b_block.net.0.0.bias f4 [8]
0.76099676 -0.7997397 0.373271 0.23864529 -0.9362119 0.431786 -0.7131026 0.65009296
00000000: afd0 423f bebb 4cbf 601d bf3e 6e5f 743e
00000010: 95ab 6fbf 0e13 dd3e e48d 36bf 7e6c 263f

layers.6.b_block.net.1.0.weight f4 [8, 8]
-0.8965047 0.19692785 -0.018664915 -0.27879244 -0.009179983 0.062073134 0.4426888 0.36645323
-0.31519777 -0.29082927 -0.11059652 -0.15275434 -0.41089422 -0.28879485 0.110419035 0.22516172
-1.2202072 -0.16160484 -0.24997634 0.08302686 -0.16390345 0.053567998 0.42976633 0.34707022
-0.17155603 0.08058409 0.22133054 0.044608388 0.38124093 0.068308964 0.58265305 0.15242924
-0.43161783 0.2795239 0.04774705 -0.24676827 0.11858971 -0.1092273 -0.35966352 0.26719725
0.07475776 -0.42430893 0.20296502 -0.30427417 -0.4154033 0.33224508 -1.235402 0.088022634
0.09772841 -0.29733348 0.36713728 0.067784324 0.047204465 -0.020105928 -0.08898242 0.2768879
-0.13098308 0.27913782 0.07759419 -0.07380469 0.40879077 0.12702592 -0.33480045 -0.13619232
00000000: 5581 65bf 74a7 493e 2ae7 98bc e2bd 8ebe
00000010: a467 16bc 6640 7e3d 1ba8 e23e c29f bb3e
00000020: 9a61 a1be 93e7 94be 6e80 e2bd a26b 1cbe
00000030: ba60 d2be ebdc 93be 6023 e23d cb90 663e
00000040: c02f 9cbf bd7b 25be ccf9 7fbe fd09 aa3d
00000050: 4ed6 27be 1e6a 5b3d 550a dc3e 30b3 b13e
00000060: 62ac 2fbe 4509 a53d 79a4 623e 49b7 363d
00000070: 0332 c33e 92e5 8b3d c028 153f 6916 1c3e
00000080: 03fd dcbe c21d 8f3e 6992 433d d2b0 7cbe
00000090: 29df f23d 90b2 dfbd d125 b8be 14ce 883e
000000a0: 991a 993d 053f d9be 10d6 4f3e d3c9 9bbe
000000b0: beaf d4be 071c aa3e a721 9ebf 3645 b43d
000000c0: d525 c83d 183c 98be 6bf9 bb3e 82d2 8a3d
000000d0: 7859 413d 30b5 a4bc 6a3c b6bd 40c4 8d3e
000000e0: 6e20 06be 27eb 8e3e b4e9 9e3d ea26 97bd
000000f0: 064d d13e 1513 023e f76a abbe 0076 0bbe

layers.6.b_block.net.1.0.bias f4 [8]
-0.4185922 0.0934532 -0.46845984 0.16925953 -0.14716932 0.4153619 0.3645619 -0.16436173
00000000: b851 d6be 6464 bf3d f8d9 efbe 5f52 2d3e
00000010: 8eb3 16be 51aa d43e dba7 ba3e 714e 28be

layers.6.b_block.net.2.0.weight f4 [8, 8]
0.05137752 -0.10852871 -0.14779109 0.12804572 -0.18758947 0.03454491 0.06937272 -0.3357498
0.31132835 -0.30033693 -0.29676342 0.11643407 0.15487486 0.101106584 0.24504817 -0.23276027
-1.2904401 0.23246318 -1.2623913 -0.25352913 -0.18314555 0.504271 0.2559214 0.07162585
0.010958472 0.28429088 -0.14902028 -0.1674604 -0.3160348 0.27926424 -0.20972663 0.043043453
-0.14068227 0.11637274 -0.31636125 0.13720834 0.17744341 0.18869926 -0.18194239 0.2608258
0.37373957 -0.28760493 0.40520546 0.09261224 -0.13974667 -0.05318533 -0.17790474 0.22068535
0.364545 -0.31560263 -0.13420604 0.004973574 -0.21995541 0.027572148 0.33190623 0.04095872
-0.40129462 -0.084191054 0.327722 -0.3428967 0.31557992 0.1236232 0.06524179 -0.20646909
00000000: 3c71 523d 4d44 debd 8c56 17be 6b1e 033e
00000010: 7417 40be f77e 0d3d 4913 8e3d 66e7 abbe
00000020: 6e66 9f3e c3c5 99be 60f1 97be fc74 ee3d
00000030: 8497 1e3e f810 cf3d e8ed 7a3e b558 6ebe
00000040: 242d a5bf d40a 6e3e 0a96 a1bf 92ce 81be
00000050: 828a 3bbe e717 013f 2108 833e 93b0 923d
00000060: 2a8b 333c 938e 913e c698 18be bd7a 2bbe
00000070: 50cf a1be b9fb 8e3e 94c2 56be 554e 303d
00000080: 030f 10be d554 ee3d 1afa a1be 5880 0c3e
00000090: bab3 353e 613a 413e 1b4f 3abe f68a 853e
000000a0: cb5a bf3e f440 93be 1777 cf3e 7cab bd3d
000000b0: c019 0fbe dcd8 59bd a92c 36be 57fb 613e
000000c0: a4a5 ba3e ab96 a1be 4f6d 09be 5df9 a23b
000000d0: fe3b 61be fcde e13c 9def a93e 55c4 273d
000000e0: 7d76 cdbe 5c6c acbd 2ecb a73e 2890 afbe
000000f0: b193 a13e 292e fd3d 7d9d 853d a26c 53be

layers.6.b_block.net.2.0.bias f4 [8]
-0.108313225 0.2463546 0.06982163 -0.21035042 0.37113494 0.12738816 -0.22219032 -0.00470892
00000000: 53d3 ddbd 6144 7c3e a5fe 8e3d 1a66 57be
00000010: 6605 be3e 0b72 023e dc85 63be 494d 9abb

layers.6.b_block.net.3.0.weight f4 [8, 8]
0.156873 0.24295495 -0.45153883 0.086884186 0.2519153 0.0652689 0.25409752 -0.11927496
-0.085312985 -0.1834352 -0.61039865 -0.073185205 -0.33693457 0.028249247 -0.20300826 0.19495748
0.01487932 0.06427475 0.745345 0.056020234 0.18742411 -0.108343475 0.016915374 0.17401905
0.0515526 0.25307372 0.8482654 0.17030486 0.20473245 -0.39844212 -0.3499326 -0.29644623
0.34948257 0.07690323 -0.091598615 0.41659236 -0.19381115 0.07863789 0.08263745 -0.059488203
-0.2643175 0.21026789 0.28775874 0.123668 -0.31059238 0.2685608 -0.12035093 0.249561
-0.028394403 -0.22246248 -0.84968317 -0.20982958 -0.1908028 0.17898494 -0.1071362 -0.2617494
-0.27393666 0.30694267 -0.74640065 -0.24708357 -0.05914877 0.32175907 -0.22413895 -0.04808304
00000000: 51a3 203e 2fc9 783e 1930 e7be 56f0 b13d
00000010: 0bfb 803e b3ab 853d 1219 823e 6e46 f4bd
00000020: 93b8 aebd 70d6 3bbe 1643 1cbf 20e2 95bd
00000030: b082 acbe f76a e73c 66e1 4fbe efa2 473e
00000040: 64c8 733c 7ba2 833d eece 3e3f 7975 653d
00000050: 1bec 3f3e 2fe3 ddbd 1c92 8a3c 0d32 323e
00000060: d228 533d e192 813e ec27 593f 6664 2e3e
00000070: 62a5 513e 9b00 ccbe 5e2a b3be cdc7 97be
00000080: 61ef b23e 717f 9d3d 0e98 bbbd 984b d53e
00000090: 6e76 46be e70c a13d d33d a93d e7a9 73bd
000000a0: a054 87be 7750 573e 1d55 933e a645 fd3d
000000b0: f705 9fbe cd80 893e 8c7a f6bd eb8c 7f3e
000000c0: 619b e8bc 34cd 63be d684 59bf 91dd 56be
000000d0: cf61 43be d447 373e 396a dbbd 0404 86be
000000e0: 6d41 8cbe 9727 9d3e 1d14 3fbf 7a03 7dbe
000000f0: fb45 72bd 9bbd a43e ae84 65be b9f2 44bd

layers.6.b_block.net.3.0.bias f4 [8]
-0.098316506 -0.17977773 -0.007950216 0.118256584 -0.1443842 -0.26379448 0.023465967 0.23682357
00000000: 2a5a c9bd a717 38be 9f41 02bc 8230 f23d
00000010: 74d9 13be 1210 87be b33b c03c e181 723e

layers.6.b_block.net.4.weight f4 [1, 8]
-0.29480952 -0.3897067 0.5064762 0.43520445 0.053221613 0.08246143 -0.18852577 -0.1739967
00000000: 46f1 96be a387 c7be 6da8 013f 1ed3 de3e
00000010: e8fe 593d 8ae1 a83d e60c 41be 312c 32be

layers.8.s_block.net.0.0.weight f4 [8, 1]
0.16381808 -0.14508578 -0.046378396 0.07229347 -0.6977315 0.251292 -0.912891 -1.0996575
00000000: edbf 273e 5e91 14be 46f7 3dbd 990e 943d
00000010: 889e 32bf 58a9 803e 39b3 69bf 94c1 8cbf

layers.8.s_block.net.0.0.bias f4 [8]
-0.31056353 0.33607748 0.30749273 -0.21346007 -0.4143774 0.92063046 -1.014044 0.7453653
00000000: 2f02 9fbe 5912 ac3e b06f 9d3e 4795 5abe
00000010: 4629 d4be 70ae 6b3f 32cc 81bf 43d0 3e3f

layers.8.s_block.net.1.0.weight f4 [8, 8]
-0.09260817 -0.07706338 0.19106351 0.059941504 -0.01104853 0.14610603 -0.206434 0.072068654
-0.055506393 -0.20344184 0.22817972 -0.13092363 -0.00553876 -0.08819917 0.20528898 0.110305786
0.14566955 0.21855281 0.030842245 -0.02201194 0.18876563 0.024981452 0.13848746 0.025551822
-0.44625118 -0.015738448 0.23963627 -0.37699398 0.16495699 0.38849702 0.11763821 -0.6463218
0.19111145 -0.21949124 0.1183646 -0.08809834 0.22541791 -0.14581421 0.07244386 -0.12940934
-0.119745776 -0.019288145 -0.27379042 0.2940975 0.3283036 -0.39509475 0.17520271 0.1573234
-0.02141235 0.24578197 -0.12066172 0.034726862 -0.13881846 0.28456068 -0.8157363 0.24443686
-0.36935535 -0.019432846 -0.13914898 -0.25030026 -0.002018373 -0.097629674 0.17081766 0.3806998
00000000: 5aa9 bdbd 68d3 9dbd 27a6 433e 3985 753d
00000010: e504 35bc d29c 153e 6f63 53be bb98 933d
00000020: ac5a 63bd 0f53 50be f2a7 693e d810 06be
00000030: 7d7e b5bb c4a1 b4bd 4637 523e 00e8 e13d
00000040: 662a 153e 4fcc 5f3e e0a8 fc3c 6252 b4bc
00000050: c74b 413e e7a5 cc3c a8cf 0d3e 0e52 d13c
00000060: 097b e4be ebed 80bc 3663 753e 5b05 c1be
00000070: 7cea 283e 15e9 c63e 4dec f03d 5875 25bf
00000080: b8b2 433e 50c2 60be 2469 f23d e76c b4bd
00000090: f4d3 663e 5250 15be 725d 943d e283 04be
000000a0: 463d f5bd 2c02 9ebc 422e 8cbe f393 963e
000000b0: 6917 a83e dc49 cabe 5768 333e 6319 213e
000000c0: f468 afbc 45ae 7b3e 7e1d f7bd c13d 0e3d
000000d0: 6d26 0ebe f0b1 913e 18d4 50bf a84d 7a3e
000000e0: 251c bdbe a231 9fbc 127d 0ebe 5b27 80be
000000f0: ae46 04bb 11f2 c7bd d3ea 2e3e 16eb c23e

layers.8.s_block.net.1.0.bias f4 [8]
0.23125187 -0.10113664 -0.11669529 -0.07413217 0.04079993 -0.054567467 0.2240796 -0.35971278
00000000: 4acd 6c3e ba20 cfbd f1fd eebd 9bd2 97bd
00000010: d41d 273d 2382 5fbd 1f75 653e 462c b8be

layers.8.s_block.net.2.0.weight f4 [8, 8]
-0.041322935 0.18093884 -0.05110163 0.5838959 0.17813016 0.3277687 -0.35809985 0.014532122
0.33974946 0.041980024 -0.057945978 -0.0761107 0.12697293 -0.27922523 0.03529862 -0.680479
0.14044146 0.32854074 0.31660673 0.047403038 0.17089672 0.15195292 0.018583177 0.27844918
0.36893272 0.10651282 -0.025078032 -0.6116506 0.108406134 -0.10925516 -0.09452423 0.015641855
-0.44897178 -0.13269617 0.15351608 0.39686668 0.4176127 0.18319976 0.15568547 0.05478013
0.032118022 -0.0930111 0.04088232 -0.44734895 -0.0483473 -0.15931053 0.47829023 -0.3801211
-0.06300705 -0.33745274 -0.079223074 0.10022875 0.12368248 -0.004673586 -0.060276758 -0.32571667
0.16111828 0.22323327 -0.19164608 -0.72461563 0.19703671 0.14410159 0.3917098 -0.44552857
00000000: 3d42 29bd 0848 393e f14f 51bd 347a 153f
00000010: c167 363e 4dd1 a73e dd58 b7be 2318 6e3c
00000020: a4f3 ad3e 3ff3 2b3d c358 6dbd eddf 9bbd
00000030: 3105 023e 9cf6 8ebe 4995 103d df33 2ebf
00000040: e3cf 0f3e 7e36 a83e 471a a23e b029 423d
00000050: 8dff 2e3e 8c99 1b3e bf3b 983c e490 8e3e
00000060: c0e4 bc3e 6523 da3d 7270 cdbc 2295 1cbf
00000070: 0904 de3d 2bc1 dfbd eb95 c1bd 5923 803c
00000080: a1df e5be 81e1 07be 5233 1d3e 1c32 cb3e
00000090: 55d1 d53e b898 3b3e 036c 1f3e 2161 603d
000000a0: 308e 033d 9b7c bebd 3874 273d ec0a e5be
000000b0: d207 46bd 4d22 23be 75e2 f43e 3c9f c2be
000000c0: d709 81bd 9bc6 acbe b53f a2bd bb44 cd3d
000000d0: 3d4d fd3d e224 99bb c3e4 76bd 56c4 a6be
000000e0: 31fc 243e 4397 643e df3e 44be 6980 39bf
000000f0: fec3 493e 5e8f 133e 308e c83e 521c e4be

layers.8.s_block.net.2.0.bias f4 [8]
0.25073743 -0.21030499 -0.34875637 0.29109627 -0.3528208 0.395561 -0.10957153 0.38732618
00000000: a860 803e 315a 57be 3290 b2be 920a 953e
00000010: eea4 b4be f986 ca3e 0a67 e0bd 9e4f c63e
