models/normalizing_flow_epoch_17.pth (torch, 150970 bytes, 270 tensors)

layers.0.s_block.net.0.0.weight f4 [8, 1]
000000 2c e5 2d 3e c2 09 80 bf 7f 80 18 bf 57 d1 ca 3e
       0.16981953 -1.0002978 -0.5957107 0.3961284
000010 71 22 10 3f 83 b3 a4 bf 40 ac 88 bf 85 57 d9 be
       0.56302553 -1.2867283 -1.0677567 -0.42449585

layers.0.s_block.net.0.0.bias f4 [8]
000000 34 43 e1 be cf 58 16 be 24 0e 36 bf bb 2b 14 3f
       -0.43996584 -0.14682315 -0.71115327 0.5787923
000010 c2 eb 83 bf f7 5a 85 3e a8 bc 44 be 07 8b 88 3f
       -1.0306323 0.26045963 -0.19212592 1.0667428

layers.0.s_block.net.1.0.weight f4 [8, 8]
000000 f2 2d 08 bd ee 49 fd 3e 88 00 7d 3e d5 4c c8 be
       -0.033246942 0.49470466 0.24707234 -0.39121118
000010 99 be 97 be be 9e 9c 3e 25 53 de 3e cd 2e 88 3d
       -0.29637602 0.3058986 0.4342281 0.066495515
000020 83 fb 23 3f 14 56 00 be a8 7b dd bd 02 bf 16 3e
       0.6405565 -0.12532836 -0.10814601 0.14721301
000030 59 9d be 3e 15 8d 62 be 38 f9 9c 3e 63 ac 3c be
       0.37229422 -0.22124131 0.3065889 -0.18425135
000040 60 2b de 3e 1d 28 4e be 72 cc d1 bd 03 15 c0 be
       0.43392467 -0.2013249 -0.10244073 -0.3751603
000050 49 d0 8f 3e a7 0e 93 3e 4f 52 1c bd fc eb ce bc
       0.28088596 0.28722116 -0.038164433 -0.02525901
000060 f8 cf 37 3d 64 03 cf bf 9d 8d ee bd 8c ec 58 bd
       0.04487607 -1.617291 -0.11648104 -0.052959964
000070 3d 1b 77 be ee 7e 0c 3e 95 53 2f bf 21 9f 98 3e
       -0.24131484 0.13720295 -0.6848691 0.29808906
000080 9b 73 3a 3e cb 17 96 39 4d 88 c8 bd 5e f5 fa 3d
       0.18208162 0.00028627957 -0.09791622 0.12253831
000090 66 62 db 3e 5b 19 a2 3d 15 7d 81 3e c0 44 83 be
       0.4284851 0.079149924 0.25290743 -0.2563839
0000a0 31 f3 c6 3e ca ba 94 be 11 4c ee be f4 10 e3 3d
       0.38857415 -0.2904876 -0.4654241 0.11087218
0000b0 57 4c 2a 3f dd 24 c6 3e 0d ea bf 3e 59 94 a0 be
       0.66522735 0.387 0.37483254 -0.3136318
0000c0 43 ab d2 bd de 5c 6c be 00 2b 30 bf 1d 74 d4 be
       -0.10286572 -0.23082301 -0.6881561 -0.41494837
0000d0 1d 7e da be 04 c0 26 3f 22 44 a0 3e c3 fe 05 3f
       -0.42674342 0.6513674 0.3130198 0.5234186
0000e0 14 9b e5 3e ad e6 a2 be 4a b1 04 bf fc d7 84 be
       0.44844878 -0.31816617 -0.5183302 -0.25946033
0000f0 f3 cb 31 bd 6f d9 61 3e 8a a9 35 be 87 b7 36 be
       -0.04340739 0.220556 -0.17740455 -0.17843448

layers.0.s_block.net.1.0.bias f4 [8]
000000 21 a3 2a 3d 2a eb d0 be 50 5a c4 be be e0 c5 3d
       0.041659478 -0.40804416 -0.38350153 0.09662007
000010 6f cc b9 be 43 05 e4 be 12 2c 91 be 9f 4b bb bc
       -0.36288783 -0.44535264 -0.28353935 -0.022863207

layers.0.s_block.net.2.0.weight f4 [8, 8]
000000 81 9a 8d bf 87 a1 81 be 69 d2 06 3f 6e 34 68 3f
       -1.1062776 -0.25318548 0.5266481 0.90705
000010 fc be e3 3b 89 d6 e3 3d e7 7c fc 3e 46 ff e5 3e
       0.0069502573 0.11124904 0.49314043 0.4492132
000020 af 0d 0c 3f 5a 30 2e 3e 08 97 86 bc 21 93 9c bd
       0.5470838 0.17010632 -0.01642944 -0.0764525
000030 e2 50 b5 bc 60 ad 9d 3e bd 7e f0 3e af 70 b0 be
       -0.022133294 0.30796337 0.46971694 -0.3446097
000040 f0 20 97 be 77 cd 47 bf 81 1a 56 be 57 8b 59 3f
       -0.29517317 -0.7804789 -0.20908548 0.8497824
000050 3c 70 c5 be 90 0f f9 be bc b3 d8 3c 2b 49 98 3e
       -0.3856219 -0.48644686 0.026452892 0.29743323
000060 57 37 64 be 5d 12 62 be 0f 64 3e 3f 54 4a 69 3e
       -0.22286735 -0.22077318 0.7437143 0.2278226
000070 db d0 c5 be 22 53 c2 bd 71 e0 54 3e 9b f7 40 3e
       -0.38635907 -0.094885126 0.20788743 0.18844454
000080 c3 4a 2c 3e d5 d3 6b be 76 80 07 bf 6f 03 55 bf
       0.16825394 -0.23030026 -0.5293039 -0.83208364
000090 e8 27 e4 be 08 68 89 bf dc ff 1a be 79 01 c4 be
       -0.44561696 -1.0734873 -0.15136665 -0.38282374
0000a0 69 91 11 3f ea 62 8d bd a0 21 71 bf d8 8b 82 bf
       0.56862503 -0.06903632 -0.9419193 -1.0198927
0000b0 c5 c5 d5 be 61 cc fc be 58 4d 01 bd f8 82 29 be
       -0.4175245 -0.4937468 -0.0315679 -0.16553867
0000c0 81 44 ae 3d d3 5f b1 be f8 97 92 be 14 0e e3 be
       0.0850916 -0.3464342 -0.28631568 -0.44346678
0000d0 04 c3 14 bf 6c ed 55 bf c2 79 87 bf 5b 74 c0 be
       -0.5811007 -0.835654 -1.0584033 -0.37588772
0000e0 e6 f1 99 3e 86 89 69 bf 0d 93 cc bd c5 02 3f bf
       0.30067366 -0.9122547 -0.09988985 -0.746136
0000f0 71 98 a4 bd c3 cd 61 bf df 03 05 3d 88 37 c5 be
       -0.080368884 -0.8820459 0.032474395 -0.3851893

layers.0.s_block.net.2.0.bias f4 [8]
000000 87 a2 ca 3b 2e cb f0 be 1a 06 40 3f 57 31 cf be
       0.0061839256 -0.47030014 0.7500931 -0.4046733
000010 44 30 cb 3e f8 90 80 3e 0f 2f d4 3e 38 06 bc 3e
       0.3968526 0.25110602 0.41442153 0.36723495

layers.0.s_block.net.3.0.weight f4 [8, 8]
000000 df 4c 93 39 8d d6 be 3e de 8c 01 bf 9d dd 85 3e
       0.00028095298 0.37273064 -0.5060557 0.2614564
000010 f1 f2 ab be 0a 2c 2b be 0f 5f 6a bf 78 9b 14 bf
       -0.33583787 -0.16716018 -0.915513 -0.58049726
000020 ab 81 84 3d df 5d a9 bd 26 67 1c 3f 42 a2 8b 3e
       0.06470045 -0.082698576 0.6109489 0.2727223
000030 06 f9 d3 be d8 6b c9 bf 06 25 1a be 4e 0b f1 be
       -0.41400927 -1.5736036 -0.15053186 -0.47078937
000040 ed 53 25 bf e8 d6 18 bf 1d 5f 70 3d ed 28 05 bf
       -0.64581186 -0.5970292 0.058684457 -0.5201557
000050 23 f9 a5 3e 67 62 39 3d 27 67 5c 3f 62 2f 10 3f
       0.3241664 0.04525986 0.860949 0.563223
000060 b4 2c 1d 3f d4 f5 2e bd 1f 88 b6 3d 77 3b 1c 3f
       0.61396337 -0.04271491 0.08912682 0.61028236
000070 7d d2 59 bf 04 8e ad be c4 1f ac bf c0 f7 12 bf
       -0.85086805 -0.33897412 -1.3447194 -0.57409286
000080 08 f8 2d bf 90 7b 3f bf 17 8c fd 3e 13 52 cf be
       -0.6795659 -0.74797916 0.49520943 -0.40492305
000090 df 6c 8e 3e 7c 52 86 3e 6f ec cf 3e a9 1c 5e 3e
       0.27817437 0.26234806 0.40610072 0.2169062
0000a0 ef 9d 4b 3e ac 1c ac 3e 30 9e f4 bd 37 6e 0a 3f
       0.19884466 0.33615625 -0.11944234 0.54074425
0000b0 30 1c fb be a1 e0 cb be b0 f4 ea be 9a 0b 36 bf
       -0.49044943 -0.39819816 -0.45889807 -0.7111145
0000c0 d1 2f c4 bd d4 f5 23 3f 2f 1c a3 be f5 9f 70 3e
       -0.09579433 0.6404698 -0.3185744 0.23498519
0000d0 30 46 8b bc 20 aa e1 be 02 55 c0 be c2 6a 0d bf
       -0.017001241 -0.44075108 -0.37564856 -0.55241024
0000e0 76 69 8b be d2 4d 06 3f 87 0d 93 bf 9d bb bc 3d
       -0.27228898 0.52462494 -1.1488503 0.09215472
0000f0 aa 7e 34 be 63 6e 15 3e 09 53 d8 3e b4 45 fa 3b
       -0.17626444 0.1459289 0.4225085 0.007637704

layers.0.s_block.net.3.0.bias f4 [8]
000000 11 72 0c bf 08 fb 90 3e bc 45 f5 3e cb cf 15 bd
       -0.5486155 0.28316522 0.47904766 -0.03657512
000010 e0 1b b5 3e 06 76 cd be 8d 98 f2 be 8e d5 c0 be
       0.3537283 -0.40129107 -0.47382012 -0.3766293

layers.0.s_block.net.4.weight f4 [1, 8]
000000 f8 e1 c1 3e 17 35 ed 3e 43 f4 1b bf b0 e2 55 3f
       0.37867713 0.46329567 -0.6091959 0.8354902
000010 11 d0 f9 be f0 cc 35 3f c5 1e de 3e 6c 73 05 bf
       -0.48791555 0.71015835 0.4338285 -0.52129245

layers.0.b_block.net.0.0.weight f4 [8, 1]
000000 e1 b7 a9 3e 98 fa 0d 3f 31 49 9b 3e b5 76 5e be
       0.331481 0.554605 0.30329278 -0.2172497
000010 74 36 90 bf 8c 70 21 bf 37 b2 d4 bf db c0 73 3f
       -1.1266618 -0.6306236 -1.6616887 0.9521615

layers.0.b_block.net.0.0.bias f4 [8]
000000 da 57 25 3f fc 99 02 3f 59 1e b0 3e 34 26 d5 3e
       0.64587176 0.5101621 0.34398153 0.4163071
000010 a7 9c 36 bf ed 8d 16 3f 9d 59 3d 3f 5b de 00 bf
       -0.7133278 0.5881031 0.73964864 -0.5033929

layers.0.b_block.net.1.0.weight f4 [8, 8]
000000 02 38 c7 be 54 c3 11 be 3c 1e ab be 62 bc a8 be
       -0.38909918 -0.14234668 -0.33421504 -0.32956225
000010 ea b0 4f bf 12 4f 5b 3e 8c 5a f5 be c5 ca ba 3d
       -0.81129324 0.21416882 -0.47920644 0.091207065
000020 8e 6f d0 bc 8c b1 7f 3d 12 ba c5 3e 71 d9 90 be
       -0.025443818 0.06242518 0.38618523 -0.28290895
000030 f8 ad bc bd a7 85 55 bf 4a e0 8c be 4e f9 ab 3e
       -0.092128694 -0.8340706 -0.2751487 0.33588642
000040 f4 0f 4e 3e 7a 88 82 bd 66 95 71 be 8f 67 90 bc
       0.20123273 -0.06373687 -0.23592147 -0.017627506
000050 95 c7 ee be 0d a6 b5 be 67 43 10 3f 3b b3 89 3e
       -0.46636644 -0.3547825 0.5635285 0.26894554
000060 ae a8 91 be 1d d4 56 bd c1 7d 3a 3e 21 4f 00 bf
       -0.28449005 -0.05244838 0.18212034 -0.5012074
000070 f2 d4 26 bf a7 ac ac be 18 a0 d0 bd ea f7 c0 3e
       -0.6516868 -0.33725473 -0.101867855 0.37689143
000080 ca 64 73 be 20 ba e7 bf 2a 31 35 bf e9 d7 7b 3e
       -0.23768917 -1.8103676 -0.70778143 0.24594082
000090 ab 8e 78 3f 3b 9e 45 be 3e 6d db 3e 98 74 f6 be
       0.97092694 -0.19298641 0.42856783 -0.4813583
0000a0 88 dd c0 3d b8 4a 98 bd 4f 5b 86 be a5 1b c9 be
       0.09417254 -0.074361265 -0.26241538 -0.39278904
0000b0 61 54 ca 3e 0a df df be f0 f6 6b 3e 7b 86 c0 3e
       0.395175 -0.43724853 0.23043418 0.376026
0000c0 fb 3a c6 3e 9f 8b f3 bc d6 73 a7 3e a2 b5 78 3e
       0.38716874 -0.029729662 0.32705563 0.24288037
0000d0 3e 29 a7 be 9f 16 85 3e 1c 1a 4a bf 26 a6 18 bf
       -0.32648653 0.2599382 -0.7894609 -0.5962852
0000e0 6f 98 16 3e 60 43 8e bf 1c 63 a5 be 8f 82 b2 3e
       0.14706586 -1.1114311 -0.32302177 0.34865233
0000f0 6e 14 89 bf bf f8 0d 3e 39 b7 b1 3e 3e 15 3f be
       -1.070936 0.1386442 0.347101 -0.18660447

layers.0.b_block.net.1.0.bias f4 [8]
000000 d5 6c 03 bd 5a c0 b3 3d 38 28 cc 3e 74 56 66 be
       -0.032086212 0.087769225 0.39874434 -0.22493917
000010 a3 f6 ec be 99 6c 06 bf 2b 27 20 be d6 08 af 3d
       -0.4628192 -0.52509457 -0.15639941 0.08546607

layers.0.b_block.net.2.0.weight f4 [8, 8]
000000 a3 49 74 3e ea a1 d2 3e ed 03 84 be 15 cc f8 3e
       0.23856215 0.41139156 -0.25784245 0.48593202
000010 02 7f 06 bd e3 bf 02 3f f5 96 0e bf 2c 9b 83 bf
       -0.032835968 0.51074046 -0.5569909 -1.028173
000020 da 49 ce be c9 bf da 3e b7 11 e3 3e a5 e7 4b bc
       -0.4029072 0.42724445 0.44349453 -0.012445365
000030 32 6e 1c bf 15 6c a1 bd 21 6c 16 bf 52 9e a9 3e
       -0.61105645 -0.07881943 -0.5875874 0.331286
000040 c0 66 2c be 66 58 12 3f 53 95 06 3f a4 b4 33 bd
       -0.16836071 0.57166135 0.525716 -0.043873444
000050 f2 16 61 be 74 65 36 be 7a 2a 0e bf 00 03 11 be
       -0.21981409 -0.17812139 -0.55533564 -0.141613
000060 51 67 97 bd 1e cd 3a be 08 b1 a7 3c a3 98 04 3e
       -0.07392753 -0.18242308 0.020470157 0.12948851
000070 73 e8 fe be 93 34 7b 3f ed 21 27 3e a1 61 99 be
       -0.4978672 0.98127097 0.16321535 -0.29957297
000080 6f e7 22 be bc d9 cf 3e a1 8f 97 3d f8 8f 9a be
       -0.15908597 0.40595806 0.07400442 -0.30187964
000090 b6 40 21 bf d8 d3 ba be d8 14 3b bf 2b c5 6f be
       -0.62989366 -0.3648975 -0.7307868 -0.23415057
0000a0 1e 16 c0 3e ea c1 36 bf db 90 a0 3c ec 3b 0d 3f
       0.37516874 -0.7138964 0.019600322 0.5516956
0000b0 6c e1 44 bf ef 17 ed 3e 56 c3 0e 3f 01 2f 2d 3f
       -0.76906466 0.46307322 0.5576681 0.6764985
0000c0 30 69 cb be 87 f2 a6 3d d9 2f 6b 3e 77 86 25 be
       -0.3972869 0.08151727 0.22967471 -0.16164576
0000d0 d5 5e a1 3e 9d 7d 37 3f 9a 3c 3b 3f e2 33 19 be
       0.31517664 0.71676046 0.73139346 -0.14961198
0000e0 eb 77 a8 3e b1 58 b0 3e 4b 75 9d 3b 5c af c1 3e
       0.3290399 0.34442666 0.004805242 0.378291
0000f0 d2 22 48 bf 8a 65 01 3f fc bc be 3e a8 50 56 3f
       -0.7817813 0.5054556 0.3725356 0.8371682

layers.0.b_block.net.2.0.bias f4 [8]
000000 c0 dd 05 bf dd b8 4c 3d da 14 81 3d 55 48 b5 be
       -0.5229149 0.049980987 0.06302805 -0.35406747
000010 bb eb 9a 3e 27 cb 07 bd 00 f6 39 bd 8e 6b 23 bd
       0.30257973 -0.033152726 -0.04540062 -0.039897494

layers.0.b_block.net.3.0.weight f4 [8, 8]
000000 fc ce 89 bd ee eb da be 5c 81 34 bf 96 bd dc 3d
       -0.06728932 -0.42758125 -0.70509887 0.10778348
000010 e4 68 a2 be a1 c8 24 3f e2 46 e0 3d 8a 42 79 3e
       -0.3172065 0.64368635 0.1095102 0.24341789
000020 f6 7c 74 bf f3 46 4e bd 63 1d ae 3e 56 1c bf be
       -0.95503175 -0.05036063 0.34006795 -0.37326306
000030 de 91 00 3f c5 05 a8 bf 2a 74 e7 be 57 8b a1 bf
       0.50222576 -1.3126761 -0.45205814 -1.2620648
000040 13 56 3b be 8f 6b 38 bf bf 18 0a be 87 eb 79 be
       -0.18294553 -0.7203912 -0.13486002 -0.24406253
000050 0d 9f 4d be 80 03 0b 3e b6 42 17 be 2d 6c bb bc
       -0.20080204 0.13575554 -0.14771542 -0.02287873
000060 c8 96 89 3e 98 23 25 3e f8 2f 28 3f 71 12 be 3d
       0.2687285 0.16126859 0.65698195 0.09280861
000070 42 65 86 3e 41 d8 ae 3d e5 8d 1d bf c7 85 7e be
       0.2624913 0.08537341 -0.6154464 -0.2485572
000080 86 fd 11 bf f1 49 2c 3f 46 89 38 3f 7a fa 21 be
       -0.5702747 0.67300326 0.7208446 -0.15818205
000090 b3 08 01 3f 75 9b 56 be 26 12 fd be 01 cf 68 3e
       0.504039 -0.2095774 -0.4942791 0.22735216
0000a0 2c 7a 47 3e 2d 9f 74 3e 40 35 fb 3d 86 76 35 3d
       0.19480199 0.23888846 0.12266016 0.044302486
0000b0 02 5f 65 be 5a 05 30 be 81 06 98 be 31 7e a4 be
       -0.22399524 -0.17189541 -0.29692462 -0.32127526
0000c0 b4 ab 2f be 9e 2f ce be 6a 7e 0e 3e 9f 9c 6c 3e
       -0.17155343 -0.40270704 0.1391541 0.23106621
0000d0 53 c8 c9 3d a1 7a 94 3d 14 36 6a 3e 5c bd a3 3e
       0.09852662 0.07249952 0.22872192 0.31980407
0000e0 9a b3 b7 bd db 9a 76 3e ad d5 bd bc 56 1a 03 3f
       -0.08969803 0.2408251 -0.023173178 0.5121206
0000f0 12 04 c6 bc 39 c7 bf 3c a2 a1 f1 be a5 e2 01 3c
       -0.024171863 0.023410426 -0.4719363 0.007927571

layers.0.b_block.net.3.0.bias f4 [8]
000000 26 a9 8f be 3a c8 fd 3e 3c ce 48 be 69 f6 55 3e
       -0.28058738 0.49566823 -0.19609922 0.2089478
000010 45 b4 29 3e 7a 32 ef be bc cd 30 3e 55 9f 37 be
       0.16572674 -0.46718198 0.17265981 -0.17931874

layers.0.b_block.net.4.weight f4 [1, 8]
000000 69 a8 2f 3f 4c 2d 46 bf 2c 3e 4f 3e 74 75 73 bd
       0.6861635 -0.7741287 0.2023856 -0.059438184
000010 5a a0 ef be 29 60 6e be 28 ad d0 3e a2 59 13 3e
       -0.46802026 -0.2327887 0.40757108 0.14389661

layers.2.s_block.net.0.0.weight f4 [8, 1]
000000 db 57 91 3f c5 93 e0 bd 4f 86 72 3f a3 3b d3 3e
       1.1354936 -0.10965685 0.9473619 0.41256437
000010 06 63 da 3d 14 43 6f bf 47 e9 42 bf 0e 7e 6f 3f
       0.106634185 -0.9346173 -0.761372 0.9355172

layers.2.s_block.net.0.0.bias f4 [8]
000000 35 bc d5 be 96 54 d5 be 32 b1 2e bd 72 b3 5e 3f
       -0.41745153 -0.41666096 -0.042649455 0.8699256
000010 1b 0e 9a bf e4 d2 a1 3e 73 5d 8b bf 6c ae 8e 3f
       -1.2035555 0.3160621 -1.0887893 1.1146979

layers.2.s_block.net.1.0.weight f4 [8, 8]
000000 52 64 00 be 93 21 e1 bd 92 89 62 3e 91 a9 94 3e
       -0.12538269 -0.10992732 0.22122791 0.2903562
000010 0e 48 d9 3d 44 3c 09 3f 53 fa 2b bf 0e 49 bb be
       0.106094465 0.53607583 -0.6717884 -0.36579174
000020 18 3d f3 3e f0 12 85 bc 45 43 c2 3e e3 28 70 bc
       0.47507548 -0.016244382 0.37941948 -0.014658186
000030 45 96 6b 3e 77 3d b4 3e b2 f4 d1 be f0 07 62 bf
       0.23006542 0.35203144 -0.41007 -0.8829336
000040 b0 2c 35 3f 21 16 aa 3d b0 1f 09 be 34 99 81 be
       0.7077131 0.08305002 -0.13390994 -0.25312197
000050 63 05 02 3e d3 df 86 3c fe 5c 01 3e a0 43 d6 be
       0.12697367 0.01646415 0.1263313 -0.4184847
000060 f0 bd 31 bf b2 00 c1 3e 49 a2 04 bf 00 ee 91 bc
       -0.69430447 0.37695843 -0.5181013 -0.017813683
000070 4c 54 d3 be ab 9c 89 be d4 2d 41 3f 41 97 c0 bd
       -0.4127525 -0.2687734 0.75460553 -0.094038494
000080 3e 31 7c 3c d3 16 f1 3c 5b 3c d8 3e f1 c5 65 be
       0.0153926 0.029429829 0.42233548 -0.2243879
000090 1a ec db 3e f9 31 63 3e fb d6 65 3b db 12 2c 3d
       0.4295357 0.22187032 0.0035070765 0.04201017
0000a0 73 53 08 be 04 57 f0 bd 50 d3 dc 3d 4b 6c 7e be
       -0.13313083 -0.11735347 0.10782492 -0.24845998
0000b0 70 4d ae bd a7 a2 2f be 28 96 90 3e 74 8d 3c bd
       -0.08510864 -0.1715189 0.2823956 -0.046033338
0000c0 56 8c 3f 3f ac 96 02 3f f7 c0 06 3f 47 8b ef 3d
       0.7482351 0.5101116 0.5263819 0.11696487
0000d0 58 e2 0b 3f e0 dc 04 3f 77 85 f6 be 5b d2 89 3c
       0.5464225 0.5189953 -0.481487 0.016823938
0000e0 2c b3 69 be 84 d0 15 be 13 4b ac be 41 2c 8a 3e
       -0.22822255 -0.14630324 -0.33651027 0.26986888
0000f0 bd 1e 3a bf de 76 5a 3e 47 4f 1d bd 30 41 cb 3e
       -0.7270315 0.21334407 -0.038405683 0.39698172

layers.2.s_block.net.1.0.bias f4 [8]
000000 1a 91 15 3e 18 a7 9f be b0 39 17 3e 16 f5 25 3e
       0.14606133 -0.3118217 0.147681 0.16206774
000010 b3 1d 2c bf 41 e7 ee 3d db 83 05 be cc db 16 3f
       -0.6723282 0.11665202 -0.1303858 0.58929133

layers.2.s_block.net.2.0.weight f4 [8, 8]
000000 dc 3d 12 be 0b c3 c3 3e 4e 62 31 be 1b 86 f7 3c
       -0.1428141 0.38234743 -0.17322657 0.030215314
000010 b6 17 59 3e 30 23 8a 3e b9 dd 5e 3e a2 5d 27 bf
       0.21200451 0.2697997 0.21764268 -0.6537725
000020 26 3c 8a 3e 4d 4b 0f 3f 3b b3 af 3e 27 40 86 3d
       0.26999015 0.55974275 0.3431643 0.06555205
000030 0a 0e c3 be 23 f5 67 3d 4c d8 07 3f 38 5a 9c be
       -0.38096648 0.056630265 0.5306442 -0.3053758
000040 ec 47 28 be 81 0f 57 3f 46 37 5a 3d 46 d8 07 bf
       -0.16433686 0.8400803 0.05327537 -0.5306438
000050 bf 43 7f 3d 04 8e f2 bd 39 48 9a be 41 af 52 3e
       0.062320467 -0.118434936 -0.30133227 0.20574667
000060 00 5d 58 3d 9f aa 84 bf 03 22 ef bb fd 82 8c be
       0.052823067 -1.036457 -0.0072977557 -0.27443686
000070 ae d4 90 bf cc eb 90 3d d1 75 00 3f 4c cc 9f 3d
       -1.1314905 0.07076225 0.50179774 0.078026384
000080 c8 bb ba 3e 3f f6 62 3f b0 e5 0b 3e 90 5a 15 bf
       0.3647139 0.8865699 0.13661838 -0.5834131
000090 16 00 22 3f f7 b4 a9 be 7b 33 bf 3d 80 f1 ca be
       0.6328138 -0.33145878 0.09335991 -0.39637375
0000a0 3d 9f 8e be 7a ed dc 3e ad 39 d0 3d c5 c5 8f 3d
       -0.27855864 0.4314993 0.10167251 0.070201434
0000b0 b4 cf 3e 3f 17 c7 21 bb e6 ad e0 3d 03 d8 93 bf
       0.7453568 -0.0024685317 0.109706685 -1.1550297
0000c0 e4 c9 80 be 15 4c 8a be ef 2d 05 be 58 c0 a4 3e
       -0.2515403 -0.2701117 -0.13005804 0.32177997
0000d0 bd 69 13 3f 5b 33 0d 3d 41 ed cb be 1a e6 e0 bd
       0.5758322 0.034472805 -0.39829448 -0.109813884
0000e0 8d 59 12 3d 15 3f 91 3e 5c 64 dc bc 16 76 c1 3d
       0.035729934 0.2836844 -0.026903324 0.09446351
0000f0 e4 49 d6 3d 59 74 64 3e 77 0c 63 be fd 66 e0 bd
       0.10463312 0.22310008 -0.22172724 -0.109571435

layers.2.s_block.net.2.0.bias f4 [8]
000000 0a 9c 19 be 19 40 9c 3e bf 14 94 3e 5e 94 59 3d
       -0.1500093 0.30517653 0.28922078 0.05312001
000010 ce cd 4a 3c a5 a6 9a be 7c 19 59 3d cd cd 28 be
       0.012378169 -0.30205265 0.05300282 -0.16484757

layers.2.s_block.net.3.0.weight f4 [8, 8]
000000 06 07 8f be 00 93 7a 3e d6 5e 09 3e 20 3e d1 be
       -0.27935046 0.24470139 0.13415083 -0.4086771
000010 f8 8d 18 3f f0 c2 88 bf cb da 24 3e e2 4d c8 3c
       0.5959163 -1.068449 0.16099088 0.0244512
000020 7c 59 8a be 6d 3e 56 bd 60 c1 5c be b6 45 c7 3e
       -0.27021396 -0.052305628 -0.21558142 0.38920373
000030 3d ea 28 be e9 c7 7f 3e 5e b3 b5 be 18 b3 17 be
       -0.16495605 0.24978603 -0.3548841 -0.14814413
000040 ec 95 a8 bd 7a f0 f3 be 65 97 db 3e 3a c6 0e bf
       -0.0823172 -0.47644407 0.42888942 -0.5577122
000050 45 2c b7 3d ff 34 3a be 88 be 96 3e f5 9e 97 be
       0.089439906 -0.18184279 0.2944224 -0.29613462
000060 e8 14 95 3e 6d 4a 53 be cf 4e b2 bc 4e 5c a6 be
       0.29117513 -0.2063386 -0.021766094 -0.32492298
000070 46 87 a9 3e 4f 8e 75 3f 0a de 03 3f 9f 29 89 3e
       0.33111018 0.9592027 0.5151068 0.26789567
000080 66 22 e9 be 10 95 ef 3d 93 7d fd 3d 2c 84 7c 3f
       -0.45534056 0.11698353 0.12377467 0.9863918
000090 49 45 16 bf b1 d7 80 be 55 ab 97 3e aa b8 33 be
       -0.5869947 -0.2516456 0.29622903 -0.17550912
0000a0 61 e2 76 3e 85 fd ac bd c0 0a d3 3e 30 0d 15 bf
       0.24109794 -0.084467925 0.4121914 -0.5822325
0000b0 c2 ec b0 3e 86 49 07 bf de dc 98 bd 0d 81 ac 3e
       0.34555632 -0.5284656 -0.07464002 0.33692208
0000c0 ed 83 97 bd 4f ce 90 3e 20 ec 75 3e dc ad dc bd
       -0.0739821 0.282824 0.24015856 -0.107753485
0000d0 cb f3 27 3f 82 f3 81 bf 8d 46 c5 be bd c6 7e bc
       0.65606374 -1.0152438 -0.38530388 -0.015550313
0000e0 47 4c a2 3d 61 a9 23 3d d6 28 a9 bd 68 3b c3 3e
       0.07924705 0.039956454 -0.08259742 0.3813126
0000f0 b1 f4 af 3c 03 2e 1f 3f 18 d2 19 be d3 98 0e be
       0.021478983 0.62179583 -0.1502155 -0.13925485

layers.2.s_block.net.3.0.bias f4 [8]
000000 15 37 91 bc 8f e5 50 be 08 a6 8f 3e 30 9c 73 be
       -0.01772646 -0.2040007 0.2805636 -0.2379005
000010 dc 80 cc 3e 3b d8 1f 3e 59 c8 41 be f9 fa 57 3e
       0.39942062 0.15609829 -0.18924083 0.21091832

layers.2.s_block.net.4.weight f4 [1, 8]
000000 10 a5 1a 3f 07 3e b4 be bb 4e c7 3e 5d 50 0f bf
       0.60408115 -0.35203573 0.38927254 -0.55982
000010 7d 24 d2 be 1e 36 04 3f db fa 56 3f 14 cb 40 be
       -0.41043463 0.51645076 0.83976525 -0.18827468

layers.2.b_block.net.0.0.weight f4 [8, 1]
000000 2c 53 90 3f a9 c9 6a 3f e4 7e 5f 3f c1 3f 30 bf
       1.1275382 0.9171396 0.87302995 -0.6884728
000010 57 b8 c7 bd c6 72 c5 bd 07 a4 09 bf 03 80 60 bf
       -0.09751957 -0.09641032 -0.5376591 -0.8769533

layers.2.b_block.net.0.0.bias f4 [8]
000000 6a d3 0d bf 6b 5c 68 3f a7 2f b2 3e 03 65 95 3f
       -0.5540072 0.9076602 0.3480198 1.1671451
000010 35 dc 85 bf 07 87 6b bf 48 50 10 bf 48 cc 82 3c
       -1.0457827 -0.9200291 -0.563725 0.01596655

layers.2.b_block.net.1.0.weight f4 [8, 8]
000000 10 c9 77 bd 0e a8 7d 3e 65 06 85 3e 9d 2b 18 3e
       -0.060494483 0.24771139 0.2598144 0.14860387
000010 b3 89 43 3c 6c de 6b be f1 2f c8 bf fc 0f 9f be
       0.0119346855 -0.23034066 -1.563963 -0.31066883
000020 f7 18 02 3f 80 ec d6 bd 4a 22 ac 3e 43 0a 10 be
       0.50819343 -0.104943275 0.3361991 -0.14066415
000030 f7 3a 86 3d 7b 4a 63 3e 50 33 32 3e 47 27 1e 3e
       0.065542154 0.22196381 0.17402387 0.1544467
000040 66 63 51 bf d0 28 55 be e4 fa 57 3d 91 0b 3a 3e
       -0.81792295 -0.2081635 0.052729502 0.18168475
000050 69 ad 3e be d1 c7 13 3e 30 15 77 be 8f ff 48 be
       -0.18620838 0.14431693 -0.24129176 -0.19628738
000060 dc 36 86 bf 56 e8 0d 3e b2 a7 bc bc 48 e7 97 3e
       -1.0485492 0.1385816 -0.023029182 0.2966864
000070 92 c2 01 bf af b0 84 be 92 95 16 3e 1e 49 c1 be
       -0.50687516 -0.2591605 0.14705494 -0.37751096
000080 d3 73 64 3a e0 33 26 bf c3 fa 53 bf 0b 21 a7 3e
       0.0008714769 -0.64922905 -0.82804507 0.32642397
000090 c1 2f 7a bd d7 ff b1 3c 87 99 8e be 3f 63 a9 bd
       -0.061080698 0.02172844 -0.27851507 -0.08270883
0000a0 92 dd c2 bd c7 ba 23 bf 7c fd f0 bc 41 43 6b 3e
       -0.095149174 -0.63956875 -0.029417746 0.22974874
0000b0 f6 66 67 3e 66 0b e8 bd fd 83 0a bf 81 24 f9 ba
       0.2259787 -0.11330299 -0.5410765 -0.0019008071
0000c0 56 90 bd be d2 00 ce be a0 3c 90 be e0 73 e3 bb
       -0.37024182 -0.40235 -0.28171253 -0.0069413036
0000d0 58 ac 81 3d 0c 0e 6e 3e 72 1d 1f 3e 49 e2 8e bd
       0.063317 0.23247546 0.15538576 -0.06976754
0000e0 9d db 88 bd 1e 90 af 3e 3d d5 8a 3e 79 f8 ee be
       -0.06682513 0.3428964 0.27115813 -0.46673945
0000f0 79 af 17 3d b6 68 b5 bd 86 17 38 bd a2 f7 3d be
       0.03703258 -0.08857863 -0.04494431 -0.18551496

layers.2.b_block.net.1.0.bias f4 [8]
000000 bc 75 ad 3e af 45 55 3e 68 39 3b be b7 a8 05 3f
       0.33878887 0.20827363 -0.18283617 0.52210563
000010 32 59 79 3d 6c a3 c8 3e fc 6f 16 be 4f e6 72 3e
       0.06087608 0.3918718 -0.14691156 0.23720668

layers.2.b_block.net.2.0.weight f4 [8, 8]
000000 ce 1f 02 bd d2 c9 b3 3e 71 f9 b3 be 9c ef 24 bf
       -0.031768613 0.35114914 -0.35151246 -0.64428115
000010 4e 53 72 3d c3 03 93 3e fc f7 1e bd 8d d0 43 3e
       0.059161477 0.28713807 -0.038810715 0.19122525
000020 4d 3d f5 3e 00 ff 15 3e e4 35 e0 bc df 29 f4 3e
       0.4789833 0.14648056 -0.027369447 0.47688195
000030 15 d4 a3 3c 6a 27 e6 be 41 24 99 be c2 cf 10 3c
       0.01999859 -0.44951946 -0.29910472 0.008838596
000040 ec 26 f9 be 93 51 37 3e 60 db 47 3e 21 e7 a5 3d
       -0.48662508 0.17902212 0.19517279 0.08100725
000050 2f 4b 13 be f5 38 69 3e 55 24 8c be 11 fc 58 bf
       -0.14384149 0.22775634 -0.2737147 -0.8475962
000060 01 a4 63 be a9 76 33 3e ea bb be be ab 16 5a bf
       -0.22230531 0.17525734 -0.37252742 -0.8519084
000070 c7 19 24 be b4 a5 91 bb 4d 26 8f be 1e 7c 1b 3e
       -0.16025458 -0.004444802 -0.2795891 0.15184066
000080 39 3a 0f bf ba f6 62 3e e8 8f 80 bc 5a a9 c5 bd
       -0.55948216 0.22164431 -0.01569362 -0.09651442
000090 7c 90 80 be 99 00 b1 3e 17 8a 4e be bc f6 ca be
       -0.25110233 0.34570768 -0.20169865 -0.39641368
0000a0 99 47 08 be 57 da 09 be 09 fa d5 3e ec 78 14 3f
       -0.13308562 -0.13462196 0.41792324 0.5799701
0000b0 4d 40 17 bf 5d 82 eb be 99 bc 5f bd b9 67 ce 3d
       -0.5908249 -0.45997897 -0.05462322 0.10078377
0000c0 0d df be 3e 04 d7 e4 3e 3d b7 3a bf be 11 8b be
       0.3727955 0.44695294 -0.7293585 -0.27161974
0000d0 a2 48 1c 3e ac 3f b2 bd 02 47 3b be 9a d6 2c 3f
       0.15262082 -0.08703551 -0.18288806 0.67514956
0000e0 3f 1f 03 3e 5c fa 73 be c9 7f ba 3d cc 95 e0 3c
       0.12804888 -0.23825973 0.09106404 0.027415179
0000f0 4c 94 04 3f e8 f4 5b 3f 9e 71 8e be 2c 37 28 bf
       0.51788783 0.8592057 -0.27821058 -0.65709186

layers.2.b_block.net.2.0.bias f4 [8]
000000 74 5e b9 be 82 2a 6a be f6 75 b5 3e 03 b4 06 be
       -0.36204875 -0.22867778 0.3544156 -0.13154607
000010 50 9a 75 be fc e3 69 3e 10 18 08 3e ab 36 98 3e
       -0.23984647 0.22840875 0.13290429 0.29729208

layers.2.b_block.net.3.0.weight f4 [8, 8]
000000 ac 46 4b bd 71 64 f5 bb 0f 4e 78 3e 29 72 85 bd
       -0.049627945 -0.00748878 0.24248527 -0.06515915
000010 48 f0 c4 3d d9 5d 8f 3e 1e 81 1a be e3 07 b3 be
       0.096161425 0.28001288 -0.15088317 -0.34966955
000020 07 d8 4f bc 9d 39 e2 be 55 dd 84 be 08 ae de be
       -0.012685782 -0.4418458 -0.25950113 -0.4349215
000030 2f 41 e6 3d b7 5d 09 bf 2c 0f 8b 3e c3 60 1d 3f
       0.112429015 -0.5365862 0.27160013 0.6147577
000040 c3 a2 37 3e 9d d7 b8 bd 25 34 6b be d8 d7 9b 3c
       0.17933182 -0.090255 -0.2296911 0.01902382
000050 0f e0 06 3c ac e0 ee bd 65 82 52 be 34 06 c6 3d
       0.008232131 -0.116639465 -0.20557554 0.09669152
000060 82 46 27 bf be 80 11 3e 3a 79 bb 3c c4 60 86 be
       -0.6534196 0.14209267 0.022884954 -0.262457
000070 1c aa c9 be 1f 0f 90 be 62 59 1d 3f 33 4f 75 3e
       -0.39387596 -0.28136536 0.6146451 0.23955993
000080 55 47 0e be 70 e0 dc 3e b9 91 66 bf 6b c5 bb 3e
       -0.13894399 0.43139982 -0.90066105 0.36674055
000090 93 ad 78 be 97 e1 d1 3e a8 96 1e bf 72 8e 51 bf
       -0.24284963 0.40992424 -0.61948633 -0.8185798
0000a0 36 be 9f 3d de 2b 16 3d a6 27 ae 3e e3 f1 02 3d
       0.07799952 0.03666293 0.34014624 0.031968962
0000b0 0a e9 62 3e fb 17 20 3e a9 4d bb be e5 7b 7e be
       0.2215921 0.15634148 -0.36582687 -0.2485195
0000c0 b2 86 39 be b6 95 40 bf b1 62 42 be 73 3c a8 3c
       -0.18117788 -0.7522844 -0.1898296 0.020536637
0000d0 55 99 ed be ed 37 a7 bf 96 6f dc 3e 19 0c 23 3f
       -0.46406046 -1.3063942 0.43053883 0.63690335
0000e0 6c aa db 3e b2 bc 73 3d 61 ea d2 bd 64 02 39 be
       0.4290346 0.059506126 -0.102986105 -0.18067318
0000f0 07 53 6b be b9 a4 9a bc a4 2b 6a be 9b 9c 7f 3e
       -0.22980891 -0.018877374 -0.2286821 0.24962084

layers.2.b_block.net.3.0.bias f4 [8]
000000 1a a5 52 be ea 84 35 be b2 43 18 bd 2b a6 69 3e
       -0.20570794 -0.17726484 -0.037173934 0.22817294
000010 27 ff 0e 3e 66 86 32 be e2 14 8d be cb 6f 96 be
       0.1396452 -0.17434081 -0.27554995 -0.29382166

layers.2.b_block.net.4.weight f4 [1, 8]
000000 15 63 86 3d 6c 4b db be ad be b8 3c ba 09 f4 be
       0.06561867 -0.4283098 0.022551859 -0.4766367
000010 f7 81 72 3f c1 71 ce 3d 2e 30 da be 94 c9 a3 3e
       0.9472956 0.100802906 -0.42614883 0.3198973

layers.4.s_block.net.0.0.weight f4 [8, 1]
000000 6e 7c 2d 3f a1 cb 0e bf e7 d6 6a bf a1 f1 a5 be
       0.6776799 -0.55779463 -0.91734165 -0.3241091
000010 ff 2b 4f 3f 83 87 03 bf e6 55 e8 be 7b a2 38 3f
       0.8092651 -0.5137865 -0.45378035 0.72122926

layers.4.s_block.net.0.0.bias f4 [8]
000000 99 9b 41 3f db e1 33 bf f6 22 95 3e 6f a8 f8 be
       0.7562805 -0.70266503 0.29128236 -0.48566005
000010 e7 06 83 3f 23 38 64 3f f4 ad 4d 3f 2b 48 60 bf
       1.0236481 0.8914816 0.80343556 -0.8761012

layers.4.s_block.net.1.0.weight f4 [8, 8]
000000 b5 b5 c5 be 8d c6 56 bd b4 96 61 3d 45 83 ef bd
       -0.38615194 -0.052435447 0.055075362 -0.116949596
000010 93 18 ac bc 26 7a cc 3c 96 e2 36 be ff fb 1c 3f
       -0.021007812 0.024960589 -0.17859873 0.61322016
000020 e9 92 01 bf 24 d0 ae bd 34 7d ea 3e 00 2f d0 be
       -0.5061479 -0.085357934 0.45798647 -0.40660858
000030 e9 b1 54 bf 03 eb 3f 3e 55 62 21 3e ba 00 72 be
       -0.8308397 0.18741994 0.15760167 -0.2363309
000040 01 b0 6e 3e 73 cb 45 be f4 d0 23 3c 53 77 56 bd
       0.23309328 -0.19315891 0.009998549 -0.05235989
000050 72 22 28 be c2 3d da be e7 00 e8 be 4a 21 07 bf
       -0.1641939 -0.42625242 -0.45313188 -0.5278517
000060 8a 2d b3 3d 5c c7 50 be 46 8c 6c 3e 23 f7 c4 3d
       0.0874892 -0.2038855 0.23100385 0.0961745
000070 c9 01 be 3d 0a 1b 0a 3e e3 4c 3e 3e ad 03 54 be
       0.09277684 0.13486877 0.18584017 -0.20704527
000080 d6 cc 31 bf c1 7c dd be e7 89 c6 3d e1 b4 ca be
       -0.6945318 -0.43259242 0.096942715 -0.39591125
000090 71 3b c7 be f6 4d 18 3e fe be 87 be 63 54 06 3e
       -0.38912538 0.1487349 -0.26512903 0.13118128
0000a0 a2 b8 82 3e 5a ef ce 3d 9f 52 31 be 53 06 56 be
       0.2553149 0.101042464 -0.17316674 -0.2090085
0000b0 48 ab 45 be 64 0f 24 3e 1f d4 96 3e 6b 83 e7 be
       -0.1930362 0.16021496 0.2945871 -0.4521745
0000c0 58 8b e3 bb 50 13 e7 3d 6c 55 81 3d 6f 0d d8 3d
       -0.0069441013 0.112829804 0.06315121 0.10549437
0000d0 f4 e1 b0 3e 7c 9b e8 3e 15 15 91 3e 04 e1 1e bf
       0.3454739 0.45431125 0.28336397 -0.62062097
0000e0 c7 6b 9d bd a6 20 0c bf d0 e6 3f bb 28 61 64 bd
       -0.076865725 -0.5473732 -0.0029281862 -0.055756718
0000f0 e0 41 87 be 92 67 40 be a5 e1 d0 3e b0 a6 06 be
       -0.26417446 -0.18789509 0.40797153 -0.13149524

layers.4.s_block.net.1.0.bias f4 [8]
000000 5f d7 55 3d f1 ef 79 3e 33 13 77 3d 46 df c0 3e
       0.052207347 0.24407937 0.060321044 0.37670344
000010 e9 dc 2e 3e a1 95 0c be df e0 16 3e 9f 46 5a bd
       0.17076458 -0.13728954 0.14734219 -0.053290006

layers.4.s_block.net.2.0.weight f4 [8, 8]
000000 62 9a cb be 13 af 6b bd 19 ad a4 3d 15 23 da bc
       -0.39766222 -0.05754001 0.08040828 -0.026628057
000010 7d 55 2d bf 5d 54 59 be 3b c4 e8 3c a2 96 dc be
       -0.6770857 -0.21223588 0.028413882 -0.43083674
000020 b7 14 b7 be 7e a9 8b bf 1c 09 3e 3e 6b b9 ad 3e
       -0.35757992 -1.09111 0.18558162 0.33930525
000030 82 26 d0 be 04 5f 81 3d 3c 73 d9 3e 00 b1 b0 bb
       -0.4065438 0.06316951 0.4247073 -0.005392194
000040 b6 97 f3 3d 21 bf 37 bf a2 78 7b 3e 08 b6 76 3e
       0.11894171 -0.71776015 0.24557737 0.24092877
000050 ed e5 ba 3e 88 f8 c5 3b 3a b3 9a 3e 12 5c 3d 3d
       0.36503544 0.00604159 0.30214864 0.046230383
000060 54 d4 b8 3e ea fb d8 3e 28 ce 38 be 79 3f 89 be
       0.36099494 0.42379695 -0.18047392 -0.26806238
000070 3f 37 6e be c9 c2 89 3e c0 14 b6 bd fb 8e af bd
       -0.23263262 0.26906422 -0.088906765 -0.08572193
000080 1a 34 aa 3d 76 6d 03 be 47 20 af 3c e9 6b a1 be
       0.08310719 -0.12834725 0.021377696 -0.3152764
000090 cb be 4a 3e bd 16 84 be 24 0f a8 be 2c 04 3b 3e
       0.19799344 -0.25798598 -0.3282405 0.1826331
0000a0 dc 79 55 bd 99 56 ae 3e 0a ff 8c be 9c c3 80 be
       -0.052118167 0.34050444 -0.2753833 -0.25149238
0000b0 fb 9b c2 be 04 38 c5 3e 29 e8 6f be 66 7a 0d bd
       -0.3800963 0.385193 -0.23428406 -0.034540556
0000c0 84 de 23 3d f9 bd a1 bd e3 60 95 be 4e ed 72 be
       0.04000713 -0.078975625 -0.2917548 -0.23723337
0000d0 4a 94 2e bd 25 55 22 be 3d 36 9c be 8f 42 87 3e
       -0.04262189 -0.15852793 -0.3051013 0.26417968
0000e0 ca 80 9d bd 80 6e 32 bf a2 e1 42 3e ac 08 a1 3e
       -0.0769058 -0.6969986 0.19031385 0.3145193
0000f0 66 a9 5e 3e 68 a1 0c 3e 20 23 79 3e 7c f5 36 be
       0.21744308 0.13733447 0.24329805 -0.17867082

layers.4.s_block.net.2.0.bias f4 [8]
000000 0e 0f e8 ba b9 bb f7 3d 5f fa ff 3c 79 e0 52 be
       -0.0017704682 0.12096352 0.031247316 -0.20593442
000010 b5 b6 e4 3c a7 0d c9 3d 16 7b e4 3c 53 3a d7 3b
       0.027919153 0.09817057 0.027890723 0.006568232

layers.4.s_block.net.3.0.weight f4 [8, 8]
000000 0e 93 77 be 6b 07 af 3d 53 0b 33 be 6f d6 9a 3e
       -0.2417719 0.08546337 -0.17484789 0.30241725
000010 85 92 ae 3e bf 5f 3f 3e 7e 1b 80 be 3f f5 a6 3d
       0.3409616 0.18688868 -0.25020975 0.08152246
000020 fc d3 61 3d 84 53 27 bb 3e 9f 23 3e 2e 8e 8e 3d
       0.055133805 -0.0025531957 0.15978715 0.069607124
000030 5d a9 bd 3e 8a cf 93 3e b5 aa ff bd cc 1b 50 3e
       0.37043276 0.28869277 -0.12483732 0.20323104
000040 8e e3 1a 3e fe fe ec be 16 f1 9a 3c fa 79 66 be
       0.15125868 -0.46288294 0.018913787 -0.22507468
000050 67 d3 b4 be 3b b2 7c bd 46 f4 a0 3e ea e9 e9 3c
       -0.35317537 -0.06169341 0.31436366 0.028553922
000060 2b d5 44 be 0a d5 10 3e d3 a8 89 be fb 1c 2b 3e
       -0.19221942 0.14143768 -0.26886615 0.16710274
000070 68 3e ad 3d db e3 41 be c0 f1 28 3e e6 71 51 3e
       0.08459169 -0.18934576 0.1649847 0.20453605
000080 d6 bf 81 3e 3c b1 b4 3e 56 04 22 3e 66 7e a7 be
       0.25341672 0.3529147 0.15821967 -0.32713622
000090 c0 53 d2 3e a2 57 6c be 12 04 8b 3e 93 9e d3 3e
       0.4107952 -0.23080304 0.27151543 0.4133192
0000a0 48 c8 ac be 33 de 15 3e 86 6f c5 3e 65 8d 00 3d
       -0.33746552 0.14635544 0.38561648 0.031384844
0000b0 2a a7 c4 3e 5e ae c3 bd 94 1d ea 3d f2 ca ed 3e
       0.38408786 -0.09554742 0.11431423 0.46443897
0000c0 7a e7 ae be 58 c2 29 3e 59 43 5b be f8 35 08 be
       -0.34160978 0.16578043 -0.2141241 -0.13301837
0000d0 46 33 b6 3e f6 07 d3 3d a9 58 fa bd 64 e7 5e bd
       0.35585994 0.10304253 -0.12223942 -0.05441989
0000e0 2e 7e 42 be b7 55 06 3e 4c 8b 9f 3d 08 3f d9 bd
       -0.18993446 0.13118635 0.07790241 -0.106077254
0000f0 2e f3 f8 3d 6b 5d b4 3e 29 04 9c 3e 94 35 80 be
       0.12155758 0.35227522 0.30471924 -0.25040877

layers.4.s_block.net.3.0.bias f4 [8]
000000 0f 2a 3b bd cb 38 8c be fa 7f 6f be 19 8b 06 be
       -0.045694407 -0.2738708 -0.23388663 -0.13138999
000010 68 76 3e b7 40 72 02 bb 27 7e 5c bb 2d 73 a3 bc
       -1.1352451e-05 -0.0019904524 -0.0033644529 -0.019952381

layers.4.s_block.net.4.weight f4 [1, 8]
000000 f7 e7 eb 3c 07 9f 0a 3e da b5 2d be 0b fc e5 3d
       0.028797133 0.13537227 -0.16963902 0.11229714
000010 57 ae c3 3e 5c e7 7b 3e 9a d0 94 3a 1b 85 a4 3a
       0.38218948 0.24599975 0.0011353672 0.0012551876

layers.4.b_block.net.0.0.weight f4 [8, 1]
000000 22 be fd be 48 d5 f5 be e8 48 b6 3d 6e 43 45 bf
       -0.49559122 -0.48014283 0.089006245 -0.77056015
000010 54 f8 da 3d cd f5 2f 3f b0 0c d2 be d0 c3 ab bd
       0.10691896 0.6873444 -0.41025305 -0.08386958

layers.4.b_block.net.0.0.bias f4 [8]
000000 ee 69 f5 be aa 5b ed be 09 f0 85 3f 22 1a d0 bc
       -0.4793238 -0.46358997 1.0463878 -0.025403086
000010 74 8f 8f be cc dd cc 3d a6 53 cb be ce 24 1b bf
       -0.28039134 0.10003242 -0.39712256 -0.60603034

layers.4.b_block.net.1.0.weight f4 [8, 8]
000000 6a 72 a5 3e c9 a3 21 3f d7 89 b0 bd 4c aa a2 3e
       0.32313854 0.6314054 -0.08620041 0.3177055
000010 d1 24 89 be ed 45 31 bd 44 df 4b 3f 53 8c c6 bd
       -0.267859 -0.043279577 0.7963755 -0.096947335
000020 af 37 1d 3d d7 3d 30 3f 89 b7 98 3e 29 48 e7 3e
       0.038383182 0.6884436 0.29827526 0.4517224
000030 e4 78 b4 3d 65 dc 4a 3a b5 14 78 3e 83 95 cc be
       0.088121206 0.000773853 0.24226649 -0.39957818
000040 7f cc 93 bc db 5b e5 3e 34 bc 1f 3e a6 a8 4e be
       -0.018041847 0.44796643 0.15599138 -0.20181522
000050 94 21 2f be c7 23 2b bf 00 2f 98 bc 98 c5 e0 bd
       -0.17102653 -0.66851467 -0.018577099 -0.10975188
000060 28 1c b0 bf c7 77 a4 bf 0a 9f 4e bd 85 cd a1 bd
       -1.3758593 -1.2849053 -0.05044464 -0.07900528
000070 a0 c9 77 3d 08 98 04 3f d8 90 6c bf be d2 b5 bd
       0.06049502 0.5179448 -0.92408514 -0.088780865
000080 c3 d4 d1 be 6c c8 b1 be b4 c5 1c bd c0 78 5c be
       -0.40982637 -0.34723222 -0.038274482 -0.21530437
000090 6d dd f2 bd b0 e5 4e bf b9 d4 f5 bd f4 f1 c4 3d
       -0.1185864 -0.80819225 -0.12003464 0.096164614
0000a0 97 18 dd 3e 12 97 d9 3c d9 bb d6 be ba 20 bc bd
       0.43182823 0.026561294 -0.4194019 -0.091859296
0000b0 0a 71 ca 3e a3 65 af 3e 93 a6 3f 3e 94 5b bd bd
       0.39539367 0.3425723 0.18715887 -0.09245983
0000c0 4e 29 e5 3e ea 96 06 3e d4 01 46 3e 55 45 8b be
       0.44758075 0.13143507 0.19336635 -0.27201334
0000d0 5d 23 38 3d 65 48 bc be 6c bf af 3e 42 5e 25 3e
       0.0449556 -0.36773983 0.3432573 0.16149238
0000e0 20 09 cd 3e 40 e8 98 3e 86 e6 fe 3e 79 ef 84 be
       0.40046024 0.29864693 0.4978525 -0.25963953
0000f0 ef bf 99 3c f5 bd 04 bf f1 f2 26 3f 7b e3 01 3c
       0.018768279 -0.5185235 0.6521445 0.007927771

layers.4.b_block.net.1.0.bias f4 [8]
000000 e1 80 18 be fb 7a be bd 6e 11 ad be 51 e0 a4 3e
       -0.14892913 -0.093008004 -0.3380236 0.3220239
000010 99 23 cb be 8b 95 39 be 44 e8 9a 3d 22 c0 0d be
       -0.39675596 -0.18123452 0.075638324 -0.13842824

layers.4.b_block.net.2.0.weight f4 [8, 8]
000000 33 c3 b4 3e f6 a4 78 3e 35 b1 d1 be 3b a6 5a be
       0.35305175 0.24281678 -0.4095551 -0.21352474
000010 d2 fc 03 3e e2 92 01 bd 0c 35 54 3d 0b b2 c8 3c
       0.12889412 -0.03163422 0.051808402 0.02449896
000020 64 50 e7 3e 48 23 e2 3c a8 96 02 3d 4b 08 7f be
       0.4517852 0.027604714 0.03188196 -0.24905507
000030 90 62 cc 3e a5 8e 7c 3e e9 2f 5a be 33 24 e6 bd
       0.39918947 0.2466379 -0.21307339 -0.11237373
000040 2e f8 19 3f 26 e1 0b 3f 1b bb d5 bd 4b 3a 9f bf
       0.6014432 0.54640424 -0.10436078 -1.2439665
000050 86 74 fb be e0 b8 8e 3e d4 ba a4 3d c9 8f 85 3e
       -0.49112338 0.27875423 0.08043447 0.26086262
000060 2b 91 d1 3e e7 3f 8f 3e 32 85 1b 3e f7 6b 88 3d
       0.40931067 0.2797844 0.15187529 0.06661218
000070 c5 fa 96 be c4 b5 d0 3e 92 6b 6c be ac e5 7a 3e
       -0.29488197 0.40763676 -0.2308791 0.24501675
000080 96 0d 20 bd fe 82 39 bd 50 9b da bc 28 ca 54 be
       -0.039075457 -0.04529094 -0.026685387 -0.20780241
000090 3a 6b 70 be a9 30 b4 3e 5a d9 0e be 28 46 47 bc
       -0.23478404 0.35193375 -0.139501 -0.012162723
0000a0 99 b4 46 bf 4b 31 07 3e 5a 0f f1 be 05 e7 89 3e
       -0.7761932 0.13202398 -0.47082025 0.26934066
0000b0 87 c3 ea be 6e c6 19 bf 2e 33 09 bf 21 eb 97 bf
       -0.458523 -0.60068405 -0.5359372 -1.1868631
0000c0 3a 55 b0 be 0f b6 05 3e f1 01 72 3e a6 5e 1c bf
       -0.34440023 0.13057731 0.23633553 -0.6108192
0000d0 d0 8a ab bd 9e c6 71 3e 85 33 bf bd 74 c8 94 3e
       -0.08376086 0.23610923 -0.093359984 0.29059184
0000e0 eb 9b d6 3e 75 6c 92 3b 88 01 38 3d 78 7b 8a be
       0.4191583 0.0044684955 0.044923335 -0.27047324
0000f0 24 37 d1 be 4d be 03 3e 4c 69 0e bc b2 f5 ff 3d
       -0.4086238 0.12865563 -0.008692097 0.124980345

layers.4.b_block.net.2.0.bias f4 [8]
000000 5f 94 5d 3e ca 23 96 3e 35 6c 87 bd 4d cf b8 3d
       0.2163863 0.2932418 -0.06612436 0.090239145
000010 0d a4 d6 3e 76 dc 44 3e 22 99 4b 3e 55 a6 aa 3e
       0.41922036 0.19224724 0.19882634 0.33330026

layers.4.b_block.net.3.0.weight f4 [8, 8]
000000 0c d1 c9 3e 78 05 ad bd 99 4d 28 3f cf a6 19 3e
       0.39417303 -0.08448309 0.65743405 0.15005039
000010 71 52 aa 3e 8c a9 07 bf 29 60 39 be 06 f7 04 be
       0.33266023 -0.52993083 -0.18103088 -0.12984857
000020 05 f8 5d 3d 3f ed 3a be 9c e8 c9 bf b9 fd 8d bd
       0.054191608 -0.18254565 -1.5774112 -0.069331594
000030 fb 9a 3f 3e 0c 45 51 3f b6 61 b2 3e 13 05 d3 3c
       0.18711464 0.8174598 0.34840173 0.025759256
000040 c2 e5 67 3e 9a 2f 19 3e 80 ec 04 3f e7 97 a6 3e
       0.2264624 0.14959565 0.5192337 0.32537767
000050 43 f0 a6 3e 47 15 40 bf 53 ae df 3d 42 ca 76 3e
       0.3260518 -0.75032467 0.109219216 0.24100593
000060 28 8f b7 3e b8 90 20 3d c7 0c df 3e 7a 83 ad 3d
       0.35851407 0.039200515 0.43564436 0.08472343
000070 cd d2 e5 3a 53 04 6e bf bc a0 2e be 43 f7 1f be
       0.0017534137 -0.9297535 -0.17053503 -0.15621667
000080 9a 61 89 be d5 8b dd 3d 8e 70 a4 be 6a 90 ab 3d
       -0.26832277 0.108176865 -0.32117122 0.08377154
000090 71 21 05 3e 0b 04 25 3f 46 36 08 3e e2 fe 02 be
       0.13001038 0.64459294 0.13301954 -0.12792543
0000a0 21 71 65 be 03 30 70 be 53 07 c9 3e 4a 44 e1 bd
       -0.22406437 -0.23455815 0.392634 -0.10999353
0000b0 9a f7 c7 bb 38 27 24 bf fe 1e 1f be 31 67 1d bc
       -0.0061025145 -0.64122343 -0.15539166 -0.009607122
0000c0 26 f3 76 3e 1b b1 32 3d f1 2b de be 0e 91 91 be
       0.24116191 0.043625932 -0.433929 -0.2843098
0000d0 33 9a 45 be cd db 36 3f 41 59 6c 3e aa 1b 93 3e
       -0.19297104 0.7142914 0.23080923 0.28732044
0000e0 91 34 95 3c 1a 9f c6 3d e8 61 fc be 32 91 1c 3e
       0.018213542 0.09698315 -0.49293447 0.15289763
0000f0 13 44 d6 be 50 61 2e 3e 2c db d7 bd 88 92 bd be
       -0.41848812 0.1702931 -0.105398506 -0.37025857

layers.4.b_block.net.3.0.bias f4 [8]
000000 b4 ef a7 3d 23 6a c8 3e 2a c1 b2 3d 4f 57 af 3e
       0.082000166 0.39143476 0.08728249 0.342463
000010 e9 ea df be d6 75 9f be 3f f6 cd ba 20 d7 27 3e
       -0.4373391 -0.3114459 -0.0015713646 0.16390657

layers.4.b_block.net.4.weight f4 [1, 8]
000000 8e a8 8d be cb d3 cc 3e fd c5 fe be 34 0e fe bd
       -0.2766766 0.40005335 -0.49760428 -0.12405053
000010 1b ee 88 3e c1 1f 46 bd 3d ba 22 3e f7 d0 ea 3d
       0.2674416 -0.048370127 0.15891357 0.11465638

layers.6.s_block.net.0.0.weight f4 [8, 1]
000000 d0 d0 12 bf da 6f 76 bf 0e bb 0a be cc 5c 95 3e
       -0.5734987 -0.9626442 -0.13547918 0.2917236
000010 48 dd bd 3e de 38 46 bf 89 bb 3b 3f b7 2c 33 3f
       0.37082887 -0.7743052 0.7333303 0.69990104

layers.6.s_block.net.0.0.bias f4 [8]
000000 e7 80 1c bf 05 fe 9c be 26 08 22 bf 0a e8 40 3f
       -0.6113419 -0.30662552 -0.63293684 0.75354064
000010 bd 0b 57 3f 58 fe 32 bf 72 f8 3c bf c0 ad b4 3d
       0.84002286 -0.6991935 -0.738166 0.08822203

layers.6.s_block.net.1.0.weight f4 [8, 8]
000000 f5 dd 0b be e1 67 d1 3d b6 80 08 3e 9c 77 59 3e
       -0.13658889 0.102248915 0.1333035 0.21237034
000010 ad 50 97 3d 72 2c 3e be d6 d0 9b 3e 19 d4 d7 3e
       0.073884346 -0.18571642 0.30432767 0.42154005
000020 94 e2 2e 3f c2 ef f4 3e 95 d5 d8 3d fb 53 ab be
       0.6831448 0.4783917 0.105876125 -0.3346251
000030 2a 56 86 be 00 fd 4b 3e 61 7f b2 3e ec 0a 10 3d
       -0.26237613 0.1992073 0.34862807 0.035166666
000040 dc dd 02 3e b5 9c 28 3d 41 b4 c3 3e 40 e0 9c be
       0.12779945 0.041165072 0.3822346 -0.3063984
000050 82 da ea 3d cb e4 66 3d d6 47 08 3c f3 e6 99 be
       0.11467458 0.056370538 0.008317908 -0.30059013
000060 a0 ee aa 3e 04 fb 98 bd ea ad 80 bc b4 48 fe bc
       0.3338518 -0.074697524 -0.015707929 -0.031040527
000070 4b e3 57 bc 7e 49 c5 3e c3 a4 f1 3e ad 05 ce 3e
       -0.013176749 0.38532633 0.47196016 0.40238705
000080 a6 4d a3 be 53 f0 18 be 6d 29 90 be 60 df 2a 3e
       -0.3189518 -0.14935426 -0.28156605 0.16686773
000090 09 13 82 3e ac e9 c5 3e 0c c6 cc bd 39 ff 3e 3f
       0.25405148 0.3865484 -0.09998712 0.7460819
0000a0 29 dd fd bd 4f dc ae be 1e ab d3 bd bb 8b 5f be
       -0.123956986 -0.34152457 -0.103353724 -0.21830647
0000b0 6f 98 93 be 7b 37 9a 3c 8b a6 fa be 88 34 02 bd
       -0.28827235 0.018825283 -0.48955187 -0.03178838
0000c0 5b 28 d8 be 97 f3 a6 3c 69 36 32 3e bc 26 e2 bd
       -0.4221829 0.020379825 0.17403568 -0.11042544
0000d0 0b 0e 9c be 92 29 53 be 4c 5e 2b bf 11 cf 46 3e
       -0.30479464 -0.20621327 -0.6694076 0.19414927
0000e0 df ed 5d 3e 50 7e b5 3e cc 08 16 3f 23 e0 97 3e
       0.21672772 0.3544793 0.5860717 0.2966319
0000f0 9b e5 90 3e 91 c4 70 be 72 00 4f be 9c 5f dd 3d
       0.28300175 -0.23512484 -0.20215014 0.10809252

layers.6.s_block.net.1.0.bias f4 [8]
000000 56 7f 41 be b7 03 be bd 87 ef 47 3e b1 f7 bc be
       -0.18896231 -0.09278052 0.19524966 -0.36907724
000010 60 03 11 3e 25 95 58 3e 1c 0d 9b 3e 16 47 50 3e
       0.14161444 0.21150644 0.3028344 0.20339617

layers.6.s_block.net.2.0.weight f4 [8, 8]
000000 78 22 3b bf 56 ce a7 3e 60 78 1e 3e 90 20 a4 be
       -0.7309947 0.3277461 0.15475607 -0.32056093
000010 4c 2f fb be d8 df 7d 3e 53 6d 03 3e 62 bd 76 3d
       -0.49059522 0.24792421 0.12834673 0.060239203
000020 8a 92 d9 bc 7c ef 19 bf b7 bd 37 be b0 2c e6 be
       -0.026559133 -0.6013105 -0.17943464 -0.4495597
000030 cf 5e b5 3e 69 d4 bd 3d dd d0 c6 3d f7 90 f6 3d
       0.35423896 0.0926903 0.09707806 0.120393686
000040 e0 d2 b3 be 73 38 60 bf 2e 32 41 be 34 c8 21 bf
       -0.35121822 -0.87586135 -0.18866798 -0.6319611
000050 3c 61 01 bf 59 0c 4e be b5 fe e8 3d 63 c9 9b be
       -0.5053899 -0.20121898 0.113767065 -0.30427083
000060 55 21 a4 3d 27 09 32 3f 6a f7 a4 bc da 41 2f 3f
       0.0801417 0.69545215 -0.020137507 0.68459857
000070 ea 0b ef 3d 84 be 9d be 6e ac 19 3e b8 19 b2 3e
       0.11672194 -0.30809414 0.15007183 0.34785247
000080 b3 31 eb be e9 ee 00 bf b8 6d 8b 3e ca 0b 1c bf
       -0.45936355 -0.5036455 0.27232146 -0.6095549
000090 a5 78 56 be 85 07 be 3e a9 9c d3 3e e1 85 62 3e
       -0.2094446 0.37115112 0.4133046 0.22121383
0000a0 1e 33 37 3d 82 cd a8 be b9 97 8e 3e c0 26 02 bf
       0.044726484 -0.3296929 0.2785013 -0.5084038
0000b0 95 2e a2 3d 52 ad ca 3d 41 b7 ba 3e 46 8c bd bd
       0.07919041 0.098963395 0.36467937 -0.09255271
0000c0 db 28 e9 3c cd db 08 bf 4e 33 cc be 08 40 de be
       0.028461864 -0.5346039 -0.39882892 -0.43408227
0000d0 98 e2 cf 36 08 a3 7e 3e e0 ee cd 3d 54 3a a5 3e
       6.1954597e-06 0.24866879 0.100553274 0.32271063
0000e0 a7 7a 02 3c b9 75 99 3e 23 07 80 be 99 6e 8f bc
       0.007963813 0.29972628 -0.25005445 -0.017508792
0000f0 97 e4 77 3d b4 c0 19 3e ee cc 41 be fd d2 8c 3e
       0.060520735 0.15014917 -0.1892583 0.2750472

layers.6.s_block.net.2.0.bias f4 [8]
000000 55 02 26 3e 01 1f e9 3d ef 90 85 be 80 67 8b be
       0.16211827 0.11382867 -0.26087138 -0.27227402
000010 e1 cd a7 3e 49 ca 04 be ec 15 7f 3d 37 a0 2e 3e
       0.3277426 -0.1296779 0.062276766 0.17053305

layers.6.s_block.net.3.0.weight f4 [8, 8]
000000 4c 4f 26 3e 01 59 03 bf 3e 01 00 bf 9b f5 fc 3e
       0.16241187 -0.51307684 -0.50001895 0.49406132
000010 8e b2 e0 be c4 07 ae bd 58 1a c3 bb b7 a6 b6 bc
       -0.43886226 -0.08497575 -0.005954068 -0.022296293
000020 c4 90 3c bf 66 4f 89 3d 0e cd 02 3e fb 36 82 bf
       -0.73658395 0.06704597 0.12773535 -1.0173029
000030 b8 dc cd 3e eb 09 7b 3e 6c 1d 57 be c7 e3 76 bd
       0.40207458 0.24515502 -0.21007317 -0.06027582
000040 90 50 97 be 0f e7 b3 3d e1 d8 46 3e 26 d3 f0 bd
       -0.29553652 0.08784305 0.1941867 -0.11759023
000050 50 d6 0b be d1 2c 19 3e 67 fb a7 3e 31 33 5b be
       -0.13655972 0.14958502 0.32808992 -0.21406247
000060 5e c1 eb be e1 32 4f 3e ca 3a b4 3d 51 0b 38 bf
       -0.46045965 0.20234253 0.088002756 -0.7189227
000070 35 6f 52 3e 6b 8e 9d 3d d4 ae b7 3d f5 5f 60 be
       0.20550235 0.0769318 0.08968893 -0.21911605
000080 d7 37 07 3f 45 1a 62 bd 9c 6d 15 bf 5b 3f 9f 3e
       0.5281958 -0.055200834 -0.58370376 0.31103024
000090 d8 ef 9c be 6c 9d ac bd 4b 4c bd be 5b 58 96 3d
       -0.30651736 -0.08428463 -0.3697227 0.07341071
0000a0 c4 07 97 3e be 51 94 be 8e cd b7 be 26 d7 15 3f
       0.29498112 -0.28968614 -0.35899013 0.58531415
0000b0 78 90 fa 3b e1 0c 9f be b7 fb 10 bf 7e f0 4e be
       0.0076466165 -0.31064513 -0.56634086 -0.20208928
0000c0 7d 33 31 be 95 24 56 3e 68 59 13 be f1 5b bf be
       -0.17304797 0.20912392 -0.14389575 -0.37374833
0000d0 92 6c ba bd a4 fb a2 be f5 30 29 be c9 e4 64 be
       -0.091027394 -0.31832612 -0.16522582 -0.223529
0000e0 5a ac ea 3e e8 68 07 bf cd 7a 2b 3d fe a1 47 3e
       0.4583462 -0.5289445 0.04186516 0.19495389
0000f0 3d b4 8a 3d eb e5 7a bd d1 22 97 3b b6 0a 52 3d
       0.06772659 -0.061254423 0.0046123047 0.051279746

layers.6.s_block.net.3.0.bias f4 [8]
000000 ce a0 a8 3e a7 5e 8f 3e dc cb 42 bd cb b6 3a 3e
       0.32935184 0.28001902 -0.047557697 0.18233792
000010 ea d2 09 3e fb 40 c4 bd 2e 0e fd bc c4 45 98 3d
       0.13459364 -0.095827065 -0.03089055 0.07435182

layers.6.s_block.net.4.weight f4 [1, 8]
000000 68 ac b0 be a7 c8 35 3e 3c da 91 bb e8 d4 a1 3e
       -0.34506536 0.17752324 -0.0044510644 0.31607747
000010 af fc 04 bf a2 82 b4 be ef d2 56 3e 1f 81 6f be
       -0.51948065 -0.35255915 0.20978902 -0.233891

layers.6.b_block.net.0.0.weight f4 [8, 1]
000000 6e f3 1f 3f a9 b1 31 3e 2c 80 8d 3e 85 74 fd bd
       0.6248082 0.17352928 0.2763685 -0.1237574
000010 d5 c7 0e 3f d9 a6 9c bf 92 e1 40 bf 69 12 83 bf
       0.5577367 -1.2238418 -0.75344193 -1.0239993

layers.6.b_block.net.0.0.bias f4 [8]
000000 c7 78 40 3f 16 63 43 bf 5c 87 b3 3e 58 51 67 3e
       0.7518429 -0.7632307 0.35064209 0.22589624
000010 6c f4 8a bf e9 f1 c1 3e c6 85 39 bf 9a a7 28 3f
       -1.0855842 0.37879875 -0.7246975 0.6588074

layers.6.b_block.net.1.0.weight f4 [8, 8]
000000 18 fb 61 bf 9f 51 24 3e e0 e8 a0 3c 70 16 76 be
       -0.88273764 0.16046761 0.019642293 -0.24031997
000010 90 f8 e9 bc 9e 10 bd 3d e5 5f 10 3f 6c 70 ca 3e
       -0.028560907 0.09231685 0.56396323 0.39538896
000020 a6 55 94 be 37 48 88 be 40 28 cf bd 57 73 3b be
       -0.28971595 -0.26617596 -0.10115099 -0.18305717
000030 cc 9c f4 be 27 f5 9a be 7e f6 c8 3d a6 87 4e 3e
       -0.47775877 -0.3026516 0.0981264 0.20168933
000040 e5 a0 b0 bf 05 ae 1d be f6 4c a7 be 04 11 aa 3d
       -1.3799101 -0.15398414 -0.32675904 0.08304027
000050 10 07 15 be 22 e8 81 3d 03 cb 37 3f 38 e2 b2 3e
       -0.14553475 0.06343104 0.71794146 0.34938216
000060 9f 48 1a be 68 27 a3 3d 20 82 7e 3e a4 22 e6 3c
       -0.15066765 0.079665005 0.24854326 0.02809269
000070 df 30 f4 3e ed 56 8b 3b 77 79 1e 3f df 6a e1 3d
       0.47693536 0.0042523057 0.6190409 0.11006712
000080 26 3b d9 be 5d e2 81 3e 96 26 81 3d 6d f1 64 be
       -0.4242794 0.25368014 0.06306188 -0.22357722
000090 3b 8f 60 3e fc df 03 be 5f c5 a5 be 7d 9d 8b 3e
       0.21929638 -0.12878412 -0.32377145 0.27268592
0000a0 ef a4 b3 3d c3 a6 cb be 0a 71 51 3e e1 2e aa be
       0.08771693 -0.39775667 0.20453277 -0.3323889
0000b0 64 28 03 bf 7a 20 af 3e 30 0e bb bf 64 6c 99 3d
       -0.51233506 0.34204465 -1.4613705 0.07491377
0000c0 7f 60 c7 3d 8f fd 89 be df 41 b6 3e 64 a3 2e 3d
       0.09735202 -0.26951262 0.3559713 0.04263629
0000d0 0d 73 58 bd a0 07 7f bc 1b 92 62 be 0f b7 87 3e
       -0.052844096 -0.015565783 -0.22126047 0.2650685
0000e0 95 80 16 be 63 65 85 3e 24 ef 7c 3d bd 19 1c bd
       -0.14697488 0.26053914 0.0617515 -0.038110483
0000f0 34 4d 99 3e 76 23 42 3e ea 65 84 be 1b 6d b8 bd
       0.29941714 0.1895884 -0.25859004 -0.09005185

layers.6.b_block.net.1.0.bias f4 [8]
000000 2f 3e c4 be d2 d5 b0 3d ec d6 f7 be 8d 11 2e 3e
       -0.38328692 0.08634533 -0.4840616 0.16998883
000010 3f 37 02 be 07 dc d0 3e 42 78 b4 3e ff bd 19 be
       -0.12716387 0.40792868 0.35248 -0.15013884

layers.6.b_block.net.2.0.weight f4 [8, 8]
000000 89 65 74 3d 0e 6b 31 bd 1e 1c 0a be 27 89 e3 3d
       0.059667144 -0.043314986 -0.13487288 0.11110144
000010 8b 51 1b be 71 b4 e5 3c f8 cb 14 3d 2a 95 a7 be
       -0.15167825 0.028040143 0.036327332 -0.3273099
000020 26 4b 8a 3e 81 f1 a4 be dd 6b ae be 1d d2 a1 3d
       0.2701046 -0.32215503 -0.34066668 0.07901404
000030 98 75 3d 3e 28 f0 d5 3d 29 6b 5a 3e df d4 41 be
       0.1850189 0.10446197 0.21329941 -0.1892886
000040 c8 8d a1 bf b2 57 28 3e a1 cc c9 bf 37 a8 7d be
       -1.2621393 0.16439703 -1.5765573 -0.247712
000050 eb 7b 3a be 36 08 04 3f 3f 85 7d 3e b4 7d 52 3d
       -0.18211333 0.5157503 0.2475786 0.05138941
000060 3a 21 99 3d 9a 11 3d 3e fd e9 da bd 11 5a fa bd
       0.074770406 0.18463746 -0.10689161 -0.1222421
000070 eb c6 b0 be 2e 1d 8b 3e e5 b3 4e be e5 09 6c ba
       -0.34526762 0.271707 -0.20185812 -0.000900416
000080 43 60 38 be 74 99 8c 3d b3 31 17 bf 7a 96 b0 3d
       -0.18005471 0.06865206 -0.5906021 0.08622451
000090 14 97 46 3e de 63 31 3e 1f d8 61 be 57 72 8a 3e
       0.19393569 0.17323253 -0.220551 0.2704036
0000a0 eb 27 d0 3e e5 d0 43 be 73 69 05 3f 64 57 b2 3d
       0.40655455 -0.19122656 0.5211403 0.08708075
0000b0 2d 93 05 be b3 c0 94 bd dd f4 43 be d7 6a 5c 3e
       -0.13044424 -0.07263317 -0.19136377 0.21525131
0000c0 c7 ed b6 3e c6 6c 7f be 06 03 59 bd 70 63 b7 3c
       0.35728285 -0.24943838 -0.0529814 0.022386283
0000d0 9a 39 55 be 34 24 2b 3d 5d 8c b6 3e 9e 57 36 3d
       -0.20822755 0.041782573 0.35653964 0.044517152
0000e0 43 b9 92 be 28 4b 50 bd a0 f1 e0 3e aa 06 91 be
       -0.28656968 -0.050852925 0.43934345 -0.28325397
0000f0 93 2b b7 3e 2c 4d 43 3d a2 3e b0 3c 04 4f 17 be
       0.35775432 0.04768102 0.02151424 -0.14776236

layers.6.b_block.net.2.0.bias f4 [8]
000000 59 d4 01 be b6 17 71 3e 50 a3 96 3d 13 f6 52 be
       -0.1267866 0.23544201 0.07355368 -0.20601682
000010 7f c6 b0 3e 0e 1a f1 3d 53 4c 52 be b2 4d 87 bd
       0.3452644 0.11772548 -0.20536928 -0.06606616
