models/normalizing_flow_epoch_10.pth (torch, 150970 bytes, 270 tensors)

layers.0.s_block.net.0.0.weight f4 [8, 1]
0.15577494 -0.93018657 -0.62175137 0.42285854 0.5028401 -1.2176551 -1.0029445 -0.49864575
00000000: 7783 1f3e b520 6ebf 192b 1fbf ea80 d83e
00000010: 21ba 003f 1fdc 9bbf 7c60 80bf 7f4e ffbe

layers.0.s_block.net.0.0.bias f4 [8]
-0.44367322 -0.16210897 -0.6376377 0.5465434 -1.097137 0.35412258 -0.16081645 1.0579326
00000000: 2329 e3be e5ff 25be 393c 23bf 45ea 0b3f
00000010: fc6e 8cbf 8e4f b53e 11ad 24be 566a 873f

layers.0.s_block.net.1.0.weight f4 [8, 8]
-0.067706205 0.47037846 0.14497279 -0.34923688 -0.3435785 0.31354895 0.40896755 0.09950032
0.5848038 -0.22824587 -0.08695894 0.14854111 0.35089678 -0.26531625 0.20228687 -0.1362337
0.4130911 -0.22066453 -0.035819758 -0.33815295 0.46394616 0.28200257 -0.059146594 -0.029156987
0.03474089 -1.4388669 -0.079309605 -0.08244983 -0.034690093 0.18774481 -0.5037319 0.31815836
0.099490464 0.075522594 -0.011771305 0.1208226 0.39873633 0.15032077 0.3279537 -0.19081365
0.33395842 -0.30827305 -0.46293697 0.11477245 0.6491414 0.38123658 0.35670885 -0.28450358
-0.10641553 -0.3294723 -0.64134157 -0.3958659 -0.4160887 0.6232567 0.21234219 0.52622074
0.44217128 -0.32273257 -0.41735655 -0.30035156 0.1528795 0.18287486 -0.18127337 -0.18554036
00000000: 8da9 8abd 72d5 f03e bf73 143e 2dcf b2be
00000010: 85e9 afbe 7d89 a03e 3264 d13e d3c6 cb3d
00000020: b4b5 153f 49b9 69be 8717 b2bd 291b 183e
00000030: bea8 b33e 88d7 87be 4a24 4f3e d980 0bbe
00000040: ad80 d33e e2f5 61be bdb7 12bd 6222 adbe
00000050: 5a8a ed3e a462 903e b343 72bd a2da eebc
00000060: 774c 0e3d ca2c b8bf 136d a2bd 75db a8bd
00000070: 3317 0ebd 2d40 403e 93f4 00bf a7e5 a23e
00000080: a8c1 cb3d 97ab 9a3d 6fdc 40bc d771 f73d
00000090: 2b27 cc3e b0ed 193e 8ce9 a73e a764 43be
000000a0: 99fc aa3e f7d5 9dbe 1306 edbe d10d eb3d
000000b0: 212e 263f 7131 c33e 8ba2 b63e 74aa 91be
000000c0: 63f0 d9bd 98b0 a8be f62e 24bf efae cabe
000000d0: 9409 d5be c08d 1f3f 3b70 593e 67b6 063f
000000e0: 4664 e23e 343d a5be c2af d5be aec7 99be
000000f0: 728c 1c3e 8c43 3b3e ba9f 39be 4bfe 3dbe

layers.0.s_block.net.1.0.bias f4 [8]
0.08056752 -0.39632633 -0.36759153 0.088267475 -0.33186096 -0.42868105 -0.27553073 -0.052289695
00000000: 9500 a53d 49eb cabe f534 bcbe 94c5 b43d
00000010: aee9 a9be 157c dbbe 5d12 8dbe b82d 56bd

layers.0.s_block.net.2.0.weight f4 [8, 8]
-1.0479631 -0.22192635 0.57196236 0.8998793 0.06120951 0.154375 0.51338845 0.47963676
0.44149023 0.14719391 -0.26339042 0.050716087 0.013397829 0.112705424 0.42668205 -0.38710135
-0.22904138 -0.66680336 0.062261023 0.7957229 -0.28018424 -0.14532742 0.033496674 0.3350445
-0.3026011 0.06897678 0.7259833 0.23044665 -0.08403536 0.20679161 0.15264566 0.1912829
0.26337275 -0.21496722 -0.55119395 -0.79853487 -0.514772 -1.0100574 -0.074366204 -0.4200249
0.6155834 -0.01964446 -0.77876514 -0.81065756 -0.48674482 -0.42320168 -0.005316061 -0.06679719
0.1362797 -0.2617945 -0.30277097 -0.48367336 -0.51152915 -0.74464166 -1.0426416 -0.38204703
0.36989528 -0.8945384 -0.100845896 -0.7472573 -0.17971498 -0.82269555 0.08402035 -0.4001714
00000000: a823 86bf a940 63be 206c 123f 7d5e 663f
00000010: d3b6 7a3d 7b14 1e3e 6d6d 033f f392 f53e
00000020: 020b e23e 00ba 163e 1cdb 86be acbb 4f3d
00000030: 9182 5b3c 1ad2 e63d 1276 da3e 2632 c6be
00000040: d389 6abe a0b3 2abf 6a05 7f3d 7fb4 4b3f
00000050: 4f74 8fbe b6d0 14be cf33 093d f48a ab3e
00000060: 88ee 9abe b343 8d3d 0bda 393f 35fa 6b3e
00000070: bb1a acbd 2ec1 533e 254f 1c3e aadf 433e
00000080: cbd8 863e 5e20 5cbe 0c1b 0dbf c86c 4cbf
00000090: 19c8 03bf 9049 81bf 4f4d 98bd 810d d7be
000000a0: e096 1d3f 6bed a0bc 275d 47bf 4187 4fbf
000000b0: 9e36 f9be e4ad d8be 5a32 aebb f7cc 88bd
000000c0: e88c 0b3e ee09 86be cc04 9bbe 09a4 f7be
000000d0: 93f3 02bf d6a0 3ebf 4875 85bf ab9b c3be
000000e0: ea62 bd3e 7800 65bf 4b88 cebd 414c 3fbf
000000f0: 3407 38be 2d9c 52bf dc12 ac3d 44e3 ccbe

layers.0.s_block.net.2.0.bias f4 [8]
-0.016073965 -0.33708334 0.59485567 -0.3779914 0.41151142 0.14234479 0.41240728 0.35583916
00000000: 8cad 83bc 3096 acbe 7648 183f 1788 c1be
00000010: a0b1 d23e d5c2 113e 0c27 d33e 8d30 b63e

layers.0.s_block.net.3.0.weight f4 [8, 8]
-0.022517709 0.28639212 -0.440834 0.23894292 -0.32854903 -0.16848645 -0.93001413 -0.5930753
0.0413318 -0.08624721 0.5806801 0.29810837 -0.46507326 -1.0658746 -0.18173179 -0.52299523
-0.624318 -0.4993309 -0.0074994736 -0.50148994 0.3204482 0.055287868 0.8745123 0.5824024
0.6208554 -0.13779931 0.08026856 0.6414786 -0.993875 -0.3463913 -1.26393 -0.70429265
-0.6574752 -0.60939556 0.4309412 -0.3966952 0.28356448 0.28916955 0.41977134 0.25341418
0.17775747 0.25090212 -0.05315821 0.5175288 -0.48228502 -0.39901367 -0.47213796 -0.7228387
-0.11862009 0.55591786 -0.2529346 0.21040744 -0.008405909 -0.44041127 -0.390108 -0.5629086
-0.24752471 0.5173539 -1.0017488 0.0658726 -0.13075034 0.15885343 0.42605755 0.03146263
00000000: 0f77 b8bc fda1 923e feb4 e1be 74ad 743e
00000010: 9437 a8be b687 2cbe 6815 6ebf c8d3 17bf
00000020: 894b 293d 61a2 b0bd 73a7 143f a9a1 983e
00000030: 151e eebe 946e 88bf e617 3abe 04e3 05bf
00000040: 4ed3 1fbf 4da8 ffbe 25be f5bb a561 00bf
00000050: c911 a43e 8875 623d 0ae0 5f3f 5318 153f
00000060: 61f0 1e3f 431b 0dbe d863 a43d f137 243f
00000070: 986e 7ebf 335a b1be 75c8 a1bf 864c 34bf
00000080: 4b50 28bf 5901 1cbf 53a4 dc3e a21b cbbe
00000090: 5d2f 913e 080e 943e 45ec d63e 81bf 813e
000000a0: 0e06 363e 3e76 803e 6cbc 59bd c47c 043f
000000b0: 10ee f6be 854b ccbe 11bc f1be f50b 39bf
000000c0: 17ef f2bd a250 0e3f a580 81be 0c75 573e
000000d0: f0b8 09bc 967d e1be 3cbc c7be c71a 10bf
000000e0: 1e77 7dbe 4e71 043f 4e39 80bf 37e8 863d
000000f0: 6be3 05be 79aa 223e 3724 da3e f5de 003d

layers.0.s_block.net.3.0.bias f4 [8]
-0.49993044 0.2597217 0.43173927 -0.053525783 0.31365943 -0.35154107 -0.42383707 -0.31630862
00000000: e2f6 ffbe 3efa 843e ee0c dd3e da3d 5bbd
00000010: f897 a03e 31fd b3be 2c01 d9be 34f3 a1be

layers.0.s_block.net.4.weight f4 [1, 8]
0.33590916 0.38127345 -0.5469231 0.9010353 -0.38761023 0.68194497 0.37174284 -0.4487456
00000000: 49fc ab3e 4636 c33e 2703 0cbf 40aa 663f
00000010: d974 c6be f293 2e3f 1455 be3e fcc1 e5be

layers.0.b_block.net.0.0.weight f4 [8, 1]
0.3309354 0.5084805 0.2615461 -0.24187683 -1.1217922 -0.5878165 -1.5807848 0.94251984
00000000: 5d70 a93e c72b 023f 5fe9 853e 8fae 77be
00000010: e396 8fbf 247b 16bf 2857 cabf fb48 713f

layers.0.b_block.net.0.0.bias f4 [8]
0.6524723 0.48944536 0.35120443 0.4089642 -0.6845282 0.5769857 0.7782736 -0.5462282
00000000: 6d08 273f 9598 fa3e 11d1 b33e c163 d13e
00000010: 3d3d 2fbf 56b5 133f f03c 473f 9cd5 0bbf

layers.0.b_block.net.1.0.weight f4 [8, 8]
-0.4123396 -0.16335528 -0.35428932 -0.36956555 -0.74688405 0.14625485 -0.5090314 0.08793318
-0.01797559 0.07197575 0.3937304 -0.27881747 -0.11724293 -0.661551 -0.31755957 0.34915563
0.215245 -0.036243215 -0.21612313 -0.048238788 -0.5669518 -0.37329772 0.5210527 0.29971114
-0.30316895 -0.07246856 0.1633669 -0.5296752 -0.6143519 -0.39777184 -0.11730389 0.35411227
-0.2297715 -1.7046126 -0.64850825 0.24215703 0.9410643 -0.19955562 0.419947 -0.51075387
0.08750215 -0.09232624 -0.27829066 -0.36336178 0.3399247 -0.43301696 0.22854525 0.34447068
0.38358843 -0.03739629 0.32290187 0.25706035 -0.3048302 0.14807531 -0.7965097 -0.6360967
0.20712079 -0.99891156 -0.24186929 0.356738 -0.95433617 0.13564993 0.33176938 -0.1784325
00000000: 2d1e d3be 9b46 27be 6965 b5be b237 bdbe
00000010: cb33 3fbf d5c3 153e e24f 02bf 5016 b43d
00000020: 8b41 93bc 0668 933d 0897 c93e 2ac1 8ebe
00000030: 101d f0bd 685b 29bf 2b97 a2be 87c4 b23e
00000040: 2f69 5c3e c473 14bd 624f 5dbe 0996 45bd
00000050: c123 11bf e120 bfbe b663 053f bd73 993e
00000060: f638 9bbe 656a 94bd a749 273e cb98 07bf
00000070: 2b46 1dbf c0a8 cbbe 063d f0bd 344e b53e
00000080: 3849 6bbe bf30 dabf a304 26bf 03f8 773e
00000090: 97e9 703f 4f58 4cbe 4b03 d73e c4c0 02bf
000000a0: 5434 b33d 8a15 bdbd 1d7c 8ebe 8e0a babe
000000b0: 9c0a ae3e 66b4 ddbe c407 6a3e 765e b03e
000000c0: b465 c43e da2c 19bd 6553 a53e 6a9d 833e
000000d0: b412 9cbe 0ea1 173e 0fe8 4bbf 3cd7 22bf
000000e0: 7917 543e abb8 7fbf 95ac 77be 5da6 b63e
000000f0: 604f 74bf d1e7 0a3e addd a93e 02b7 36be

layers.0.b_block.net.1.0.bias f4 [8]
-0.067366496 0.09504663 0.39577404 -0.24166775 -0.46160346 -0.46460915 -0.15747713 0.11298896
00000000: 72f7 89bd cfa7 c23d e5a2 ca3e c077 77be
00000010: 4a57 ecbe 40e1 edbe af41 21be c266 e73d

layers.0.b_block.net.2.0.weight f4 [8, 8]
0.18434271 0.4282017 -0.22470853 0.46402052 0.06301363 0.32641423 -0.4485007 -1.0634695
-0.38519728 0.43667373 0.43161595 0.030946784 -0.60416794 0.021965578 -0.6211185 0.27809834
-0.118360765 0.57970876 0.4940388 -0.0054542427 -0.28439176 -0.08376127 -0.59157467 -0.18147497
-0.111380175 -0.18738991 0.05714584 0.1042887 -0.46965632 0.5723901 0.16766952 -0.26434436
-0.1299322 0.41046333 0.061357602 -0.27975693 -0.5710937 -0.24133281 -0.7907189 -0.20576172
0.36640888 -0.40020257 0.012181963 0.5726062 -0.6732039 0.4980678 0.51080275 0.6108189
-0.4451965 0.07740195 0.26839355 -0.19310966 0.35856956 0.35142392 0.7475665 -0.10963438
0.34595868 0.34755003 -0.027372302 0.3888752 -0.6912205 0.43969083 0.42754337 0.77341616
00000000: 56c4 3c3e 413d db3e fe19 66be 1994 ed3e
00000010: 4a0d 813d c41f a73e e2a1 e5be c51f 88bf
00000020: 9438 c5be b393 df3e c4fc dc3e 1c84 fd3c
00000030: c0aa 1abf 28f1 b33c 9f01 1fbf e862 8e3e
00000040: 2167 f2bd cb67 143f a7f2 fc3e 81b9 b2bb
00000050: cc9b 91be 078b abbd 7071 17bf 93d4 39be
00000060: 4a1b e4bd 24e3 3fbe c211 6a3d 5095 d53d
00000070: cb76 f0be 2888 123f 8fb1 2b3e 2558 87be
00000080: f20c 05be 4028 d23e 1c52 7b3d 4d3c 8fbe
00000090: 3233 12bf f31f 77be 8e6c 4abf 33b3 52be
000000a0: f299 bb3e 5ae7 ccbe db96 473c 5296 123f
000000b0: 1757 2cbf be02 ff3e f8c3 023f a15e 1c3f
000000c0: ccf0 e3be ea84 9e3d e16a 893e 8abe 45be
000000d0: 6e96 b73e d6ed b33e 8560 3f3f fd87 e0bd
000000e0: 7f21 b13e 14f2 b13e e13b e0bc a61a c73e
000000f0: d4f3 30bf 281f e13e f7e6 da3e 9afe 453f

layers.0.b_block.net.2.0.bias f4 [8]
-0.46432784 0.04973722 0.03656461 -0.32618877 0.27426964 -0.038719296 -0.015559826 -0.06604297
00000000: 61bc edbe 41b9 4b3d c6c4 153d 3702 a7be
00000010: 126d 8c3e 2098 1ebd a4ee 7ebc 8941 87bd

layers.0.b_block.net.3.0.weight f4 [8, 8]
-0.17605546 -0.41396716 -0.7106394 0.11691059 -0.3421558 0.6051204 -0.0014191371 0.2901815
-0.83024937 -0.019744324 0.33264345 -0.31338727 0.4796123 -0.76946247 -0.5566622 -1.1677083
-0.29588988 -0.70835906 -0.14211793 -0.26009718 -0.22594701 0.094836935 -0.23782365 0.02182778
0.36552587 0.15408002 0.674446 0.09016411 0.28942207 0.079892464 -0.6045859 -0.31277016
-0.45510283 0.6586974 0.7297731 -0.14037871 0.52483207 -0.2203933 -0.5033814 0.15480115
0.31981456 0.21964015 0.12480357 0.06452061 -0.20265606 -0.13474819 -0.20559877 -0.3747511
-0.29340968 -0.38538012 0.13580805 0.21169713 0.07629828 0.03427045 0.13807444 0.37084478
-0.1966962 0.26956847 -0.010042212 0.4816838 -0.035158575 0.021066498 -0.55057466 0.05363853
00000000: e247 34be 81f3 d3be 77ec 35bf d26e ef3d
00000010: 0c2f afbe 2ce9 1a3f 5702 baba ab92 943e
00000020: 398b 54bf d9be a1bc 3e50 aa3e 4c74 a0be
00000030: be8f f53e 7efb 44bf 6a81 0ebf 7777 95bf
00000040: e17e 97be 0557 35bf 5d87 11be 752b 85be
00000050: a75e 67be de39 c23d 0b88 73be 2cd0 b23c
00000060: 3526 bb3e 27c7 1d3e 7ea8 2c3f f6a7 b83d
00000070: 212f 943e a99e a33d 24c6 1abf 6923 a0be
00000080: 3d03 e9be 65a0 283f 69d2 3a3f 70bf 0fbe
00000090: 655b 063f c8ae 61be 9add 00bf 3184 1e3e
000000a0: bcbe a33e 59e9 603e 0499 ff3d 6223 843d
000000b0: 1285 4fbe 6efb 09be 7c88 52be 60df bfbe
000000c0: cb39 96be 8b50 c5be 4411 0b3e 22c7 583e
000000d0: 4642 9c3d 2c5f 0c3d 6363 0d3e 5edf bd3e
000000e0: bb6a 49be e104 8a3e 1788 24bc 429f f63e
000000f0: 7002 10bd a693 ac3c 76f2 0cbf 13b4 5b3d

layers.0.b_block.net.3.0.bias f4 [8]
-0.33740973 0.4163152 -0.24676904 0.22962457 0.17433527 -0.4197855 0.124660805 -0.19808815
00000000: f8c0 acbe 4427 d53e 06b1 7cbe b422 6b3e
00000010: f284 323e 20ee d6be 2a4e ff3d 9fd7 4abe

layers.0.b_block.net.4.weight f4 [1, 8]
0.7075478 -0.61142415 0.22836836 -0.08704709 -0.4691613 -0.17651677 0.34564796 0.24339592
00000000: da21 353f 4b86 1cbf 65d9 693e bf45 b2bd
00000010: e935 f0be d0c0 34be c5f8 b03e c83c 793e

layers.2.s_block.net.0.0.weight f4 [8, 1]
1.0635985 -0.09832286 0.9803374 0.37750378 0.1437076 -0.89950836 -0.7684667 0.90006095
00000000: ff23 883f 7f5d c9bd 64f7 7a3f 2d48 c13e
00000010: 1628 133e 2e46 66bf 3cba 44bf 656a 663f

layers.2.s_block.net.0.0.bias f4 [8]
-0.5291268 -0.420425 -0.044585705 0.87751067 -1.2182068 0.32909134 -1.1057131 1.1480281
00000000: db74 07bf f241 d7be 809f 36bd 8aa4 603f
00000010: 33ee 9bbf a97e a83e 0288 8dbf 96f2 923f

layers.2.s_block.net.1.0.weight f4 [8, 8]
-0.07425527 -0.07318652 0.26743525 0.25372443 0.14008713 0.5134284 -0.7751707 -0.41359207
0.49794018 -0.012512115 0.38732144 -0.0059565427 0.24423319 0.3307984 -0.5266972 -0.8263095
0.7165055 0.10275863 -0.12839997 -0.24999237 0.18012814 -0.046404306 -0.022108642 -0.37366763
-0.65389884 0.35646647 -0.46134064 0.011354712 -0.4191892 -0.281296 0.75738037 -0.050392736
0.03552505 0.018204447 0.41761208 -0.21423185 0.42767233 0.21500875 -0.071716525 0.050773792
-0.13271277 -0.111677416 0.14912635 -0.25314742 -0.08540153 -0.17096107 0.3345513 -0.04402841
0.75032455 0.51258665 0.55735296 0.11838209 0.54592323 0.5090645 -0.37377107 0.0191391
-0.2597545 -0.15865389 -0.365129 0.2622653 -0.7523108 0.24873702 0.07307496 0.36901993
00000000: 2613 98bd d0e2 95bd 46ed 883e 2be8 813e
00000010: 0073 0f3e 0b70 033f 9671 46bf 57c2 d3be
00000020: 04f2 fe3e 9dff 4cbc ff4e c63e 1a2f c3bb
00000030: 4418 7a3e 685e a93e a1d5 06bf 0589 53bf
00000040: e86c 373f 1e73 d23d 487b 03be 00fe 7fbe
00000050: 8373 383e 7112 3ebd 2f1d b5bc 5d51 bfbe
00000060: ea65 27bf c682 b63e d734 ecbe 1d09 3a3c
00000070: f89f d6be 0806 90be aee3 413f 9d68 4ebd
00000080: b782 113d 7e21 953c 40d1 d53e 985f 5bbe
00000090: def7 da3e 412b 5c3e 1de0 92bd 2ef8 4f3d
000000a0: dbe5 07be 21b7 e4bd 94b4 183e 8a9c 81be
000000b0: ffe6 aebd 6b10 2fbe 4f4a ab3e 2257 34bd
000000c0: 4515 403f e138 033f afae 0e3f 4f72 f23d
000000d0: a0c1 0b3f 0d52 023f ec5e bfbe 9ac9 9c3c
000000e0: 8bfe 84be 2a76 22be 30f2 babe a347 863e
000000f0: 7197 40bf ebb4 7e3e 53a8 953d 2ef0 bc3e

layers.2.s_block.net.1.0.bias f4 [8]
0.11240107 -0.32291332 0.109250695 0.17193274 -0.66766584 0.11564026 -0.12978368 0.610633
00000000: 8832 e63d e554 a5be d4be df3d 230f 303e
00000010: 26ec 2abf cdd4 ec3d 03e6 04be 7252 1c3f

layers.2.s_block.net.2.0.weight f4 [8, 8]
-0.17435881 0.34639123 -0.18721782 0.02831287 0.21135566 0.25265998 0.21279567 -0.64615303
0.26969117 0.56675965 0.34249067 0.062247727 -0.35607857 0.08226222 0.5231747 -0.33667687
-0.105624475 0.8418103 0.048779596 -0.489668 0.081479415 -0.14116503 -0.3093706 0.18913682
0.063136436 -1.0246141 0.033064887 -0.26834533 -1.131171 0.09589712 0.5152575 0.07676322
0.3587075 0.8793142 0.061277024 -0.608169 0.62843007 -0.34261128 0.08104948 -0.40804237
-0.2906534 0.43552023 0.11355124 0.07233734 0.7459365 0.010767009 0.10834554 -1.1464452
-0.21446255 -0.25794518 -0.051718146 0.34813517 0.6032352 0.06381744 -0.4037562 -0.16416055
0.02928176 0.259922 -0.08190026 0.079943284 0.09755894 0.19152455 -0.23713927 -0.103972815
00000000: 1e8b 32be 315a b13e 07b6 3fbe 64f0 e73c
00000010: 9e6d 583e a65c 813e 1ce7 593e 496a 25bf
00000020: f614 8a3e 2917 113f f05a af3e 79f7 7e3d
00000030: ee4f b6be 1879 a83d c7ee 053f e960 acbe
00000040: a551 d8bd e180 573f 1dcd 473d c4b5 fabe
00000050: aede a63d 918d 10be d365 9ebe 15ad 413e
00000060: ad4d 813d 8e26 83bf 0c6f 073d 8f64 89be
00000070: 36ca 90bf b665 c43d eae7 033f 0936 9d3d
00000080: 82a8 b73e bc1a 613f 9efd 7a3d f7b0 1bbf
00000090: cbe0 203f bf6a afbe 45fd a53d eeea d0be
000000a0: 86d0 94be 82fc de3e 8d8d e83d 9925 943d
000000b0: b2f5 3e3f 1c68 303c 44e4 dd3d b7be 92bf
000000c0: 129c 5bbe 6411 84be 68d6 53bd c63e b23e
000000d0: 9f6d 1a3f b8b2 823d 22b9 cebe b419 28be
000000e0: 4de0 ef3c 7f14 853e 53bb a7bd 4eb9 a33d
000000f0: fbcc c73d 031f 443e a3d4 72be b3ef d4bd

layers.2.s_block.net.2.0.bias f4 [8]
-0.14745113 0.27786985 0.2754324 0.054846745 0.003366326 -0.30074817 0.011661909 -0.16255444
00000000: 6efd 16be f544 8e3e 7a05 8d3e fba6 603d
00000010: 949d 5c3b aafb 99be 9711 3f3c ac74 26be

layers.2.s_block.net.3.0.weight f4 [8, 8]
-0.27985218 0.2430677 0.1411731 -0.4142666 0.6284013 -1.069174 0.16085368 0.029650496
-0.24995288 -0.07019424 -0.21917143 0.38555706 -0.15052532 0.27353418 -0.34538198 -0.14231056
-0.060736053 -0.45849782 0.4018149 -0.57725614 0.12136569 -0.16315632 0.29529774 -0.26991782
0.29217806 -0.19527724 -0.06503874 -0.323445 0.33556247 0.96058345 0.512897 0.26998043
-0.44530573 0.18224484 0.082512446 0.9946015 -0.6110695 -0.23885623 0.2871361 -0.16945383
0.24898456 -0.055011008 0.3967476 -0.59052396 0.3739889 -0.5230437 -0.086801596 0.35306627
-0.067960225 0.2777932 0.23989633 -0.11839231 0.6885216 -1.0081341 -0.38080397 -0.0047086054
0.0877459 0.105103716 -0.12168537 0.39101544 -0.0019514955 0.63291794 -0.16067058 -0.13494743
00000000: c948 8fbe bde6 783e ae8f 103e c01a d4be
00000010: e8de 203f b2da 88bf d4b6 243e 99e5 f23c
00000020: a6f3 7fbe ffc1 8fbd 7a6e 60be bc67 c53e
00000030: 4f23 1abe ac0c 8c3e e8d5 b0be dcb9 11be
00000040: 5ec6 78bd 3ac0 eabe afba cd3e 0fc7 13bf
00000050: 938e f83d 7312 27be 4431 973e ab32 8abe
00000060: 5d98 953e c2f6 47be 0833 85bd 959a a5be
00000070: d8ce ab3e cce8 753f 384d 033f e03a 8a3e
00000080: 1dff e3be 649e 3a3e 49fc a83d 349e 7e3f
00000090: 0d6f 1cbf ba96 74be 8103 933e 4e85 2dbe
000000a0: cff5 7e3e 3953 61bd 8022 cb3e 942c 17bf
000000b0: 797b bf3e 31e6 05bf 09c5 b1bd 1ac5 b43e
000000c0: bb2e 8bbd e93a 8e3e 62a7 753e ab77 f2bd
000000d0: f442 303f 8a0a 81bf bdf8 c2be a54a 9abb
000000e0: 1fb4 b33d 9e40 d73d 2e36 f9bd 2d33 c83e
000000f0: 53c9 ffba e906 223f d486 24be a92f 0abe

layers.2.s_block.net.3.0.bias f4 [8]
-0.017832993 -0.20272656 0.25929603 -0.2490514 0.3860545 0.14721102 -0.1968756 0.19941922
00000000: 7f16 92bc 8d97 4fbe 73c2 843e 5507 7fbe
00000010: efa8 c53e 7cbe 163e c299 49be 8d34 4c3e

layers.2.s_block.net.4.weight f4 [1, 8]
0.64217544 -0.31819057 0.35868588 -0.56286055 -0.4098592 0.5097771 0.8802131 -0.19599573
00000000: 9c65 243f e0e9 a2be ada5 b73e a117 10bf
00000010: 11d9 d1be c180 023f a555 613f 1bb3 48be

layers.2.b_block.net.0.0.weight f4 [8, 1]
1.1231117 0.92103416 0.8193111 -0.66335285 -0.10631204 -0.108611636 -0.5032691 -0.8813823
00000000: 20c2 8f3f e5c8 6b3f 5fbe 513f 7ed1 29bf
00000010: 20ba d9bd c76f debd 3ed6 00bf 45a2 61bf

layers.2.b_block.net.0.0.bias f4 [8]
-0.51237637 0.9009243 0.36286032 1.1592389 -1.0495416 -0.9324496 -0.5407275 -0.036770564
00000000: 192b 03bf faa2 663f d4c8 b93e f161 943f
00000010: 6157 86bf 04b5 6ebf 1e6d 0abf bb9c 16bd

layers.2.b_block.net.1.0.weight f4 [8, 8]
-0.057058897 0.23252463 0.2201118 0.13709371 0.03796386 -0.20434356 -1.0167257 -0.32855645
0.4558235 -0.14563766 0.2880845 -0.15288123 0.09739719 0.2541868 0.1871006 0.17978287
-0.7775372 -0.20947863 0.07880044 0.17161374 -0.18772441 0.14251408 -0.3137414 -0.19291899
-0.94443434 0.13807803 -0.0055381316 0.29021707 -0.5043271 -0.25664857 0.11340494 -0.3579649
0.014586917 -0.65057665 -0.8835653 0.3070074 -0.037328403 0.044620734 -0.21864697 -0.09726919
-0.0955556 -0.6330215 -0.048354294 0.22619583 0.23132218 -0.108572476 -0.47670305 -0.0031408314
-0.4168087 -0.35958916 -0.20737313 -0.022883179 0.054085415 0.22295587 0.092020236 -0.103434354
-0.12099483 0.32775524 0.25042447 -0.44975656 0.040450495 -0.08453187 -0.032520447 -0.15747273
00000000: 97b6 69bd f01a 6e3e fd64 613e 4b62 0c3e
00000010: fe7f 1b3d 703f 51be 1124 82bf 8d38 a8be
00000020: b361 e93e 0a22 15be d07f 933e e68c 1cbe
00000030: 2e78 c73d c624 823e 4d97 3f3e 0019 383e
00000040: ae0c 47bf 9181 56be 2062 a13d 83bb 2f3e
00000050: d43a 40be 36ef 113e b6a2 a0be 8e8c 45be
00000060: 73c6 71bf 5464 0d3e 3779 b5bb 5597 943e
00000070: 951b 01bf 7167 83be d940 e83d 2d47 b7be
00000080: f7fd 6e3c 318c 26bf 5631 62bf 1330 9d3e
00000090: abe5 18bd 3bc4 363d fee4 5fbe 1235 c7bd
000000a0: a8b2 c3bd b20d 22bf 270f 46bd e19f 673e
000000b0: b9df 6c3e 3f5b debd 6c12 f4be 68d6 4dbb
000000c0: f367 d5be 121c b8be 9f59 54be 8175 bbbc
000000d0: ab88 5d3d 8b4e 643e 1b75 bc3d 64d5 d3bd
000000e0: 23cc f7bd 89cf a73e a337 803e 7e46 e6be
000000f0: 6baf 253d 0c1f adbd 2934 05bd 8840 21be

layers.2.b_block.net.1.0.bias f4 [8]
0.31556082 0.17911369 -0.18387456 0.51809484 0.038700864 0.38747358 -0.14302042 0.23639579
00000000: 3091 a13e 9469 373e 9d49 3cbe dda1 043f
00000010: cc84 1e3d f062 c63e f273 12be bd11 723e

layers.2.b_block.net.2.0.weight f4 [8, 8]
-0.06363546 0.32790798 -0.32916805 -0.643917 0.07196019 0.24572936 -0.010414548 0.16351269
0.43831196 0.18471068 -0.054855704 0.42838854 0.06624247 -0.3868903 -0.2772984 -0.037447885
-0.49834752 0.13791242 0.2732188 0.05186086 -0.1116136 0.2685747 -0.23570953 -0.9092252
-0.21311861 0.19024013 -0.38725635 -0.890981 -0.17646587 -0.033547312 -0.29009315 0.1637314
-0.45218036 0.202301 0.047354527 -0.04277016 -0.2389056 0.3108984 -0.22411552 -0.31706914
-0.14363308 -0.11100793 0.41313148 0.5659539 -0.55259335 -0.45074353 -0.053695958 0.11590696
0.34723452 0.4139861 -0.72933286 -0.24785371 0.13862613 -0.06608049 -0.17020845 0.63852775
0.065585405 -0.23345852 0.046727307 0.014254385 0.5105985 0.8616083 -0.2668278 -0.69893616
00000000: 4f53 82bd 8ee3 a73e b788 a8be bfd7 24bf
00000010: dd5f 933d 7aa0 7b3e c8a1 2abc df6f 273e
00000020: 6d6a e03e cc24 3d3e 60b0 60bd be55 db3e
00000030: 22aa 873d 7c16 c6be 0efa 8dbe f462 19bd
00000040: 6827 ffbe ea38 0d3e 56e3 8b3e 0e6c 543d
00000050: ac95 e4bd a082 893e d75d 71be fcc2 68bf
00000060: c43b 5abe 4fce 423e 7746 c6be 5517 64bf
00000070: 78b3 34be e868 09bd 1787 94be 34a9 273e
00000080: 2f84 e7be fe27 4f3e d2f6 413d c32f 2fbd
00000090: aba3 74be 132e 9f3e 8a7e 65be e356 a2be
000000a0: 8d14 13be 2058 e3bd f885 d33e 5be2 103f
000000b0: c276 0dbf dbc7 e6be 4bf0 5bbd a160 ed3d
000000c0: b9c8 b13e fcf5 d33e 8fb5 3abf 5dcd 7dbe
000000d0: 02f4 0d3e 3555 87bd 204b 2ebe 8e76 233f
000000e0: a451 863d c00f 6fbe 2265 3f3d 398b 693c
000000f0: 95b6 023f 5d92 5c3f a79d 88be 7bed 32bf

layers.2.b_block.net.2.0.bias f4 [8]
-0.40949145 -0.24367781 0.328039 -0.13700658 -0.22978204 0.22152856 0.14318675 0.28865048
00000000: dda8 d1be ad86 79be baf4 a73e 744b 0cbe
00000010: fc4b 6bbe 62d8 623e 8c9f 123e ffc9 933e

layers.2.b_block.net.3.0.weight f4 [8, 8]
-0.032731738 0.033642355 0.116501056 -0.05284835 0.060286876 0.30258137 -0.11310796 -0.43155757
-0.037362576 -0.33960223 -0.20202242 -0.4588994 0.062009137 -0.486007 0.34651318 0.6148861
0.185958 -0.09724873 -0.25429642 0.012347368 -0.0009652238 -0.13182205 -0.20443963 0.09667425
-0.67204595 0.08950583 0.15486962 -0.27333182 -0.3462152 -0.31207812 0.56548494 0.32235172
-0.08378108 0.40145317 -0.8695018 0.42194524 -0.23134151 0.3597959 -0.5812682 -0.7765322
0.096432395 0.084233515 0.20767666 0.04459788 0.17946559 0.18332317 -0.32283628 -0.33316183
-0.14255805 -0.659893 -0.15667233 0.06508299 -0.3425452 -1.2230169 0.19286457 0.59841377
0.4352814 0.11195507 -0.17201073 -0.19277994 -0.28966922 0.011442341 -0.17467508 0.217436
00000000: b711 06bd 91cc 093d 1b98 ee3d 8377 58bd
00000010: 5fef 763d f2eb 9a3e 25a5 e7bd 1df5 dcbe
00000020: 8009 19bd 58e0 adbe f7de 4ebe ddf4 eabe
00000030: 4bfd 7d3d e9d5 f8be 2d6a b13e 2d69 1d3f
00000040: c66b 3e3e 582a c7bd 2433 82be 9d4c 4a3c
00000050: 1307 7dba 5cfc 06be 9f58 51be 26fd c53d
00000060: 340b 2cbf d54e b73d 2496 1e3e 26f2 8bbe
00000070: 1e43 b1be b4c8 9fbe 9fc3 103f 490b a53e
00000080: 6a95 abbd 458b cd3e ac97 5ebf 3509 d83e
00000090: cae4 6cbe 2b37 b83e fecd 14bf d0ca 46bf
000000a0: 597e c53d 9f82 ac3d 31a9 543e 44ac 363d
000000b0: d4c5 373e 12b9 3b3e cc4a a5be 3094 aabe
000000c0: bdfa 11be bfee 28bf b66e 20be 3b4a 853d
000000d0: 1662 afbe d18b 9cbf 4a7e 453e a531 193f
000000e0: 34dd de3e b348 e53d 9523 30be 1b68 45be
000000f0: 864f 94be a878 3b3c 06de 32be 8ba7 5e3e

layers.2.b_block.net.3.0.bias f4 [8]
-0.2193911 -0.12828743 -0.04318335 0.23685987 0.12881331 -0.18736652 -0.30730015 -0.2782047
00000000: 0fa8 60be c85d 03be 06e1 30bd 658b 723e
00000010: a3e7 033e 02dd 3fbe 7256 9dbe d970 8ebe

layers.2.b_block.net.4.weight f4 [1, 8]
0.11871354 -0.41393223 -0.0066163195 -0.47850734 0.71984625 0.1091553 -0.3412627 0.28580168
00000000: 1620 f33d edee d3be b6cd d8bb eafe f4be
00000010: d847 383f d08c df3d fcb9 aebe 9954 923e

layers.4.s_block.net.0.0.weight f4 [8, 1]
0.6848893 -0.5917673 -0.90665054 -0.3317859 0.8156168 -0.48371586 -0.42251801 0.7037381
00000000: e854 2f3f 107e 17bf 401a 68bf d7df a9be
00000010: 43cc 503f 9ba9 f7be 4854 d8be 2e28 343f

layers.4.s_block.net.0.0.bias f4 [8]
0.7533416 -0.73070145 0.28058836 -0.49976188 1.0165094 0.8911348 0.8062746 -0.89430296
00000000: ffda 403f 400f 3bbf 47a9 8f3e cae0 ffbe
00000010: fb1c 823f 6921 643f 0368 4e3f 0af1 64bf

layers.4.s_block.net.1.0.weight f4 [8, 8]
-0.403519 -0.051030196 0.10740113 -0.11480367 -0.036641616 0.03457737 -0.16929285 0.60139966
-0.48381317 -0.11090888 0.4567646 -0.4302534 -0.8104029 0.19155939 0.16184397 -0.240554
0.24234398 -0.20046721 -0.06327526 -0.05576486 -0.1565152 -0.4472251 -0.4736503 -0.51986164
0.10120332 -0.21579567 0.1628073 0.088106334 0.10503086 0.11916227 0.1706034 -0.19743732
-0.68122846 -0.3962931 0.07321697 -0.42310357 -0.37228623 0.14514056 -0.26853552 0.12174792
0.2902197 0.06873082 -0.23137495 -0.23654689 -0.16059916 0.15427399 0.2893561 -0.38439202
0.006782945 0.10090591 -0.007821187 0.09755068 0.35767776 0.43720353 0.2667513 -0.61108387
0.06270596 -0.6297491 -0.060094256 -0.14124724 -0.15833132 -0.21216892 0.38430524 -0.10480243
00000000: 0b9a cebe 0a05 51bd 20f5 db3d 301e ebbd
00000010: 8515 16bd 00a1 0d3d 1b5b 2dbe 54f5 193f
00000020: 5cb6 f7be 3224 e3bd 0ddd e93e 2c4a dcbe
00000030: 9176 4fbf 2528 443e 6dba 253e ca53 76be
00000040: 0529 783e 4747 4dbe 7696 81bd b269 64bd
00000050: 8545 20be b0fa e4be 4b82 f2be a715 05bf
00000060: b043 cf3d 8af9 5cbe f5b6 263e 1871 b43d
00000070: 6b1a d73d 590b f43d a8b2 2e3e 022d 4abe
00000080: fd64 2ebf eee6 cabe c7f2 953d 08a1 d8be
00000090: 4d9c bebe ba9f 143e 7d7d 89be f956 f93d
000000a0: ad97 943e bfc2 8c3d 8eed 6cbe 5939 72be
000000b0: 1b74 24be 00fa 1d3e 7c26 943e 08cf c4be
000000c0: 7743 de3b c2a7 ce3d 7024 00bc a7c8 c73d
000000d0: 8a21 b73e 24d9 df3e a093 883e fe6f 1cbf
000000e0: fb6b 803d 3d37 21bf 6525 76bd 1ea3 10be
000000f0: 9b21 22be cf42 59be a8c3 c43e a8a2 d6bd

layers.4.s_block.net.1.0.bias f4 [8]
0.051340774 0.25297496 0.051872708 0.3735457 0.17646775 -0.12654656 0.14343636 -0.053486463
00000000: b44a 523d ef85 813e 7a78 543d 6241 bf3e
00000010: f6b3 343e 6c95 01be fbe0 123e 9f14 5bbd

layers.4.s_block.net.2.0.weight f4 [8, 8]
-0.39518005 -0.03288928 0.116844706 -0.044508845 -0.624834 -0.21545349 0.0071014264 -0.31742808
-0.37811446 -1.1145135 0.22318433 0.3261099 -0.4173619 0.08317677 0.4148601 0.018847138
0.096540734 -0.6923565 0.26957765 0.237004 0.35400268 0.033689052 0.30089173 0.1344555
0.37364635 0.38763383 -0.18308297 -0.2763235 -0.19728224 0.2332905 -0.0987 -0.23450954
0.063125215 -0.05408798 0.029959625 -0.3113278 0.17529108 -0.22388597 -0.3224059 0.33321306
-0.023614164 0.30606046 -0.28977886 -0.2517772 -0.3198483 0.35453182 -0.23706855 -0.09050161
0.0222115 -0.004052257 -0.28089407 -0.23562403 -0.057274554 -0.12650931 -0.30154988 0.41912383
-0.09799337 -0.6565604 0.21096492 0.3118933 0.20789032 0.165882 0.24316621 -0.07453904
00000000: 0a55 cabe e9b6 06bd 474c ef3d e84e 36bd
00000010: 1ff5 1fbf d79f 5cbe 15b3 e83b ef85 a2be
00000020: 3898 c1be 61a8 8ebf 6f8a 643e e0f7 a63e
00000030: 75b0 d5be 9558 aa3d 8b68 d43e 5065 9a3c
00000040: 26b7 c53d 473e 31bf 1506 8a3e 2db1 723e
00000050: d73f b53e 88fd 093d 7b0e 9a3e b4ae 093e
00000060: 934e bf3e f177 c63e 1a7a 3bbe 467a 8dbe
00000070: 5b04 4abe b4e3 6e3e 3a23 cabd 4523 70be
00000080: cb47 813d 5c8b 5dbd e36d f53c 5b66 9fbe
00000090: 817f 333e 5d42 65be 6312 a5be e79a aa3e
000000a0: 7e72 c1bc f5b3 9c3e e55d 94be f1e8 80be
000000b0: 28c3 a3be 3285 b53e 19c2 72be e858 b9bd
000000c0: e4f4 b53c ccc8 84bb 59d1 8fbe 6d47 71be
000000d0: b998 6abd a88b 01be bf64 9abe 6697 d63e
000000e0: bfb0 c8bd 5814 28bf 3007 583e 7bb0 9f3e
000000f0: 33e1 543e f9dc 293e 9000 793e eda7 98bd

layers.4.s_block.net.2.0.bias f4 [8]
-0.018963043 0.10944096 0.027572539 -0.21292251 0.030247558 0.0982343 0.027965127 0.0037958054
00000000: 6258 9bbc 9522 e03d cedf e13c 5c08 5abe
00000010: bac9 f73c 112f c93d 1f17 e53c 0cc3 783b

layers.4.s_block.net.3.0.weight f4 [8, 8]
-0.26338342 0.08090345 -0.17976305 0.31043103 0.32774225 0.16097444 -0.2632557 0.07622998
0.054372028 0.0049857222 0.16834114 0.105242416 0.3457131 0.3977786 -0.14721239 0.21245539
0.13469745 -0.4572957 0.023321861 -0.28521258 -0.33851758 -0.19332427 0.32625377 0.031892464
-0.17956817 0.14539076 -0.26386186 0.21704292 0.06883589 -0.06953834 0.1514169 0.21045592
0.24197052 0.34496042 0.15148722 -0.32138857 0.40474367 -0.22030927 0.26823255 0.40761757
-0.3458246 0.13950785 0.3799962 0.033525955 0.377791 -0.08667926 0.11071934 0.45984656
-0.35574916 0.15923889 -0.22117408 -0.104045846 0.35119098 0.11553037 -0.1262949 -0.06150434
-0.1838566 0.123353794 0.06965733 -0.08229645 0.122985646 0.3899965 0.3062117 -0.25979444
00000000: 31da 86be b5b0 a53d ce13 38be d1f0 9e3e
00000010: d5cd a73e 7cd6 243e 73c9 86be 771e 9c3d
00000020: 34b5 5e3d 455f a33b 9f61 2c3e 5689 d73d
00000030: 4f01 b13e a3a9 cb3e d8be 16be e88d 593e
00000040: 21ee 093e a922 eabe 7d0d bf3c 6207 92be
00000050: 2d52 adbe ccf6 45be bc0a a73e aca1 023d
00000060: b8e0 37be 51e1 143e e718 87be 8040 5e3e
00000070: d5f9 8c3d 1e6a 8ebd 080d 1b3e c281 573e
00000080: 1fc7 773e a79e b03e 771f 1b3e 0b8d a4be
00000090: 903a cf3e c198 61be c755 893e 40b3 d03e
000000a0: ec0f b1be 25db 0e3e dd8e c23e 8352 093d
000000b0: d26d c13e e584 b1bd d2c0 e23d 0271 eb3e
000000c0: c124 b6be 850f 233e 757b 62be fd15 d5bd
000000d0: 4ecf b33e 309b ec3d 7353 01be faeb 7bbd
000000e0: e844 3cbe eaa0 fc3d 81a8 8e3d 0b8b a8bd
000000f0: e6df fb3d 9fad c73e c8c7 9c3e c703 85be

layers.4.s_block.net.3.0.bias f4 [8]
-0.031609908 -0.2518629 -0.24488322 -0.118122004 0.003863144 0.0023171152 -0.00024989218 -0.020807642
00000000: 6479 01bd 2df4 80be abc2 7abe f3e9 f1bd
00000010: cd2c 7d3b beda 173b f603 83b9 ca74 aabc

layers.4.s_block.net.4.weight f4 [1, 8]
-0.012125309 0.12429509 -0.17080633 0.117196694 0.37695494 0.24136178 0.0036879675 0.008258087
00000000: 3ba9 46bc 6d8e fe3d dbe7 2ebe d204 f03d
00000010: 3d00 c13e 8b27 773e d4b1 713b ed4c 073c

layers.4.b_block.net.0.0.weight f4 [8, 1]
-0.4864288 -0.47409248 0.09845777 -0.73422575 0.115983956 0.6611526 -0.4047554 -0.07466
00000000: 320d f9be 40bc f2be 3aa4 c93d 38f6 3bbf
00000010: ff88 ed3d 4c41 293f 1a3c cfbe 58e7 98bd

layers.4.b_block.net.0.0.bias f4 [8]
-0.47212675 -0.45104605 1.0528889 0.024075571 -0.24544843 0.08489604 -0.38490885 -0.6276873
00000000: 99ba f1be 82ef e6be 10c5 863f 223a c53c
00000010: d556 7bbe fadd ad3d c612 c5be 1db0 20bf

layers.4.b_block.net.1.0.weight f4 [8, 8]
0.27459258 0.5839866 -0.09017315 0.29829037 -0.25713682 -0.03227676 0.75085306 -0.0954599
-0.0008445473 0.6502496 0.30628958 0.4288272 0.08516353 -0.31178528 0.20529549 -0.40975064
-0.010952869 0.4557819 0.16110955 -0.16946314 -0.19760048 -0.60801023 -0.011818814 -0.113185264
-1.1200085 -1.0520127 -0.043594327 -0.05225835 0.05737496 0.5233107 -0.6925897 -0.09545009
-0.37535825 -0.31315655 -0.039844636 -0.1875813 -0.13929586 -0.74144906 -0.08742393 0.10066508
0.38277188 -0.020601824 -0.39402685 -0.10358085 0.3560777 0.34843886 0.14047886 -0.11636424
0.33476225 0.038898565 0.20019782 -0.24780339 0.047397666 -0.2996679 0.24166931 0.15584788
0.34481108 0.24690188 0.5033915 -0.25226024 0.019425778 -0.48764634 0.60032773 0.0032577752
00000000: 6697 8c3e 2580 153f b3ac b8bd 84b9 983e
00000010: 70a7 83be a334 04bd e837 403f 7b80 c3bd
00000020: 9c64 5dba c276 263f fdd1 9c3e 3d8f db3e
00000030: 386a ae3d 52a2 9fbe fb38 523e d6ca d1be
00000040: aa73 33bc 3f5c e93e e7f9 243e bf87 2dbe
00000050: c857 4abe 8fa6 1bbf b3a3 41bc adcd e7bd
00000060: 705c 8fbf 5aa8 86bf f78f 32bd da0c 56bd
00000070: 0202 6b3d b1f7 053f 8f4d 31bf 567b c3bd
00000080: f52e c0be 0e56 a0be 2134 23bd 5015 40be
00000090: 93a3 0ebe 9bcf 3dbf 510b b3bd 7e29 ce3d
000000a0: adfa c33e 28c5 a8bc e3bd c9be 3222 d4bd
000000b0: d14f b63e 9466 b23e b1d9 0f3e 6050 eebd
000000c0: f565 ab3e 1a54 1f3d a800 4d3e 2cc0 7dbe
000000d0: 0e24 423d 126e 99be 2978 773e 9696 1f3e
000000e0: 148b b03e d9d3 7c3e 44de 003f 4128 81be
000000f0: cf22 9f3c c8ac f9be 14af 193f 6680 553b

layers.4.b_block.net.1.0.bias f4 [8]
-0.15532176 -0.08661993 -0.33601844 0.3314958 -0.3996526 -0.1512836 0.079621084 -0.13534048
00000000: ab0c 1fbe ca65 b1bd 9c0a acbe d1b9 a93e
00000010: 449f ccbe 17ea 1abe 6110 a33d b296 0abe

layers.4.b_block.net.2.0.weight f4 [8, 8]
0.32650164 0.22765452 -0.3362401 -0.24992923 0.17681332 -0.053057063 0.1431183 0.09594713
0.4109598 0.012507027 0.09954047 -0.27258408 0.44331625 0.22334634 -0.110235855 -0.024486061
0.55840087 0.5306609 -0.106619485 -1.1407677 -0.47856352 0.26870558 0.07052823 0.24646905
0.37986326 0.26899645 0.22120336 0.034777172 -0.24986589 0.3595491 -0.13226132 0.32528925
-0.064315304 -0.053371698 0.027209703 -0.23346755 -0.20003307 0.32140222 -0.051531117 0.055540986
-0.63756555 0.12616728 -0.4405006 0.24091415 -0.43487418 -0.52269155 -0.47946087 -1.139035
-0.2876669 0.15360475 0.095397346 -0.5364371 -0.16013479 0.24724942 -0.21892512 0.1963064
0.39580128 -0.016121069 0.113035716 -0.30696365 -0.36031044 0.12252219 0.060296346 0.17759483
00000000: 392b a73e 441e 693e aa27 acbe 73ed 7fbe
00000010: 8d0e 353e 5d52 59bd 9b8d 123e ee7f c43d
00000020: 5369 d23e 46ea 4c3c e0db cb3d 2490 8bbe
00000030: 59fa e23e e7b4 643e 56c3 e1bd fe96 c8bc
00000040: 5cf3 0e3f 65d9 073f 515b dabd ad04 92bf
00000050: 4706 f5be c793 893e 1b71 903d 6262 7c3e
00000060: 707d c23e e7b9 893e 2283 623e 8272 0e3d
00000070: d8dc 7fbe d216 b83e 836f 07be 508c a63e
00000080: beb7 83bd 489c 5abd e2e6 de3c 1e12 6fbe
00000090: 78d5 4cbe d58e a43e 4b12 53bd f27e 633d
000000a0: 7f37 23bf ff31 013e 4b89 e1be 33b2 763e
000000b0: d4a7 debe 1dcf 05bf e57b f5be e6cb 91bf
000000c0: 1349 93be 904a 1d3e af5f c33d f153 09bf
000000d0: 60fa 23be f42e 7d3e e82d 60be 8b04 493e
000000e0: 77a6 ca3e 5510 84bc 457f e73d 572a 9dbe
000000f0: 9c7a b8be eaec fa3d 4df9 763d 6bdb 353e

layers.4.b_block.net.2.0.bias f4 [8]
0.21848504 0.2991282 -0.06522374 0.09702954 0.42828482 0.18491508 0.20994493 0.3238395
00000000: 8bba 5f3e 5527 993e 0694 85bd 6cb7 c63d
00000010: 2648 db3e 615a 3d3e cefb 563e 4ace a53e

layers.4.b_block.net.3.0.weight f4 [8, 8]
0.40312654 -0.092892796 0.62527096 0.14615421 0.34726223 -0.40287295 -0.08437522 -0.11340605
0.043675818 -0.16772182 -1.3153982 -0.06516758 0.18171947 0.7244329 0.2546292 0.0064681345
0.23428439 0.13962084 0.48625854 0.31967428 0.33796784 -0.63195854 0.20455399 0.25587904
0.37234113 0.036511183 0.40430412 0.08748171 0.0251836 -0.78053904 -0.06932889 -0.13397013
-0.27835166 0.11430023 -0.29231313 0.11376152 0.13853928 0.665264 0.032628197 -0.14630741
-0.21487594 -0.23343162 0.3892963 -0.10461373 -0.0037159508 -0.57400197 -0.10412284 0.001951618
0.18376754 -0.011589946 -0.33798444 -0.3268894 -0.24179876 0.69507205 0.14149214 0.23174927
0.028723152 0.08919781 -0.45006177 0.14908715 -0.42652842 0.12062193 -0.08827677 -0.3650753
00000000: 9a66 ce3e 943e bebd c211 203f 73a9 153e
00000010: 5bcc b13e 5d45 cebe eacc acbd 6e41 e8bd
00000020: 6ae5 323d 45bf 2bbe f85e a8bf 9576 85bd
00000030: ab14 3a3e 6f74 393f c25e 823e a5f2 d33b
00000040: 3fe8 6f3e c4f8 0e3e e1f6 f83e 59ac a33e
00000050: 1f0a ad3e 09c8 21bf 9a76 513e 9402 833e
00000060: 7fa3 be3e c08c 153d f300 cf3e 9c29 b33d
00000070: d64d ce3c 68d1 47bf 4efc 8dbd 772f 09be
00000080: 1c84 8ebe 3d16 ea3d 11aa 95be cdfb e83d
00000090: 3edd 0d3e be4e 2a3f 25a5 053d 9cd1 15be
000000a0: 7008 5cbe b308 6fbe d851 c73e b93f d6bd
000000b0: 4f87 73bb cbf1 12bf 5b3e d5bd 6fcd ff3a
000000c0: 8f2d 3c3e c2e3 3dbc 4c0c adbe 0c5e a7be
000000d0: 189a 77be 3ef0 313f 51e3 103e ae4f 6d3e
000000e0: d14c eb3c 57ad b63d 7f6e e6be 4daa 183e
000000f0: ef61 dabe a108 f73d 74ca b4bd 26eb babe

layers.4.b_block.net.3.0.bias f4 [8]
0.08390893 0.39464343 0.085790776 0.35434425 -0.40325972 -0.3133456 -0.04233255 0.15481137
00000000: 72d8 ab3d b40e ca3e 13b3 af3d 9c6c b53e
00000010: 0f78 cebe d66e a0be e564 2dbd df86 1e3e

layers.4.b_block.net.4.weight f4 [1, 8]
-0.25374594 0.3471361 -0.48717934 -0.099621564 0.25033537 -0.07015893 0.13186732 0.09535556
00000000: fdea 81be d3bb b13e 926f f9be 6406 ccbd
00000010: f52b 803e 7caf 8fbd 3a08 073e c749 c33d

layers.6.s_block.net.0.0.weight f4 [8, 1]
-0.5321068 -0.9482647 -0.15361035 0.2736859 0.34893978 -0.7221916 0.7479186 0.71061116
00000000: 2738 08bf 7ac1 72bf 084c 1dbe 8f20 8c3e
00000010: 3ca8 b23e 8ce1 38bf 9877 3f3f 9dea 353f

layers.6.s_block.net.0.0.bias f4 [8]
-0.6520818 -0.31538293 -0.6289158 0.7506224 0.8307208 -0.7074014 -0.70930016 0.097516775
00000000: d5ee 26bf df79 a1be a000 21bf ca28 403f
00000010: 1eaa 543f 4218 35bf b294 35bf e0b6 c73d

layers.6.s_block.net.1.0.weight f4 [8, 8]
-0.092494756 0.085750915 0.19296235 0.15724084 0.020174447 -0.14697285 0.3185557 0.4122142
0.64825344 0.4441613 0.1367516 -0.36602822 -0.29734972 0.16175517 0.37894776 0.05677454
0.1326275 0.051069047 0.38156712 -0.30856055 0.10951889 0.07527435 -0.0012049916 -0.24679758
0.2806045 -0.12915738 -0.037112765 -0.009496008 0.008116138 0.3297121 0.46849713 0.4167969
-0.30984446 -0.15991125 -0.2432093 0.12847447 0.21605404 0.352365 -0.07803156 0.7356983
-0.07841287 -0.31061453 -0.14787371 -0.1782278 -0.249112 0.05090676 -0.49137002 -0.025191983
-0.3854872 0.11045028 0.10584634 -0.05290763 -0.25208253 -0.13327855 -0.6779214 0.21849978
0.21288013 0.39148477 0.59855586 0.27899006 0.26253808 -0.20325409 -0.19087681 0.098531134
00000000: e46d bdbd 2d9e af3d ec97 453e be03 213e
00000010: e244 a53c 0d80 16be bc19 a33e bd0d d33e
00000020: f0f3 253f 1c69 e33e 9d08 0c3e 0d68 bbbe
00000030: 393e 98be 26a3 253e 7105 c23e 6c8c 683d
00000040: 81cf 073e c72d 513d c45c c33e a6fb 9dbe
00000050: 714b e03d 7029 9a3d cff0 9dba 81b8 7cbe
00000060: 65ab 8f3e d541 04be 8e03 18bd 2595 1bbc
00000070: 8df9 043c 06d0 a83e dbde ef3e 6766 d53e
00000080: efa3 9ebe c6bf 23be dc0b 79be d08e 033e
00000090: 453d 5d3e 2f69 b43e 03cf 9fbd b956 3c3f
000000a0: ed96 a0bd de08 9fbe 356c 17be 5981 36be
000000b0: 3717 7fbe 9b83 503d da94 fbbe 6b5f cebc
000000c0: 945e c5be c233 e23d f7c5 d83d acb5 58bd
000000d0: f610 81be 2c7a 08be 428c 2dbf 68be 5f3e
000000e0: 40fd 593e b170 c83e f53a 193f c9d7 8e3e
000000f0: 646b 863e d721 50be 3675 43be b1ca c93d

layers.6.s_block.net.1.0.bias f4 [8]
-0.2571231 -0.12347441 0.20119876 -0.3503146 0.103281096 0.2613901 0.3832996 0.19843775
00000000: a4a5 83be 27e0 fcbd 0c07 4e3e 6f5c b3be
00000010: 0a85 d33d ecd4 853e d83f c43e 4433 4b3e

layers.6.s_block.net.2.0.weight f4 [8, 8]
-0.72648346 0.3060522 0.1669779 -0.34733796 -0.44700193 0.23201443 0.15719807 0.08773343
-0.02942575 -0.5349539 -0.17569484 -0.4478966 0.35321942 0.08993526 0.09923261 0.1201734
-0.36132786 -0.85823476 -0.17791834 -0.6285412 -0.5120952 -0.20021471 0.13780198 -0.3069121
0.08650074 0.6762256 -0.007616388 0.68183184 0.095376186 -0.3008564 0.13849024 0.32362092
-0.45766214 -0.44531626 0.301417 -0.5936555 -0.18893303 0.33634207 0.4458218 0.25341445
0.0439532 -0.31964785 0.25703928 -0.50637776 0.082802184 0.10035544 0.3469797 -0.098865
0.0052553224 -0.5007939 -0.33989558 -0.44906658 -0.015691033 0.25688866 0.16735035 0.32721582
0.060890816 0.2937036 -0.20731017 0.028268766 0.081421986 0.11649326 -0.18219098 0.28994107
00000000: d2fa 39bf e0b2 9c3e 41fc 2a3e 48d6 b1be
00000010: 70dd e4be 3195 6d3e 88f8 203e 96ad b33d
00000020: 450e f1bc bdf2 08bf 59e9 33be b452 e5be
00000030: 2dd9 b43e fa2f b83d 773a cb3d 791d f63d
00000040: f7ff b8be 46b5 5bbf 3a30 36be 13e8 20bf
00000050: ac18 03bf 1605 4dbe f61b 0d3e 9523 9dbe
00000060: 4d27 b13d 1f1d 2d3f e592 f9bb 888c 2e3f
00000070: 9754 c33d da09 9abe 63d0 0d3e a4b1 a53e
00000080: b152 eabe 7e00 e4be 5453 9a3e cff9 17bf
00000090: a977 41be 0735 ac3e c142 e43e 8abf 813e
000000a0: 4508 343d e2a8 a3be a79a 833e f9a1 01bf
000000b0: 3194 a93d 2787 cd3d 53a7 b13e bc79 cabd
000000c0: d734 ac3b 0734 00bf cb06 aebe 0eec e5be
000000d0: 7b8a 80bc e986 833e e45d 2b3e d588 a73e
000000e0: a668 793d 5160 963e 1e49 54be e693 e73c
000000f0: 92c0 a63d 0594 ee3d 4690 3abe 2873 943e

layers.6.s_block.net.2.0.bias f4 [8]
0.1938037 0.11251498 -0.26215437 -0.30136636 0.35742524 -0.13918655 0.077226214 0.18502676
00000000: 7a74 463e 416e e63d 1939 86be b14c 9abe
00000010: 7100 b73e eb86 0ebe c728 9e3d a877 3d3e

layers.6.s_block.net.3.0.weight f4 [8, 8]
0.14753248 -0.504866 -0.5020314 0.4888687 -0.49134043 -0.08170261 0.005606292 -0.020379415
-0.73397994 0.07975481 0.11113358 -0.98399824 0.41002744 0.2321547 -0.2008341 -0.0479908
-0.34502336 0.09667156 0.194207 -0.13165872 -0.14717123 0.16634655 0.3360037 -0.21321289
-0.49063352 0.20469427 0.08806999 -0.72224224 0.20426913 0.080827884 0.08936635 -0.22182584
0.51338154 -0.047927454 -0.5838134 0.30510545 -0.37144098 -0.079746656 -0.357651 0.07347044
0.31198305 -0.34056154 -0.34984615 0.57585806 0.03909712 -0.30661213 -0.57795185 -0.21021129
-0.18951008 0.20845453 -0.14020967 -0.37120193 -0.09473875 -0.3130536 -0.16990495 -0.23056754
0.47413918 -0.49607012 0.018148288 0.1890679 0.10032163 -0.07920783 0.038839974 0.08028059
00000000: c112 173e e63e 01bf 2185 00bf 004d fa3e
00000010: f990 fbbe b353 a7bd fcb4 b73b bbf2 a6bc
00000020: 1ce6 3bbf 7d56 a33d 019a e33d 4fe7 7bbf
00000030: 1eef d13e f6b9 6d3e 74a7 4dbe 0092 44bd
00000040: e7a6 b0be bdfb c53d 33de 463e 8bd1 06be
00000050: 0eb4 16be c056 2a3e ad08 ac3e 7b54 5abe
00000060: 5134 fbbe 609b 513e 0a5e b43d dee4 38bf
00000070: ed2b 513e 1789 a53d b405 b73d 5026 63be
00000080: f96c 033f 944f 44bd cc74 15bf c836 9c3e
00000090: 832d bebe 3752 a3bd 081e b7be ac77 963d
000000a0: 3ebc 9f3e 155e aebe 091f b3be 6f6b 133f
000000b0: 4d24 203d 44fc 9cbe a7f4 13bf a141 57be
000000c0: ee0e 42be 1b75 553e 2093 0fbe 2e0e bebe
000000d0: 6406 c2bd 9048 a0be 90fb 2dbe e619 6cbe
000000e0: 5fc2 f23e e7fc fdbe b8ab 943c 049b 413e
000000f0: 6d75 cd3d b737 a2bd aa16 1f3d 266a a43d

layers.6.s_block.net.3.0.bias f4 [8]
0.3283448 0.290273 -0.04746101 0.17961875 0.13064525 -0.089870945 -0.038233224 0.10810501
00000000: cf1c a83e aa9e 943e 7a66 42bd faed 373e
00000010: dec7 053e 420e b8bd 719a 1cbd 2966 dd3d

layers.6.s_block.net.4.weight f4 [1, 8]
-0.3478302 0.18446699 -0.009737703 0.32662866 -0.5214225 -0.36163625 0.2238183 -0.2524648
00000000: cd16 b2be eae4 3c3e e38a 1fbc df3b a73e
00000010: f27b 05bf 6328 b9be a030 653e 1143 81be

layers.6.b_block.net.0.0.weight f4 [8, 1]
0.6185934 0.15457033 0.27470362 -0.12073719 0.54215103 -1.22169 -0.7553372 -1.0214806
00000000: 235c 1e3f af47 1e3e f4a5 8c3e 0f45 f7bd
00000010: 69ca 0a3f 5760 9cbf c75d 41bf e0bf 82bf

layers.6.b_block.net.0.0.bias f4 [8]
0.74743325 -0.7854523 0.3654112 0.21099745 -1.0726334 0.37658074 -0.7052183 0.6745479
00000000: c957 3f3f 6713 49bf 2d17 bb3e b70f 583e
00000010: 0d4c 89bf 31cf c03e 3089 34bf 2caf 2c3f

layers.6.b_block.net.1.0.weight f4 [8, 8]
-0.84068835 0.15288766 0.048081595 -0.23494 -0.043519467 0.09438315 0.42117685 0.39968362
-0.27149007 -0.27840167 -0.0812495 -0.17258246 -0.40345356 -0.30139974 0.12661181 0.21318123
-1.3013204 -0.15681553 -0.2780163 0.08254822 -0.15659311 0.05618636 0.48867878 0.3453087
-0.17403546 0.0932652 0.22372486 0.017790714 0.39653608 0.008918127 0.51555014 0.09777246
-0.4487297 0.28442734 0.035882372 -0.25233415 0.14603314 -0.14635189 -0.37773657 0.24061371
0.11661852 -0.41409487 0.23471402 -0.3213658 -0.43159598 0.33177236 -1.2983478 0.08626652
0.12802874 -0.29271272 0.38845408 0.06218963 0.02514273 -0.009303738 -0.12336792 0.28642148
-0.12636213 0.24669014 0.08362652 -0.028458908 0.3694322 0.17491938 -0.29033262 -0.08428473
00000000: 5a37 57bf 958e 1c3e 35f1 443d 1d94 70be
00000010: 7841 32bd f44b c13d 7ea4 d73e 55a3 cc3e
00000020: bf00 8bbe aa8a 8ebe 2366 a6bd 75b9 30be
00000030: 7791 cebe 1151 9abe 87a6 013e 2e4c 5a3e
00000040: ab91 a6bf 4094 20be 2758 8ebe 0b0f a93d
00000050: f259 20be ab23 663d 1b34 fa3e 4dcc b03e
00000060: 5a36 32be d301 bf3d 2118 653e d5bd 913c
00000070: c706 cb3e 561d 123c 18fb 033f ed3c c83d
00000080: e6bf e5be 76a0 913e 65f9 123d f131 81be
00000090: b689 153e 45dd 15be b066 c1be 7163 763e
000000a0: b1d5 ee3d 3e04 d4be df58 703e 0f8a a4be
000000b0: 26fa dcbe 11de a93e 4330 a6bf 80ac b03d
000000c0: f719 033e 71de 95be 74e3 c63e 8eba 7e3d
000000d0: 20f8 cd3c b56e 18bc 52a8 fcbd d6a5 923e
000000e0: 1365 01be 579c 7c3e 6244 ab3d a822 e9bc
000000f0: 3826 bd3e 111e 333e 7aa6 94be 799d acbd

layers.6.b_block.net.1.0.bias f4 [8]
-0.37343097 0.09934941 -0.4780686 0.15480733 -0.1582418 0.42682466 0.37708342 -0.13333364
00000000: 5832 bfbe b477 cb3d 68c5 f4be d085 1e3e
00000010: 230a 22be c388 da3e 1411 c13e 9d88 08be

layers.6.b_block.net.2.0.weight f4 [8, 8]
0.03834825 -0.08430003 -0.1623376 0.11646287 -0.18053381 0.026010385 0.05003178 -0.32259876
0.26033348 -0.3287006 -0.3388237 0.07087021 0.1460875 0.08639248 0.21196899 -0.20935167
-1.2322067 0.15505871 -1.3102264 -0.22398359 -0.21543887 0.5231354 0.27223745 0.029032728
0.048827816 0.19273825 -0.12275771 -0.13905688 -0.3638505 0.27472717 -0.19270007 -0.0059861806
-0.24333909 0.06423978 -0.4828899 0.079535104 0.15716304 0.1642681 -0.21056506 0.25066826
0.3562837 -0.21293193 0.40429094 0.06902603 -0.109087825 -0.056679837 -0.19031623 0.23541284
0.38077053 -0.24857815 -0.09529358 0.025420275 -0.18321061 0.04531171 0.34473696 0.059639588
-0.3091149 -0.03081163 0.41377074 -0.30335352 0.40008295 0.07104975 0.014428474 -0.11737362
00000000: 0e13 1d3d 7ea5 acbd d43b 26be 1684 ee3d
00000010: dbdd 38be bb13 d53c 20ee 4c3d aa2b a5be
00000020: 6e4a 853e 724b a8be 4d7a adbe 6724 913d
00000030: f697 153e 8aee b03d 660e 593e 4960 56be
00000040: f3b8 9dbf b6c7 1e3e 80b5 a7bf f45b 65be
00000050: 029c 5cbe 34ec 053f b562 8b3e 0bd6 ed3c
00000060: adff 473d 2d5d 453e 6568 fbbd ed64 0ebe
00000070: 9d4a babe 0aa9 8c3e 2b53 45be b927 c4bb
00000080: e22d 79be 2590 833d 583d f7be 4de3 a23d
00000090: 59ef 203e e635 283e 5e9e 57be 9757 803e
000000a0: d16a b63e d40a 5abe 39ff ce3e 855d 8d3d
000000b0: 7069 dfbd 1e29 68bd 42e2 42be 1010 713e
000000c0: 5bf4 c23e 458b 7ebe 4829 c3bd 2e3e d03c
000000d0: 909b 3bbe c698 393d 5d81 b03e a448 743d
000000e0: 4f44 9ebe ac68 fcbc c2d9 d33e 2751 9bbe
000000f0: acd7 cc3e 8882 913d 6865 6c3c 9561 f0bd

layers.6.b_block.net.2.0.bias f4 [8]
-0.124084696 0.23021609 0.09255547 -0.19879772 0.35073727 0.121480696 -0.21254832 -0.06837139
00000000: 1e20 febd c4bd 6b3e b98d bd3d a191 4bbe
00000010: d693 b33e dfca f83d 44a6 59be 4d06 8cbd

layers.6.b_block.net.3.0.weight f4 [8, 8]
0.1738528 0.23622128 -0.5002928 0.10614443 0.2584026 0.040357884 0.21611486 -0.07755931
-0.08026637 -0.17937057 -0.60982674 -0.056236573 -0.3246577 0.0146583915 -0.24021469 0.16158666
-0.0089373095 0.047458947 0.74649024 0.052752465 0.17897671 -0.18579951 0.035206113 0.21607095
0.031067524 0.22085145 0.84862995 0.18802655 0.19300202 -0.53005695 -0.3610621 -0.25231585
0.37289482 0.08127876 -0.09498407 0.40751928 -0.16973352 0.08568326 0.10277445 -0.08326443
-0.2472041 0.21941063 0.26926106 0.107510544 -0.31108743 0.2844667 -0.08964441 0.21661296
-0.02511403 -0.27516103 -0.7966449 -0.15771906 -0.15997766 0.12980342 -0.16012739 -0.2114973
-0.2591142 0.29007977 -0.8179617 -0.22102608 -0.07336891 0.2910354 -0.27047324 -0.0031756347
00000000: 7806 323e fee3 713e 3013 00bf 4062 d93d
00000010: 584d 843e 4f4e 253d 374d 5d3e 6ad7 9ebd
00000020: b262 a4bd ebac 37be 9b1d 1cbf 5258 66bd
00000030: 8939 a6be c029 703c d7fa 75be f976 253e
00000040: cb6d 12bc 5064 423d fc19 3f3f f812 583d
00000050: ac45 373e 3a42 3ebe 4934 103d b441 5d3e
00000060: 5281 fe3c e226 623e d03f 593f 088a 403e
00000070: 52a2 453e d0b1 07bf 22dd b8be 8b2f 81be
00000080: 12ec be3e 7b75 a63d 0287 c2bd 5ea6 d03e
00000090: a0ce 2dbe b47a af3d 697b d23d 8b86 aabd
000000a0: 1223 7dbe 2ead 603e 96dc 893e 7d2e dc3d
000000b0: da46 9fbe 9fa5 913e 7d97 b7bd cacf 5d3e
000000c0: f0bb cdbc e8e1 8cbe ecf0 4bbf 1b81 21be
000000d0: 2fd1 23be 30eb 043e 6ff8 23be c092 58be
000000e0: 9eaa 84be 5685 943e f065 51bf a954 62be
000000f0: 7042 96bd 9802 953e 787b 8abe 4f1e 50bb

layers.6.b_block.net.3.0.bias f4 [8]
-0.06685627 -0.1552011 -0.012662225 0.09870147 -0.17968868 -0.2967088 -0.017046914 0.25891602
00000000: f1eb 88bd 0aed 1ebe 3975 4fbc ff23 ca3d
00000010: 4f00 38be 37ea 97be f8a5 8bbc a490 843e

layers.6.b_block.net.4.weight f4 [1, 8]
-0.24506077 -0.3758158 0.50126636 0.42859328 0.06309282 0.13177137 -0.08665044 -0.17850392
00000000: 36f1 7abe ee6a c0be fe52 003f 9470 db3e
00000010: cf36 813d 13ef 063e c975 b1bd bbc9 36be

layers.8.s_block.net.0.0.weight f4 [8, 1]
0.33090195 -0.055044975 -0.052968778 0.08411749 -0.7260586 0.28776383 -0.9165938 -1.0657154
00000000: fb6b a93e d776 61bd caf5 58bd ca45 ac3d
00000010: fade 39bf c855 933e e4a5 6abf 5d69 88bf

layers.8.s_block.net.0.0.bias f4 [8]
-0.27681762 0.26950282 0.300067 -0.24303538 -0.37599802 0.91179544 -1.0426632 0.85573745
00000000: 0abb 8dbe 46fc 893e 62a2 993e 44de 78be
00000010: d082 c0be 6d6b 693f fd75 85bf 9c11 5b3f

layers.8.s_block.net.1.0.weight f4 [8, 8]
0.16019629 -0.14538018 0.1362821 0.11611273 -0.08289766 0.12438698 -0.2930672 0.016596042
-0.019005587 -0.24729006 0.17888865 -0.080095805 -0.020653475 -0.15664129 0.21498463 0.069802426
0.21912521 0.2276771 0.037503075 -0.026364537 0.19100453 0.032227803 0.16451618 0.031440467
-0.7415299 0.044932086 0.26116166 -0.40873194 0.21594821 0.4068585 0.1354036 -0.82398635
0.15156946 -0.24144726 0.10224283 -0.06635971 0.22051632 -0.1231958 0.06756613 -0.15291603
-0.15654565 -0.013451535 -0.27289477 0.29708132 0.3559944 -0.42558396 0.23517095 0.16787358
0.2762344 0.19127241 -0.15072058 0.06714721 -0.18675739 0.27943835 -0.8713441 0.21871455
-0.43843022 0.024527984 -0.10425706 -0.27967015 0.03782808 -0.08070119 0.22816339 0.42618477
00000000: 7f0a 243e 8bde 14be 898d 0b3e 83cc ed3d
00000010: 40c6 a9bd 9abe fe3d e70c 96be 6cf4 873c
00000020: 9bb1 9bbc 9b39 7dbe 962e 373e 4509 a4bd
00000030: 7a31 a9bc 9366 20be ee24 5c3e 93f4 8e3d
00000040: 5c62 603e 3024 693e d39c 193d 71fa d7bc
00000050: b196 433e 4d01 043d ee76 283e b8c7 003d
00000060: e7d4 3dbf b50a 383d fbb6 853e 5045 d1be
00000070: 8721 5d3e c24f d03e 3ea7 0a3e c5f0 52bf
00000080: 0635 1b3e f33d 77be b064 d13d 9ae7 87bd
00000090: 08cf 613e 144e fcbd 1c60 8a3d 0596 1cbe
000000a0: 814d 20be d463 5cbc ddb8 8bbe 0b1b 983e
000000b0: e644 b63e 24e6 d9be a7d0 703e 0de7 2b3e
000000c0: 986e 8d3e eadc 433e 7f56 1abe 7a84 893d
000000d0: 543d 3fbe 8b12 8f3e 6810 5fbf b5f6 5f3e
000000e0: ed79 e0be e9ee c83c ba84 d5bd ed30 8fbe
000000f0: 9ef1 1a3d aa46 a5bd aaa3 693e e434 da3e

layers.8.s_block.net.1.0.bias f4 [8]
0.18546973 -0.16056088 -0.114496455 -0.042942636 0.029372772 -0.06541127 0.19877622 -0.3330296
00000000: c7eb 3d3e 126a 24be 1e7d eabd 9ee4 2fbd
00000010: 2b9f f03c 58f6 85bd fe8b 4b3e db82 aabe

layers.8.s_block.net.2.0.weight f4 [8, 8]
-0.047104016 0.17782646 -0.031608116 0.7469016 0.17413002 0.36354926 -0.38316515 0.070212305
0.3186947 0.056700565 -0.04307724 -0.21235558 0.13401052 -0.2867331 0.025559898 -0.70236236
0.11962246 0.32031733 0.2997992 0.09282948 0.16639785 0.16553977 -0.037949894 0.28612348
0.34246528 0.052749775 -0.077178545 -0.7520285 0.13399255 -0.17200388 -0.11996188 -0.08803975
-0.42803928 -0.058003083 0.21213539 0.4779313 0.36427072 0.2608353 0.142313 0.13710245
-0.0014283698 -0.13617837 0.02617238 -0.6206942 -0.032641277 -0.20719382 0.4525595 -0.4448786
0.0007114429 -0.25822982 0.009017627 0.013319107 0.046268724 0.055920713 0.031910427 -0.2444525
0.13315015 0.23133138 -0.17428708 -0.88492286 0.21055745 0.13470337 0.3713055 -0.48193887
00000000: 24f0 40bd 2418 363e 8377 01bd f134 3f3f
00000010: 244f 323e 2123 ba3e 392e c4be 78cb 8f3d
00000020: f42b a33e da3e 683d c371 30bd be73 59be
00000030: 0e3a 093e aece 92be fe62 d13c 05ce 33bf
00000040: 9ffc f43d a200 a43e 487f 993e 621d be3d
00000050: 3364 2a3e 4283 293e 5971 1bbd c77e 923e
00000060: 9c57 af3e 2610 583d c90f 9ebd f184 40bf
00000070: 5835 093e c921 30be 93ae f5bd 2f4e b4bd
00000080: f727 dbbe a494 6dbd 053a 593e 69b3 f43e
00000090: b181 ba3e 348c 853e 80ba 113e 9664 0c3e
000000a0: 2338 bbba 5872 0bbe 7667 d63c d1e5 1ebf
000000b0: dcb2 05bd 9e2a 54be e1b5 e73e 21c7 e3be
000000c0: 2080 3a3a b336 84be abbe 133c 6238 5a3c
000000d0: 4684 3d3d 1e0d 653d 82b4 023d c251 7abe
000000e0: 8358 083e 22e2 6c3e 5078 32be 4e8a 62bf
000000f0: 5f9c 573e aeef 093e c11b be3e b1c0 f6be

layers.8.s_block.net.2.0.bias f4 [8]
0.25301698 -0.22402139 -0.36857718 0.2685198 -0.28546983 0.36736885 -0.05232668 0.36650383
00000000: 718b 813e dd65 65be 26b6 bcbe 6d7b 893e
00000010: 1a29 92be c517 bc3e 8054 56bd 64a6 bb3e
