models/normalizing_flow_epoch_20.pth (torch, 150970 bytes, 270 tensors)

layers.0.s_block.net.0.0.weight f4 [8, 1]
000000 a6 b5 29 3e d1 c5 7e bf 36 ce 16 bf 8f ea c5 3e
       0.165732 -0.99520594 -0.589084 0.38655517
000010 b6 e1 10 3f a1 21 a5 bf 82 86 88 bf 6e 7d d7 be
       0.5659441 -1.2900888 -1.0666049 -0.42087883

layers.0.s_block.net.0.0.bias f4 [8]
000000 84 70 e3 be 3c e5 1e be 8e eb 36 bf d7 8c 14 3f
       -0.4442178 -0.15517133 -0.7145318 0.58027405
000010 28 47 83 bf 10 a4 84 3e 27 52 4b be 53 7e 88 3f
       -1.025609 0.2590642 -0.19855557 1.0663551

layers.0.s_block.net.1.0.weight f4 [8, 8]
000000 f5 4f 02 bd 08 ea fe 3e 12 d7 83 3e e3 6e c9 be
       -0.031814534 0.49787927 0.25750023 -0.39342412
000010 42 cd 95 be e7 b8 9c 3e eb 6a e0 3e 84 38 85 3d
       -0.29258162 0.3060982 0.43831572 0.0650492
000020 46 cb 23 3f 3b a4 03 be 00 6f d1 bd 7f 9a 12 3e
       0.63982046 -0.12855618 -0.1022625 0.14316748
000030 d8 8d bc 3e 4b 5f 64 be 14 31 9b 3e 22 20 3f be
       0.36826968 -0.22301976 0.3031088 -0.18664601
000040 2c 1d df 3e f8 59 57 be b2 a9 ce bd df 07 c1 be
       0.43576944 -0.21030414 -0.100909606 -0.37701318
000050 e0 b0 87 3e 94 05 91 3e d4 01 45 bd 46 fe d9 bc
       0.26502132 0.28324568 -0.048097447 -0.026610505
000060 93 27 3a 3d 9f c8 ce bf 6d 08 f1 bd ba bf 54 bd
       0.045447897 -1.6154975 -0.11769185 -0.051940657
000070 17 4f 83 be 00 4f 10 3e ef 67 2f bf f5 4c 98 3e
       -0.25646278 0.14092636 -0.68517965 0.29746214
000080 ef e3 3c 3e 91 29 01 bb 88 18 c2 bd d3 5e ee 3d
       0.18446325 -0.0019708613 -0.09477335 0.1163918
000090 b2 95 d8 3e 58 de 9c 3d 76 53 80 3e 17 8b 85 be
       0.42301708 0.07659596 0.25063676 -0.2608268
0000a0 92 29 c6 3e 0e ed 8c be 18 fc e4 be 0c 18 d4 3d
       0.3870359 -0.27524608 -0.44723582 0.10356149
0000b0 04 78 28 3f 3d d2 cd 3e 76 bb c7 3e 0e 98 99 be
       0.6580813 0.40199462 0.3901021 -0.2999882
0000c0 ff 6a d0 bd 95 8d 74 be 4e e8 2d bf e3 09 d4 be
       -0.10176658 -0.23882134 -0.67932594 -0.41413793
0000d0 e1 e6 da be 88 a8 25 3f dd bc 9b 3e ac b3 05 3f
       -0.42754272 0.64710283 0.3041753 0.5222728
0000e0 d5 f0 e7 3e 2f 11 a6 be 58 00 06 bf 87 3c 85 be
       0.45300928 -0.32434985 -0.52344275 -0.2602274
0000f0 84 3c 72 bd 4c dd 5e 3e 9c cc 3c be cd f6 3a be
       -0.059139743 0.21764106 -0.18437427 -0.1825821

layers.0.s_block.net.1.0.bias f4 [8]
000000 63 4a 23 3d fe 26 d3 be f7 41 c5 be 8f 77 c6 3d
       0.039865863 -0.41240686 -0.3852689 0.09690773
000010 98 30 bd be b3 af e5 be df 74 91 be 42 a4 cf bc
       -0.36951137 -0.4486061 -0.28409478 -0.025346879

layers.0.s_block.net.2.0.weight f4 [8, 8]
000000 00 62 8d bf 28 c1 82 be 81 09 07 3f 6f d1 67 3f
       -1.1045532 -0.25537992 0.52748877 0.90553945
000010 17 68 8f 3b 63 c6 dc 3d 54 0c fe 3e c8 fb e6 3e
       0.004376422 0.10780027 0.4961878 0.4511397
000020 2b 0b 0a 3f 7d 89 26 3e 44 64 b6 bc 73 f4 7c bd
       0.5392329 0.16263385 -0.022264607 -0.061756562
000030 36 13 07 bd aa 49 a3 3e 8a 8a ed 3e b9 22 b0 be
       -0.032977305 0.3189214 0.4639476 -0.3440149
000040 08 e1 98 be 4b 7c 46 bf 39 2b 54 be eb 97 58 3f
       -0.29859185 -0.77533406 -0.20719613 0.8460681
000050 32 32 c2 be 2b 7f fa be 07 d9 bc 3c e5 89 9a 3e
       -0.3792892 -0.48925146 0.023052705 0.3018333
000060 fa 9c 6c be e9 fc 7e be c1 6e 3e 3f 82 3a 68 3e
       -0.23106757 -0.24901165 0.7438775 0.22678569
000070 4a 93 d4 be d0 0b f3 bd fb 17 4f 3e be c3 44 3e
       -0.41518623 -0.118674874 0.20223992 0.19215295
000080 9a 11 34 3e 69 be 6b be 31 13 07 bf 56 53 55 bf
       0.1758484 -0.23021854 -0.5276366 -0.83330286
000090 bc 6f e3 be 7a 48 8a bf 14 b1 17 be 9a 91 c4 be
       -0.44421184 -1.0803368 -0.14813644 -0.38392335
0000a0 3c 6e 14 3f 0a 6c 92 bd dc c6 71 bf b6 ef 83 bf
       0.57980704 -0.07149513 -0.9444406 -1.0307529
0000b0 8c 5b d5 be 73 87 fb be d3 cb bd bc a4 de 2d be
       -0.41671407 -0.49126777 -0.02316848 -0.16979462
0000c0 9f 1a bc 3d 87 4c b4 be 58 3f 94 be d1 f3 df be
       0.09184765 -0.35214636 -0.28954577 -0.43740705
0000d0 03 cf 15 bf 7d be 56 bf 21 9f 86 bf 4f c6 c2 be
       -0.58519 -0.8388441 -1.0517312 -0.38041922
0000e0 3f e1 9d 3e 2f aa 69 bf ae ce cb bd 2f b4 3e bf
       0.30835912 -0.91275305 -0.099515304 -0.7449369
0000f0 35 7d a0 bd 90 d8 62 bf 0c cb 1b 3d 2e bb c6 be
       -0.07836381 -0.886117 0.038035437 -0.38814682

layers.0.s_block.net.2.0.bias f4 [8]
000000 cb da 9e 3b d3 16 f0 be b9 fe 3e 3f d4 20 d0 be
       0.0048478595 -0.46892413 0.74607426 -0.40650046
000010 87 db ca 3e 28 a8 81 3e fa a9 d6 3e 0d c4 bc 3e
       0.3962061 0.25323606 0.41926557 0.36868325

layers.0.s_block.net.3.0.weight f4 [8, 8]
000000 1f ca 88 ba d2 3c b8 3e 06 96 01 bf 0b d7 88 3e
       -0.0010436213 0.35983902 -0.5061954 0.26726565
000010 b3 08 ae be 20 c2 36 be 9e e6 6a bf 68 7d 16 bf
       -0.33991012 -0.1784749 -0.91758144 -0.58785105
000020 d9 16 81 3d c0 dd bf bd db 00 1c 3f e0 1f 8d 3e
       0.06303186 -0.09368467 0.60938805 0.2756338
000030 39 0f d4 be 37 67 cc bf 91 e3 19 be f6 93 f1 be
       -0.41417864 -1.5968999 -0.15028216 -0.47183198
000040 d9 f3 24 bf f8 9f 16 bf 6b 00 71 3d a4 22 06 bf
       -0.6443458 -0.5883784 0.05883829 -0.5239661
000050 06 87 a7 3e 90 bc 59 3d 27 f6 5c 3f 65 67 11 3f
       0.32720202 0.053158343 0.863131 0.5679839
000060 90 74 1d 3f 08 f8 61 bd 6f 68 ba 3d c9 b3 1b 3f
       0.61505985 -0.05516818 0.091019504 0.60821205
000070 9a 28 58 bf 67 fd b0 be 17 28 ad bf ef 57 10 bf
       -0.84436953 -0.3456833 -1.352786 -0.56384176
000080 c9 9a 2d bf 02 c2 3b bf cc 83 fd 3e e2 8b d1 be
       -0.6781431 -0.7334291 0.49514616 -0.40927035
000090 10 f2 8f 3e 90 f9 8b 3e 49 07 d1 3e 5a 29 64 3e
       0.28114367 0.2733884 0.4082587 0.222814
0000a0 e9 40 4a 3e 94 83 a5 3e a3 ea f4 bd c8 eb 0b 3f
       0.19751324 0.3232695 -0.11958816 0.5465665
0000b0 c6 31 fd be da aa d1 be 9a 04 ec be 2e ed 37 bf
       -0.49452037 -0.40950662 -0.4609726 -0.7184628
0000c0 7f b1 c6 bd fd eb 20 3f de 2d a3 be a8 9e 77 3e
       -0.097018234 0.6286009 -0.3187093 0.24181616
0000d0 71 14 b0 bc a8 91 e7 be db 58 c1 be 50 87 0f bf
       -0.021494122 -0.45228314 -0.37763104 -0.56065845
0000e0 5a c8 8d be 12 bb 07 3f 75 e0 92 bf 9c 37 b2 3d
       -0.2769192 0.5301982 -1.1474749 0.08702013
0000f0 f6 e3 30 be f6 c1 1a 3e 06 60 d6 3e 86 2d 49 3c
       -0.1727446 0.15113053 0.41870135 0.01227892

layers.0.s_block.net.3.0.bias f4 [8]
000000 31 51 0d bf 7e e2 8f 3e 0b 94 f6 3e 08 80 0b bd
       -0.55202013 0.28102487 0.48159823 -0.034057647
000010 43 5f b6 3e 40 34 cf be d5 97 f4 be 67 dd be be
       0.35619554 -0.4046955 -0.4777209 -0.37278292

layers.0.s_block.net.4.weight f4 [1, 8]
000000 c5 0d c3 3e f1 0e ee 3e 02 12 1c bf cb 48 56 3f
       0.38096443 0.46495774 -0.6096498 0.83704823
000010 93 f7 f8 be 78 04 37 3f 49 0d df 3e 47 1a 07 bf
       -0.48626384 0.71491194 0.43564823 -0.5277447

layers.0.b_block.net.0.0.weight f4 [8, 1]
000000 5d 09 ab 3e 5f 97 0b 3f 09 c7 9a 3e b5 91 5a be
       0.3340558 0.5452785 0.30229977 -0.21344645
000010 da 64 90 bf c0 ff 21 bf 86 54 d4 bf ef 05 73 3f
       -1.1280777 -0.6328087 -1.6588295 0.9493093

layers.0.b_block.net.0.0.bias f4 [8]
000000 34 9e 25 3f ec 3b 04 3f f9 96 b1 3e 5b ab d4 3e
       0.64694524 0.51653934 0.34685495 0.41536984
000010 a8 b2 36 bf 88 e4 15 3f 30 f2 3d 3f 26 4b 01 bf
       -0.7136636 0.58551836 0.74197674 -0.5050529

layers.0.b_block.net.1.0.weight f4 [8, 8]
000000 96 bb c6 be 46 7f 10 be 30 86 aa be 16 04 a9 be
       -0.38814992 -0.14111051 -0.33305502 -0.3301093
000010 48 97 51 bf 0c 6a 5a 3e 2b 1d f6 be dc 13 bc 3d
       -0.8187146 0.21329516 -0.48069128 0.091834754
000020 2b 31 cb bc fa ad 80 3d 40 f9 c5 3e 0f ab 8f be
       -0.024803719 0.062831834 0.38666725 -0.28060195
000030 34 e8 b9 bd 1c 3c 55 bf fc fd 8a be 96 6a ab 3e
       -0.09077492 -0.83294845 -0.271469 0.33479756
000040 9b 94 4d 3e 93 22 85 bd 1d ae 72 be 3c a1 6d bc
       0.2007622 -0.06500735 -0.23699231 -0.014503773
000050 a5 05 ea be 8d c0 b3 be e6 20 11 3f 72 f5 88 3e
       -0.4570743 -0.35107842 0.56690824 0.2674976
000060 e3 5c 94 be 86 a0 6c bd 1d 0b 35 3e bb 6b 00 bf
       -0.28977117 -0.057770275 0.1768002 -0.50164384
000070 1d d1 25 bf 1a 2d ac be 19 3a cc bd 16 2b be 3e
       -0.64772207 -0.3362816 -0.09972019 0.37142247
000080 d8 fc 7a be 34 d0 eb bf 11 31 39 bf 08 ac 77 3e
       -0.24510515 -1.8422914 -0.72340494 0.24186718
000090 1a f1 78 3f 98 4e 49 be 09 d3 d9 3e 2d f5 f3 be
       0.9724289 -0.19658887 0.4254382 -0.47647992
0000a0 44 56 bc 3d 56 b0 9c bd 15 77 87 be 52 61 c9 be
       0.09196141 -0.07650821 -0.2645804 -0.39332062
0000b0 3d e5 ca 3e f6 00 e0 be cd f8 6b 3e 5e 63 bf 3e
       0.3962802 -0.43750733 0.23044129 0.373805
0000c0 3a 90 c6 3e c5 84 eb bc 66 e6 a7 3e d3 99 77 3e
       0.3878191 -0.028749833 0.32792968 0.24179773
0000d0 5f 60 a8 be f0 86 84 3e b8 46 4b bf 6e 10 18 bf
       -0.32886025 0.258842 -0.79404783 -0.5940007
0000e0 c6 15 17 3e c6 cd 8d bf c1 1a a4 be c0 53 b1 3e
       0.147544 -1.1078422 -0.32051662 0.3463421
0000f0 c2 66 8a bf 39 f3 0a 3e a5 d8 af 3e cc 69 3b be
       -1.0812609 0.13569345 0.34344974 -0.18302077

layers.0.b_block.net.1.0.bias f4 [8]
000000 f0 fd 00 bd 03 ec b5 3d 70 a7 cc 3e 1d 97 6b be
       -0.031492174 0.08882906 0.39971495 -0.23006864
000010 43 83 ef be c8 24 07 bf e6 0a 20 be 73 62 ac 3d
       -0.46779832 -0.527905 -0.15629157 0.08417215

layers.0.b_block.net.2.0.weight f4 [8, 8]
000000 e2 58 7d 3e 4a 04 cf 3e 20 3b 88 be 25 65 f5 3e
       0.24740937 0.4043296 -0.2660761 0.4792873
000010 4f 7b 19 bd 18 7f 03 3f 09 09 0e bf b8 c9 83 bf
       -0.037471112 0.51365805 -0.55482537 -1.0295935
000020 51 37 cf be de 7a d9 3e e3 5d e3 3e 02 df 12 bc
       -0.4047189 0.42476553 0.44407567 -0.008964302
000030 e5 08 1c bf 4f e6 a1 bd 79 a1 16 bf 2b 3f a9 3e
       -0.6095107 -0.07905256 -0.5884014 0.33056006
000040 47 9b 2f be 25 ae 11 3f 79 1d 07 3f 09 e9 25 bd
       -0.17149077 0.5690635 0.52779347 -0.040505443
000050 de d2 5b be e6 ac 36 be 41 db 0e bf 8c 7c 0f be
       -0.21467158 -0.17839393 -0.55803305 -0.14012355
000060 8c 23 92 bd 05 24 38 be 16 d3 93 3c 6f 01 01 3e
       -0.07135686 -0.1798249 0.01804499 0.12598203
000070 d8 6c 00 bf 9a 26 7f 3f 8b 38 2c 3e 76 ef 9a be
       -0.5016608 0.99668276 0.16818444 -0.3026082
000080 b2 67 23 be 0f 94 ce 3e 96 30 97 3d 1a 68 98 be
       -0.15957525 0.40347335 0.07382314 -0.29766923
000090 af d3 1e bf a3 09 bb be ec 8a 3b bf a8 c0 71 be
       -0.62041754 -0.3653079 -0.7325885 -0.23608649
0000a0 49 cd c2 3e 29 a5 3a bf cb 2e 84 3c 5e 26 0e 3f
       0.38047245 -0.72908264 0.016135594 0.55527294
0000b0 69 6e 47 bf 6f 65 ee 3e 6d 96 0d 3f 23 da 2c 3f
       -0.7790285 0.46561763 0.55307657 0.6752035
0000c0 f2 18 ca be ab 3d ac 3d 5b 19 69 3e d9 14 29 be
       -0.39472157 0.084102 0.22763579 -0.16511859
0000d0 d4 4f 9f 3e b8 98 3a 3f fe 61 3c 3f e7 46 1b be
       0.31115592 0.7288928 0.73587024 -0.15163766
0000e0 87 37 a7 3e 85 90 b1 3e b9 30 ed 3b 14 27 bf 3e
       0.32659552 0.34680572 0.007238474 0.37334502
0000f0 6e cc 4a bf f1 3f 00 3f 82 2d c0 3e 51 6c 55 3f
       -0.79218185 0.50097567 0.3753472 0.833684

layers.0.b_block.net.2.0.bias f4 [8]
000000 a1 f7 07 bf 8e 9c 4f 3d dc d3 82 3d 49 75 b5 be
       -0.53112227 0.05068641 0.06388065 -0.35441044
000010 03 b1 9a 3e ac 77 17 bd 8e 49 3b bd 1c 1f 10 bd
       0.30213174 -0.036979362 -0.045724444 -0.03518592

layers.0.b_block.net.3.0.weight f4 [8, 8]
000000 74 44 8f bd 50 7a da be 48 76 34 bf f5 5d d8 3d
       -0.06995478 -0.42671442 -0.7049298 0.10564796
000010 63 0e a2 be 5f 86 26 3f 27 34 e5 3d 82 94 7e 3e
       -0.316516 0.65048784 0.11191588 0.24861339
000020 f8 d7 75 bf 65 07 52 bd 24 ff ad 3e 8f d8 c1 be
       -0.9603267 -0.051276583 0.3398372 -0.37860534
000030 0a 1b 00 3f 86 6b a9 bf b6 e4 e4 be 7e 20 a2 bf
       0.5004126 -1.3235939 -0.44705743 -1.2666166
000040 1f 6b 3e be f8 31 38 bf 3b e9 09 be 09 e8 7c be
       -0.18595551 -0.71951246 -0.13467877 -0.2469789
000050 dd e5 4c be 75 16 12 3e 90 e3 0d be ba 65 90 bc
       -0.20009561 0.14266379 -0.1385634 -0.017626632
000060 75 8c 89 3e 36 22 24 3e 4f 14 28 3f 67 5a bb 3d
       0.26864973 0.16028675 0.6565599 0.09148102
000070 aa 24 86 3e 6b 28 a8 3d 6a 26 1d bf 76 08 81 be
       0.26199847 0.08210834 -0.6138674 -0.25201768
000080 6a ad 11 bf e7 0d 2c 3f 1b 69 38 3f 36 f8 21 be
       -0.56905234 0.67208713 0.7203538 -0.15817341
000090 e4 e1 00 3f 8b 1d 5b be 86 f3 fd be b8 a3 64 3e
       0.5034468 -0.21397988 -0.49599856 0.22328079
0000a0 f4 8d 4a 3e 3f be 73 3e 89 e2 fa 3d ef 5f 41 3d
       0.19780713 0.23803042 0.122502394 0.04721063
0000b0 a0 14 66 be e4 1f 37 be 89 bc 9c be 5b 30 a7 be
       -0.22468805 -0.17883259 -0.3061259 -0.3265408
0000c0 0b c0 32 be ea be cd be 86 a8 0e 3e b9 a0 69 3e
       -0.17456071 -0.40184718 0.13931474 0.22815217
0000d0 c5 33 cb 3d 81 a9 a2 3d 6a 9e 73 3e 7e 6e a6 3e
       0.09921984 0.079424866 0.23790899 0.32506174
0000e0 25 3f bb bd cc 4e 76 3e 83 ac c4 bc 1a 9f 02 3f
       -0.09142903 0.24053496 -0.024008041 0.5102402
0000f0 a0 ef c5 bc dd 66 e5 3c 5a 20 ed be a8 61 37 3c
       -0.024162114 0.02800315 -0.46313745 0.011192717

layers.0.b_block.net.3.0.bias f4 [8]
000000 f2 2c 8e be 76 0c ff 3e 76 b1 44 be e8 27 57 3e
       -0.27768666 0.49814194 -0.19208321 0.21011317
000010 02 0d 29 3e 7a 40 f1 be 22 e9 34 3e eb c8 34 be
       0.16508868 -0.47119504 0.17667058 -0.17654769

layers.0.b_block.net.4.weight f4 [1, 8]
000000 74 cf 2f 3f 50 56 47 bf f4 1f 4d 3e af 6f 73 bd
       0.68675923 -0.7786608 0.2003172 -0.05943268
000010 48 4e ef be 57 0e 75 be e2 c9 d4 3e d4 3c 0b 3e
       -0.4673941 -0.23931251 0.41560274 0.13597423

layers.2.s_block.net.0.0.weight f4 [8, 1]
000000 6f 36 92 3f cf b6 d9 bd 03 1e 74 3f 48 5d d4 3e
       1.1422862 -0.10630571 0.95358294 0.41477418
000010 01 2d db 3d 0f d9 6f bf 28 33 43 bf 27 e7 6e 3f
       0.10701943 -0.9369058 -0.76249933 0.9332146

layers.2.s_block.net.0.0.bias f4 [8]
000000 15 88 d2 be 5c e2 d4 be 8f a4 15 bd 07 c3 5e 3f
       -0.41119447 -0.41578948 -0.03653389 0.8701634
000010 5a f6 99 bf ad f1 a0 3e db 92 8b bf cc 27 8f 3f
       -1.2028306 0.31434384 -1.0904192 1.118402

layers.2.s_block.net.1.0.weight f4 [8, 8]
000000 18 ec ff bd 45 a1 dc bd ba a0 67 3e 9f 47 93 3e
       -0.12496203 -0.10772947 0.22619906 0.2876558
000010 e2 6c dc 3d c8 45 09 3f 7c 0d 32 bf 58 39 bd be
       0.10762955 0.536221 -0.69551826 -0.36957812
000020 40 f5 f1 3e 83 6c 8c bc 1d 36 c0 3e aa b2 68 bc
       0.47257423 -0.017141586 0.37541285 -0.014202753
000030 24 5f 6a 3e 63 02 b5 3e 6b 49 e0 be 99 25 66 bf
       0.22887856 0.35353383 -0.43806013 -0.8990112
000040 e6 2b 35 3f d2 36 ab 3d aa fb 08 be f5 21 82 be
       0.7077011 0.083600655 -0.13377252 -0.25416532
000050 99 3e 02 3e 89 42 88 3c 83 bf c8 3d 3a 33 df be
       0.12719192 0.016633289 0.09802153 -0.4359377
000060 a2 b7 33 bf 8f 79 c2 3e e6 92 06 bf 92 68 b2 bc
       -0.70202076 0.37983367 -0.525679 -0.021778379
000070 c6 7e d2 be 95 b7 89 be 45 59 48 3f 4d b6 ca bd
       -0.41112345 -0.26897874 0.78261214 -0.09898052
000080 14 0d 00 3c 0d 26 ff 3c aa ad d4 3e 16 f4 67 be
       0.007815618 0.031146074 0.41538745 -0.22651705
000090 77 6e dc 3e 19 bc 63 3e 08 cd 4f bc 36 5d 20 3d
       0.43053028 0.22239722 -0.012683161 0.039151393
0000a0 1b 2c 01 be 93 93 f2 bd 6e e4 e9 3d 66 c9 7c be
       -0.12614481 -0.11844554 0.11420523 -0.24686202
0000b0 7b 28 af bd 83 1a 30 be 1d 65 9d 3e 85 8f 31 bd
       -0.08552643 -0.17197613 0.30741206 -0.04334976
0000c0 db 61 41 3f dc 42 02 3f 76 69 08 3f d3 c6 f2 3d
       0.7553994 0.5088327 0.5328592 0.11854329
0000d0 31 b2 0b 3f 2c bf 04 3f af 2c f3 be a7 0a 9b 3c
       0.54568774 0.51854205 -0.47495028 0.018925978
0000e0 2e 04 67 be 23 a1 17 be ba 26 ac be 8d 8a 8b 3e
       -0.22560188 -0.14807563 -0.33623296 0.27254143
0000f0 57 58 3a bf 84 0c 5a 3e f8 b7 42 bc ce be cd 3e
       -0.72791046 0.21293837 -0.011884682 0.40184635

layers.2.s_block.net.1.0.bias f4 [8]
000000 1d d7 13 3e 68 12 9f be c1 f0 16 3e f0 06 24 3e
       0.14437528 -0.3106873 0.14740278 0.16018271
000010 56 6a 2c bf bd 0e f0 3d c9 a0 04 be f3 20 17 3f
       -0.67349756 0.11721561 -0.1295196 0.5903465

layers.2.s_block.net.2.0.weight f4 [8, 8]
000000 63 3b 10 be 33 3c ca 3e cc 74 28 be c3 ed 1b 3d
       -0.14085154 0.39499053 -0.16450804 0.038068544
000010 63 34 5a 3e dd 49 8b 3e 9e 3c 59 3e 7f d3 27 bf
       0.21309046 0.2720479 0.2121453 -0.6555709
000020 a0 5a 8a 3e 19 fe 10 3f 77 80 b2 3e 00 be 7c 3d
       0.27022266 0.5663772 0.34863636 0.061704636
000030 78 2b c2 be 1e 6c 6a 3d 7b 66 08 3f e6 fb 9c be
       -0.3792379 0.057232015 0.5328137 -0.30660933
000040 fe 25 28 be 23 78 59 3f 33 94 76 3d 2c f6 06 bf
       -0.16420743 0.8494894 0.060199928 -0.5271938
000050 14 00 7e 3d f7 8b f2 bd 2b 68 9b be f7 88 52 3e
       0.062011793 -0.118431024 -0.3035291 0.2056006
000060 9a 12 56 3d ee ca 85 bf 82 2f 69 bc 71 d4 8f be
       0.052263834 -1.0452554 -0.014232518 -0.28091767
000070 7f ee 90 bf ee a9 8d 3d 8b 9b 01 3f da ad a2 3d
       -1.1322783 0.06917177 0.50627965 0.07943316
000080 e6 43 bb 3e 49 00 65 3f 32 51 12 3e 5b 00 16 bf
       0.3657524 0.8945356 0.14288786 -0.5859429
000090 7f 18 22 3f b1 22 aa be 12 08 c1 3d 33 16 cb be
       0.6331863 -0.33229592 0.094253674 -0.39665374
0000a0 8b b1 8e be 90 c6 d8 3e 01 34 c3 3d b2 03 8a 3d
       -0.2786983 0.4233899 0.09531403 0.06738986
0000b0 b0 a4 3e 3f 07 02 4d bb 35 ff e3 3d 8a ad 93 bf
       0.74470043 -0.0031281726 0.11132661 -1.1537335
0000c0 d0 2c 81 be 37 53 8e be f4 c8 0b be 21 94 a3 3e
       -0.25229502 -0.27797863 -0.13650876 0.3194895
0000d0 f6 61 12 3f 3c b3 04 3d 1b 43 cb be 50 7e d9 bd
       0.57180727 0.032397494 -0.39699635 -0.10619795
0000e0 02 9d 1f 3d 6b ed 96 3e 18 ab 97 bc 45 84 d1 3d
       0.038968094 0.2947801 -0.018514201 0.102303065
0000f0 0b 20 d9 3d 5b 61 66 3e ad 48 67 be 59 80 e4 bd
       0.10601815 0.22498076 -0.22586317 -0.11157293

layers.2.s_block.net.2.0.bias f4 [8]
000000 48 56 1b be a4 bc 9b 3e 52 f3 93 3e 92 5c 5f 3d
       -0.15169632 0.3041736 0.28896576 0.05453164
000010 41 a3 4a 3c b1 09 9a be da 4d 64 3d a8 76 2a be
       0.012368024 -0.3008552 0.055738308 -0.16646826

layers.2.s_block.net.3.0.weight f4 [8, 8]
000000 d4 2d 8e be bd ee 7b 3e 0f 2d 0b 3e 6e 2e d3 be
       -0.2776934 0.2460279 0.13591407 -0.4124636
000010 69 b6 1a 3f df 97 88 bf 8d 4b 24 3e ef 5a d7 3c
       0.60434586 -1.0671347 0.16044445 0.026288478
000020 9d bf 8d be d6 6b 39 bd 70 be 56 be 16 e1 ca 3e
       -0.27685252 -0.045268856 -0.20971084 0.39624852
000030 72 4f 33 be f6 e8 78 3e 3a 43 b9 be 46 d6 1e be
       -0.17510775 0.24307618 -0.36184102 -0.15511426
000040 ac 42 a9 bd 67 6a f6 be a2 1a dc 3e 69 18 0f bf
       -0.0826467 -0.48128054 0.4298907 -0.5589662
000050 44 a5 b6 3d 38 60 3a be d0 aa 97 3e 17 74 97 be
       0.08918241 -0.18200767 0.29622507 -0.29580757
000060 e5 17 94 3e 06 93 50 be 30 78 a9 bc ac ee a3 be
       0.2892448 -0.20368585 -0.020687193 -0.3201803
000070 11 41 a5 3e 75 fe 74 3f db 20 03 3f 5e 5d 87 3e
       0.32276204 0.9570077 0.5122201 0.2643842
000080 8a 2b ea be 7c 06 f5 3d 38 af ff 3d 54 bb 7d 3f
       -0.45736343 0.119641274 0.12484592 0.99113965
000090 5b 6c 18 bf d3 fc 81 be 50 30 96 3e 62 52 37 be
       -0.5954034 -0.25388202 0.29333735 -0.1790252
0000a0 6f ce 76 3e 51 b0 a9 bd 5d 8e d3 3e 78 96 15 bf
       0.24102186 -0.08285583 0.41319552 -0.5843272
0000b0 1c 38 b7 3e c1 4c 07 bf ea 3e 9a bd 1b e1 ac 3e
       0.35784996 -0.5285149 -0.07531531 0.33765492
0000c0 64 b1 91 bd a6 02 91 3e 30 d0 76 3e c1 1a e7 bd
       -0.07113913 0.28322333 0.24102855 -0.112844
0000d0 a5 13 2a 3f 71 a2 81 bf 1b 0b c5 be eb 04 4d bc
       0.66436225 -1.0127698 -0.38485035 -0.01251338
0000e0 3e 29 9e 3d 60 8d 2e 3d 41 fa a6 bd 2d aa c5 3e
       0.0772271 0.042615294 -0.08153201 0.38606396
0000f0 98 d2 55 3c 72 9b 1e 3f 26 c8 1c be 61 32 12 be
       0.013050698 0.6195594 -0.15310726 -0.1427703

layers.2.s_block.net.3.0.bias f4 [8]
000000 b7 86 98 bc b7 fe 49 be eb a1 8f 3e 8d 35 71 be
       -0.018618925 -0.19726072 0.2805322 -0.23555584
000010 d5 b3 cd 3e 9a ef 1f 3e f3 da 43 be 1d 60 5a 3e
       0.40176263 0.15618744 -0.19126491 0.21325727

layers.2.s_block.net.4.weight f4 [1, 8]
000000 f6 11 1d 3f c7 c1 b8 be a5 ee c8 3e 7b 70 0e bf
       0.6135553 -0.3608534 0.3924457 -0.5564038
000010 fe 03 d4 be ae 86 05 3f b6 45 59 3f 65 76 44 be
       -0.41409296 0.5215863 0.84871995 -0.19185789

layers.2.b_block.net.0.0.weight f4 [8, 1]
000000 2a 6b 90 3f b6 da 6a 3f de 98 5f 3f 22 cb 30 bf
       1.1282704 0.91739976 0.8734263 -0.69059956
000010 82 d8 c7 bd 38 b4 c3 bd 52 4c 0a bf f1 f2 61 bf
       -0.097580925 -0.095558584 -0.54022706 -0.88261324

layers.2.b_block.net.0.0.bias f4 [8]
000000 39 99 0e bf 8b 97 68 3f 14 13 b5 3e b8 43 95 3f
       -0.5570255 0.90856236 0.35366118 1.1661291
000010 46 ac 85 bf 03 1e 6b bf e2 9c 10 bf db d5 d5 3c
       -1.0443199 -0.9184267 -0.56489384 0.02610295

layers.2.b_block.net.1.0.weight f4 [8, 8]
000000 a7 cd 72 bd e7 ff 7c 3e 4a c1 85 3e e1 7c 15 3e
       -0.059278157 0.24706994 0.2612403 0.14598419
000010 e9 48 5b 3c 15 68 6a be ca 48 cc bf 82 c6 a0 be
       0.013384082 -0.22891267 -1.5959713 -0.3140145
000020 0d 9f 03 3f 89 98 d2 bd 15 99 ad 3e ff 1b 10 be
       0.5141457 -0.10283 0.33905855 -0.1407318
000030 4d 95 83 3d 1e f3 61 3e ae 6d 2c 3e 84 e9 1b 3e
       0.06424961 0.22065398 0.16838714 0.15225798
000040 81 a6 52 bf c7 7b 55 be 68 64 52 3d 1f 59 3a 3e
       -0.82285315 -0.20847999 0.051365286 0.1819806
000050 f4 8c 3e be 66 e9 13 3e ed 5a 6f be b0 2b 49 be
       -0.18608457 0.14444503 -0.23374529 -0.19645572
000060 92 a5 87 bf 57 d9 0c 3e e2 34 cc bc a8 a7 97 3e
       -1.0597403 0.13754784 -0.02492756 0.296201
000070 a9 88 01 bf 33 3c 84 be a7 fc 1d 3e 00 0a c2 be
       -0.5059915 -0.25827178 0.1542841 -0.37898254
000080 c4 be 28 3b 16 1c 29 bf 3a 1d 55 bf 90 00 a6 3e
       0.002574847 -0.6605848 -0.8324772 0.32422304
000090 b9 81 6d bd f2 a6 cb 3c 01 d6 92 be f7 ea aa bd
       -0.05798504 0.02485988 -0.28678897 -0.08345597
0000a0 71 ce c6 bd 62 bb 23 bf 96 a6 f3 bc 4c 50 6d 3e
       -0.09707344 -0.639578 -0.02974252 0.23175162
0000b0 8a 8d 65 3e b2 ba eb bd b6 cc 0c bf a3 27 af b8
       0.22417274 -0.11510219 -0.54999864 -8.352033e-05
0000c0 51 12 bd be ee 54 ce be 90 17 91 be 9b f6 ed bb
       -0.36928037 -0.4029917 -0.2833829 -0.0072620637
0000d0 e7 3b 83 3d 82 d7 6e 3e 7d c2 27 3e fa 34 8d bd
       0.0640791 0.23324397 0.16382785 -0.0689487
0000e0 a4 f2 76 bd f2 fb af 3e 1b d3 8b 3e b0 6d f0 be
       -0.060289994 0.34371907 0.27309498 -0.46958685
0000f0 d5 97 1a 3d 86 02 b4 bd 1e 9c 3b bd 05 6f 48 be
       0.037742455 -0.08789544 -0.04580318 -0.195736

layers.2.b_block.net.1.0.bias f4 [8]
000000 d6 9b ac 3e a3 71 56 3e 46 49 3b be 30 72 05 3f
       0.33712643 0.20941786 -0.1828967 0.5212736
000010 66 63 6d 3d 43 95 c9 3e 6a 26 17 be a6 ef 71 3e
       0.05795612 0.3937169 -0.14760748 0.23626575

layers.2.b_block.net.2.0.weight f4 [8, 8]
000000 78 68 d1 bc 63 22 b7 3e ba 54 b7 be 53 26 23 bf
       -0.02556251 0.35768422 -0.3580683 -0.63730353
000010 ea 2e 65 3d 45 9f 92 3e c0 31 39 bd c5 6f 4a 3e
       0.055952944 0.28637138 -0.04521346 0.19769199
000020 a4 a0 f5 3e 3d cc 13 3e 6f f4 cd bc b0 96 f4 3e
       0.47974122 0.1443338 -0.02514097 0.47771215
000030 d6 3b 81 3c 26 9e e8 be 70 41 99 be b1 a9 24 3c
       0.015775602 -0.45433158 -0.29932737 0.010050223
000040 14 1f f8 be 94 2a 39 3e 47 f2 42 3e 21 a9 ab 3d
       -0.4846121 0.18082649 0.19037734 0.08381868
000050 93 61 16 be f9 73 68 3e a1 cf 8d be 96 99 5a bf
       -0.14685659 0.2270049 -0.2769747 -0.85390604
000060 2d b4 63 be 49 0a 31 3e 91 f5 bd be 90 34 59 bf
       -0.222367 0.1728908 -0.37101415 -0.8484583
000070 28 53 23 be 2f c2 72 bb 12 14 8f be 3d a8 1a 3e
       -0.1594969 -0.0037042012 -0.27945 0.1510324
000080 c0 14 11 bf dc 2a 65 3e a7 0e 9b bc 99 ac d3 bd
       -0.56672287 0.22379631 -0.018927885 -0.10335655
000090 2b 5d 81 be bf e3 af 3e cf 25 4c be c8 a7 ca be
       -0.25266394 0.34353444 -0.19936298 -0.39581132
0000a0 45 ef 07 be 80 ac 0a be 79 4c d6 3e 65 ba 14 3f
       -0.13274868 -0.13542366 0.4185522 0.58096915
0000b0 3a 13 17 bf 2a 9f eb be ce 1a 60 bd d8 03 d0 3d
       -0.5901371 -0.4601987 -0.054713063 0.10156983
0000c0 0c 8c bf 3e ea 24 e6 3e 81 29 3b bf c5 7f 8b be
       0.37411535 0.44950038 -0.73110205 -0.27245918
0000d0 58 16 1d 3e 1a 0f af bd b9 24 3c be 2a f4 2c 3f
       0.15340555 -0.08547802 -0.18373384 0.67560065
0000e0 47 0f 04 3e 89 93 75 be f5 f3 c0 3d 83 cb e1 3c
       0.12896453 -0.23982061 0.09421531 0.027562862
0000f0 11 11 05 3f 35 9d 5c 3f 85 e7 8d be 20 f1 28 bf
       0.51979166 0.8617738 -0.27715698 -0.6599293

layers.2.b_block.net.2.0.bias f4 [8]
000000 b0 2e b6 be 1e 3a 6b be 00 c5 b6 3e b7 dc 04 be
       -0.35582495 -0.22971389 0.35697174 -0.12974821
000010 11 f5 79 be 55 41 6a 3e a7 61 08 3e fc 53 98 3e
       -0.24409892 0.22876485 0.13318501 0.29751575

layers.2.b_block.net.3.0.weight f4 [8, 8]
000000 15 2e 46 bd 9c 4a 17 bc d6 b2 7c 3e 4a 75 85 bd
       -0.04838379 -0.009234097 0.24677595 -0.06516512
000010 1b b3 c7 3d 0d af 8e 3e fa 21 1c be 1c 1e b2 be
       0.097509585 0.27867928 -0.15247336 -0.34788597
000020 52 43 34 bc 35 c3 e8 be cd c0 86 be bc c5 dc be
       -0.011002379 -0.4546143 -0.2631897 -0.4311961
000030 05 8c eb 3d 35 cd 0d bf 4a 9a 8c 3e 15 0b 1d 3f
       0.11501316 -0.55391246 0.27461463 0.61345035
000040 4d 0e 39 3e 98 55 bc bd 52 e1 66 be b8 2e 9c 3c
       0.18071862 -0.09196013 -0.2254689 0.019065246
000050 ae f7 1b 3c 3d a9 f1 bd a5 00 54 be 08 82 c9 3d
       0.009519501 -0.11799858 -0.20703371 0.098392546
000060 0a 99 27 bf 1f 54 13 3e f8 65 98 3c f8 64 86 be
       -0.65467894 0.14387558 0.01860331 -0.26248908
000070 f6 60 ca be 39 5c 8f be 20 c4 1d 3f 55 83 73 3e
       -0.395271 -0.28000048 0.6162739 0.23780568
000080 b4 a6 11 be ac 09 de 3e a1 70 69 bf d2 46 ba 3e
       -0.14223748 0.43366754 -0.91187483 0.36382157
000090 d6 01 7a be aa 88 d3 3e 30 de 1e bf ed 4f 52 bf
       -0.24414763 0.41315204 -0.6205778 -0.8215321
0000a0 0f 58 a2 3d 43 eb 0e 3d e0 59 b0 3e 16 0a 03 3d
       0.07926952 0.03489233 0.3444357 0.03199204
0000b0 69 51 64 3e 6d b3 1e 3e 00 20 bc be bb ad 7c be
       0.2229668 0.15498133 -0.36743164 -0.24675648
0000c0 0f 8d 51 be fb 10 3d bf c5 8f 3e be 5b 94 42 3c
       -0.20463966 -0.73854035 -0.18609531 0.011876191
0000d0 42 b4 f2 be 77 1e a4 bf ce fe db 3e a9 c7 24 3f
       -0.4740315 -1.2821797 0.42967838 0.6436716
0000e0 0f 50 dc 3e fa 6f 6c 3d c3 2c ca bd 9a fa 38 be
       0.4302983 0.057723977 -0.09871819 -0.18064347
0000f0 2d e6 69 be 76 d8 a5 bc f8 d4 6b be cf b3 80 3e
       -0.22841711 -0.020244818 -0.2303046 0.25137183

layers.2.b_block.net.3.0.bias f4 [8]
000000 62 56 52 be 05 d5 38 be 75 05 17 bd b3 61 69 3e
       -0.20540765 -0.1805001 -0.03687044 0.22791176
000010 84 09 10 3e ea 3d 32 be 95 7d 89 be 33 4d 96 be
       0.1406613 -0.17406431 -0.26853624 -0.29355773

layers.2.b_block.net.4.weight f4 [1, 8]
000000 07 cb 84 3d 51 bb dd be 69 e7 c1 3c 03 3c f4 be
       0.06484037 -0.43306974 0.023669915 -0.47702035
000010 79 5b 76 3f 29 a0 cf 3d 88 eb da be d8 5a a4 3e
       0.96233326 0.1013797 -0.4275782 0.32100558

layers.4.s_block.net.0.0.weight f4 [8, 1]
000000 6b d1 2c 3f e8 6a 10 bf 72 f2 69 bf 45 19 a4 be
       0.67507046 -0.56413126 -0.9138557 -0.3205053
000010 70 76 4e 3f 5f 92 04 bf 7c 3b ea be 67 15 39 3f
       0.8064947 -0.51785845 -0.45748508 0.7229828

layers.4.s_block.net.0.0.bias f4 [8]
000000 bd 66 41 3f 09 8a 33 bf 29 24 98 3e 0d d6 f9 be
       0.7554739 -0.701325 0.29715088 -0.4879612
000010 b6 f6 82 3f 48 eb 64 3f 4b 32 4e 3f dd d5 5f bf
       1.023154 0.8942151 0.8054549 -0.87435704

layers.4.s_block.net.1.0.weight f4 [8, 8]
000000 e5 00 c6 be 6b 4a 4b bd 64 ce 51 3d bc 84 ea bd
       -0.38672557 -0.049631517 0.05122222 -0.11451098
000010 24 fe b1 bc 65 9a b4 3c 72 d8 39 be 20 61 1d 3f
       -0.021727629 0.022046277 -0.18148974 0.61476326
000020 10 26 00 bf 5c 5b b3 bd da fd e9 3e 0f 66 d1 be
       -0.5005808 -0.0875766 0.45701486 -0.40898177
000030 be 7b 53 bf fe 7c 40 3e d8 f7 21 3e 0c c7 71 be
       -0.8261069 0.1879768 0.15817201 -0.23611087
000040 8c 52 6f 3e 64 d4 47 be be 72 62 3c 00 f4 5d bd
       0.23371333 -0.19514614 0.013821302 -0.054187775
000050 0d 5a 27 be 87 c4 d8 be 7c 8a e6 be 4a 82 07 bf
       -0.16342945 -0.42337438 -0.4502753 -0.5293318
000060 a1 6a b4 3d 9c 90 52 be af 6e 70 3e f8 93 c1 3d
       0.088094 -0.20562977 0.23479722 0.09452051
000070 cd 8a bf 3d 66 09 0d 3e 1d 35 41 3e 2e 8e 55 be
       0.09352646 0.13773116 0.18867917 -0.20855018
000080 6a b0 31 bf f8 d5 e0 be 90 b4 cb 3d 01 ed cd be
       -0.6940981 -0.43913245 0.09946549 -0.40219882
000090 3b a5 c6 be 05 82 1b 3e 81 25 86 be b6 a3 05 3e
       -0.38797936 0.15186317 -0.26200488 0.13050732
0000a0 19 8c 83 3e b9 35 d6 3d 63 5a 2d be cd 00 54 be
       0.25692824 0.104594655 -0.16929011 -0.2070343
0000b0 dc eb 43 be e6 d1 26 3e ae 34 98 3e d2 23 e9 be
       -0.19132942 0.16291007 0.2972769 -0.4553514
0000c0 15 ad cf bb 8f 71 e4 3d 68 52 89 3d fd 54 d5 3d
       -0.0063377717 0.11154472 0.06705171 0.10416601
0000d0 c7 44 b1 3e f1 1a ea 3e 6d 91 92 3e d8 43 1f bf
       0.34622785 0.4572368 0.28626576 -0.62212896
0000e0 2e 0b aa bd db 5e 0a bf e0 f8 37 bc bb cc 46 bd
       -0.083029136 -0.5405099 -0.01122877 -0.04853509
0000f0 2f 97 8a be e0 7a 48 be ad d8 cc 3e 79 87 fd bd
       -0.2706847 -0.19578123 0.4000906 -0.12379355

layers.4.s_block.net.1.0.bias f4 [8]
000000 fc 67 4d 3d 9b 80 7b 3e f4 88 7f 3d a0 eb c1 3e
       0.050147995 0.24560778 0.062386468 0.3787508
000010 c0 14 32 3e 98 29 0a be 51 03 19 3e df 5c 79 bd
       0.17390728 -0.1349243 0.14942671 -0.060879584

layers.4.s_block.net.2.0.weight f4 [8, 8]
000000 ce 65 cc be 8a 6c 67 bd 20 61 a6 3d cb 04 d3 bc
       -0.3992142 -0.056499995 0.08123994 -0.025759121
000010 23 71 2d bf 1d d9 5d be 14 1b f4 3c 60 5a dc be
       -0.6775076 -0.21664853 0.029798068 -0.430377
000020 05 dd b7 be 6a a8 8a bf fd f6 3a 3e 5f 14 af 3e
       -0.35910812 -1.0832646 0.18258281 0.3419523
000030 88 57 d0 be a4 1e 86 3d 89 ca da 3e 56 91 11 3c
       -0.4069178 0.06548813 0.42732647 0.008884748
000040 31 82 f0 3d 98 cd 35 bf 04 7c 78 3e a0 5a 79 3e
       0.11743582 -0.71016836 0.24266058 0.24350977
000050 f9 99 ba 3e bd da 07 3c 74 02 9c 3e 6c ae 75 3d
       0.36445597 0.008291897 0.30470622 0.059980795
000060 ff 74 b8 3e d8 82 dc 3e 5f 44 3e be bd 71 87 be
       0.3602676 0.43068576 -0.18580769 -0.26453963
000070 b2 f2 6e be 8d f8 8b 3e 8b 6c ae bd 24 21 c1 bd
       -0.23334768 0.27338067 -0.08516797 -0.09430149
000080 79 46 a7 3d 11 a8 f9 bd 81 88 9a 3c 42 43 a0 be
       0.081677385 -0.12190259 0.018863918 -0.31301314
000090 5f 49 49 3e e0 1c 83 be da e5 a6 be e6 ca 46 3e
       0.19656895 -0.25607967 -0.32597238 0.19413337
0000a0 e9 30 55 bd 30 67 b1 3e 2f c7 8e be cf b9 7f be
       -0.052048597 0.34649038 -0.2788634 -0.24973224
0000b0 77 30 c4 be 50 8b c6 3e 60 f0 6d be 29 ba 34 bd
       -0.38318226 0.38778162 -0.23236227 -0.04412285
0000c0 a8 12 1e 3d c7 14 95 bd b2 a0 96 be 3a a4 70 be
       0.03859201 -0.072793536 -0.29419476 -0.23500147
0000d0 c4 c4 33 bd 12 6c 20 be 41 12 9b be 4c 60 8d 3e
       -0.043888822 -0.15666226 -0.30287364 0.2761253
0000e0 6d 6a a0 bd 21 c6 30 bf 92 4e 40 3e c2 31 a2 3e
       -0.07832799 -0.6905232 0.18779972 0.31678587
0000f0 74 5f 5d 3e 7a 97 0e 3e 41 75 7b 3e fd a1 2a be
       0.21618444 0.13924971 0.24556448 -0.16663356

layers.4.s_block.net.2.0.bias f4 [8]
000000 0c ab 99 ba e6 47 fc 3d f4 dc 08 3d b8 2e 51 be
       -0.001172395 0.12318401 0.033413842 -0.20427978
000010 23 51 f4 3c 39 de c9 3d c0 0f f4 3c bd f7 0a 3c
       0.029823845 0.09856839 0.029792666 0.008481917

layers.4.s_block.net.3.0.weight f4 [8, 8]
000000 66 1a 7b be 0a 97 af 3d b7 c2 32 be a1 99 9f 3e
       -0.24521789 0.0857373 -0.1745709 0.31171897
000010 5a 8f aa 3e 54 31 45 3e e1 23 84 be 15 a2 a7 3d
       0.33312494 0.19257098 -0.25808623 0.081852116
000020 49 a0 6f 3d 82 e5 fd ba 68 42 24 3e a1 ee 8d 3d
       0.05850247 -0.0019370767 0.16040957 0.069302805
000030 64 65 be 3e dd b9 91 3e 36 f2 fc bd 2b bd 50 3e
       0.3718673 0.28462115 -0.123508856 0.20384662
000040 4e 7e 17 3e 5b 4e ed be 00 ed 95 3c 8d 2e 66 be
       0.14794275 -0.46348843 0.018301487 -0.22478695
000050 c1 91 b5 be c2 39 6c bd bc 43 a0 3e 1b f5 e4 3c
       -0.35462764 -0.05767227 0.31301677 0.027948907
000060 76 60 41 be 55 76 11 3e 4b 57 89 be ec cd 2a 3e
       -0.18884453 0.14205296 -0.26824412 0.16680115
000070 d6 2c b0 3d 2d 0e 46 be 50 4d 2a 3e 4b 13 52 3e
       0.08602302 -0.19341345 0.16631055 0.20515172
000080 91 16 83 3e 50 01 b5 3e 46 a6 22 3e f0 06 a8 be
       0.25603154 0.35352564 0.15883741 -0.32817793
000090 f0 12 d1 3e e7 82 6d be 87 cc 89 3e 0b ef d3 3e
       0.4083476 -0.23194467 0.26913854 0.41393313
0000a0 a2 71 ab be c8 7c 16 3e ce bf c5 3e 14 b5 f8 3c
       -0.33485132 0.14696038 0.38622898 0.030359782
0000b0 c6 6e c3 3e 48 fe c5 bd a4 60 e5 3d 96 1a ee 3e
       0.3817045 -0.09667641 0.11200073 0.46504658
0000c0 8c 37 ac be 8e 60 2a 3e b4 a6 5a be be 63 06 be
       -0.3363613 0.16638395 -0.21352655 -0.13123986
0000d0 c8 72 b5 3e 0b df d4 3d 1d 37 fd bd 46 52 5c bd
       0.35439134 0.103941046 -0.12364028 -0.0537894
0000e0 a6 11 42 be 25 50 06 3e df 7f 9f 3d af e4 d8 bd
       -0.18952045 0.1311651 0.07788061 -0.10590493
0000f0 97 0c f9 3d f7 5f b4 3e 26 0a 9c 3e 71 38 80 be
       0.121606044 0.35229465 0.30476493 -0.2504306

layers.4.s_block.net.3.0.bias f4 [8]
000000 2d 17 20 bd 7f c5 8c be 97 61 6e be 64 a4 07 be
       -0.039084602 -0.27494428 -0.23279415 -0.13246304
000010 de a2 f9 3a 48 ea 02 b9 1b 92 02 bb f1 d8 a3 bc
       0.0019045731 -0.00012485043 -0.0019923511 -0.020000907

layers.4.s_block.net.4.weight f4 [1, 8]
000000 f6 01 21 3d 8a 8b 0d 3e f1 9b 2d be 7b 5a eb 3d
       0.03930851 0.13822761 -0.16954018 0.11491867
000010 85 fd c3 3e 8d 80 7c 3e c2 02 8e 39 0f 3c ba 3a
       0.38279358 0.24658413 0.00027086405 0.0014208573

layers.4.b_block.net.0.0.weight f4 [8, 1]
000000 62 db fc be f8 3f f5 be 06 2e ba 3d 81 c4 45 bf
       -0.49386126 -0.47900367 0.090908095 -0.77252966
000010 1e 7a d3 3d 2a 18 30 3f e2 0d d1 be 43 12 ab bd
       0.103260264 0.6878687 -0.40830904 -0.083530925

layers.4.b_block.net.0.0.bias f4 [8]
000000 4e 8b f6 be f5 32 ee be 2d 18 86 3f a7 5f e1 bc
       -0.48153156 -0.46523252 1.0476128 -0.02751143
000010 9a 1f 91 be 28 82 c7 3d c9 8a cc be c3 e0 1a bf
       -0.28344423 0.09741622 -0.39949635 -0.6049921

layers.4.b_block.net.1.0.weight f4 [8, 8]
000000 6e bc a6 3e be 45 22 3f 67 c3 b4 bd 6c d7 a1 3e
       0.32565635 0.6338767 -0.088263325 0.31609666
000010 cc 2b 88 be 5b cf 26 bd 94 84 4c 3f 09 42 c2 bd
       -0.26595914 -0.040725093 0.798898 -0.094852515
000020 f5 ca 26 3d a2 d8 30 3f bb 29 99 3e 86 17 e8 3e
       0.0407209 0.69080555 0.2991465 0.45330447
000030 b2 4e b4 3d 88 b3 5c 3c 25 6b 7a 3e 7d 08 cd be
       0.088040724 0.013470538 0.24454935 -0.4004554
000040 9e 63 a3 bc 2d 4b e4 3e a4 ad 1f 3e a7 25 54 be
       -0.019944962 0.44588605 0.15593582 -0.20717488
000050 43 a0 31 be 5c d0 2b bf 33 52 a6 bc 49 d5 e0 bd
       -0.17346291 -0.67114806 -0.020302868 -0.10978181
000060 a3 fd b1 bf a9 3e a6 bf 71 a2 50 bd 69 29 a2 bd
       -1.3905529 -1.2987872 -0.050936166 -0.079180546
000070 a0 67 7c 3d 05 cf 04 3f d5 84 70 bf 86 d0 b4 bd
       0.061622262 0.51878387 -0.93952686 -0.08828835
000080 e1 f8 d2 be 3a f6 b2 be b2 23 1d bd 98 65 61 be
       -0.41205505 -0.3495348 -0.03836412 -0.22011411
000090 f7 22 f7 bd cd 77 4f bf 59 33 fa bd 92 d8 c4 3d
       -0.12067216 -0.81042176 -0.12216825 0.0961162
0000a0 0a 2e df 3e da 7b fa 3c 38 a9 d8 be 02 e2 bd bd
       0.43589813 0.030576635 -0.42316604 -0.09271623
0000b0 39 28 c9 3e 88 6b ad 3e c2 d7 43 3e d9 9e b5 bd
       0.392885 0.33871102 0.19125274 -0.088681884
0000c0 90 43 e5 3e e8 44 06 3e e9 9e 46 3e 2c f9 8c be
       0.4477811 0.13112223 0.19396557 -0.27533853
0000d0 e5 eb 38 3d 59 32 bd be a9 1a b0 3e c2 a2 24 3e
       0.04514684 -0.36952475 0.3439534 0.16077712
0000e0 da c0 cd 3e 73 7a 99 3e 44 71 ff 3e d9 34 86 be
       0.40186197 0.29976234 0.49891102 -0.26212195
0000f0 14 5e 98 3c fe a0 04 bf e8 5d 27 3f a9 18 dd 3b
       0.018599547 -0.51808155 0.65377665 0.0067473245

layers.4.b_block.net.1.0.bias f4 [8]
000000 ea 92 1a be 7f be bc bd 9d 28 ad be 5f a0 a4 3e
       -0.15095106 -0.09216022 -0.33820048 0.32153603
000010 4c 49 cb be 6d 64 3d be 49 c7 9b 3d 7d dc 0c be
       -0.3970436 -0.1849534 0.0760637 -0.13755985

layers.4.b_block.net.2.0.weight f4 [8, 8]
000000 9a 2c b5 3e b4 17 7b 3e f8 0a d5 be 88 a6 56 be
       0.3538559 0.24520761 -0.4160993 -0.20961964
000010 cb aa fd 3d 21 c5 07 bd c0 e2 4b 3d 2e c9 bd 3c
       0.12386092 -0.03314698 0.049776793 0.023167219
000020 4f c4 e8 3e 40 1c f2 3c 9f 52 de 3c cd 8c 7c be
       0.45462272 0.029554486 0.027139006 -0.24663086
000030 40 67 ca 3e 8f f9 7b 3e fd aa 5c be bd ed e9 bd
       0.39531898 0.24606918 -0.21549602 -0.11422298
000040 63 b8 1a 3f 64 16 0c 3f e5 1e d6 bd bd 0b a0 bf
       0.604376 0.54721665 -0.104551114 -1.2503582
000050 06 cd fb be 3a c5 8e 3e 20 0e a7 3d 61 15 86 3e
       -0.49179858 0.27884847 0.08156991 0.26188186
000060 82 3a d2 3e 2b 01 90 3e 4b bb 15 3e 83 af 8f 3d
       0.41060263 0.2812589 0.14622228 0.07015898
000070 8b 33 99 be 73 88 d0 3e 48 0b 6f be 08 c4 78 3e
       -0.29922137 0.40729102 -0.23344147 0.2429353
000080 28 7d 1d bd db 6b 33 bd 19 95 03 bd 84 49 51 be
       -0.038449436 -0.04380403 -0.032124612 -0.204382
000090 86 a5 74 be 6e d9 b3 3e 77 1a 11 be cb 17 63 bc
       -0.23891267 0.35126823 -0.14170252 -0.013860653
0000a0 94 d7 46 bf 23 c0 08 3e e0 92 f1 be 53 bd 89 3e
       -0.77672696 0.13354544 -0.4718237 0.26902255
0000b0 28 03 eb be 71 a8 19 bf f4 09 0b bf 2f 80 98 bf
       -0.45900846 -0.60022646 -0.5431206 -1.1914119
0000c0 59 72 b6 be 23 d5 04 3e 5a ed 77 3e 17 31 1d bf
       -0.35634115 0.1297193 0.24211636 -0.6140303
0000d0 63 21 a3 bd d4 a5 70 3e 71 43 b6 bd 67 b9 96 3e
       -0.079653524 0.23500758 -0.08899582 0.29438326
0000e0 51 d1 d6 3e f4 71 10 3c 9a 70 24 3d 70 c0 89 be
       0.4195657 0.008816231 0.040146448 -0.2690463
0000f0 e2 66 d3 be bf a4 f9 3d b4 b9 ce bb fb 15 03 3e
       -0.4128943 0.12189626 -0.0063087586 0.12801354

layers.4.b_block.net.2.0.bias f4 [8]
000000 d5 2d 60 3e fc e6 96 3e 2e 20 87 bd 6a db bb 3d
       0.21892484 0.29473102 -0.06597935 0.09172709
000010 78 85 d7 3e 15 63 44 3e 65 61 4b 3e ea 85 ad 3e
       0.42094016 0.19178422 0.19861372 0.3389123

layers.4.b_block.net.3.0.weight f4 [8, 8]
000000 00 84 ca 3e 31 25 a8 bd 4a 20 29 3f 55 a8 1b 3e
       0.39553833 -0.08210219 0.66064894 0.15200932
000010 26 4c ab 3e 2c c3 09 bf a7 23 3d be 20 c2 03 be
       0.33456534 -0.53813434 -0.18470632 -0.12867022
000020 1f 5e 59 3d 74 4c 3d be 87 fa cb bf e7 c2 91 bd
       0.053068276 -0.18486196 -1.593583 -0.07117253
000030 92 75 3e 3e e9 da 52 3f 52 e0 b4 3e 25 74 cc 3c
       0.18599537 0.8236528 0.35327393 0.024957726
000040 c6 49 69 3e 24 9c 1b 3e e1 be 05 3f 62 96 a7 3e
       0.22782049 0.15196282 0.52244383 0.3273192
000050 fa e6 a7 3e 26 27 42 bf 50 2f d8 3d 39 fd 77 3e
       0.3279341 -0.75840986 0.10555899 0.2421769
000060 0b 41 b8 3e 4c 4e 2a 3d f8 b4 e0 3e 32 83 b1 3d
       0.35987124 0.041578576 0.43888068 0.08667602
000070 05 ec 6e 3b e9 1e 70 bf d5 6c 32 be 3c c5 1e be
       0.0036456597 -0.93797165 -0.17424329 -0.15504926
000080 26 64 8a be cb 13 d9 3d 36 69 a6 be 7d 38 af 3d
       -0.27029532 0.10599478 -0.32502145 0.08555696
000090 77 de 05 3e 43 9f 25 3f 36 03 0b 3e 02 01 04 be
       0.13073145 0.6469614 0.13575444 -0.1289101
0000a0 8f 41 64 be 7a 1e 6e be 95 60 ca 3e 5b 31 de bd
       -0.22290634 -0.23253813 0.3952681 -0.108492576
0000b0 b2 08 94 bb 3c ba 25 bf c4 c9 22 be 1e 8f 0d bc
       -0.004517638 -0.64737296 -0.1589728 -0.008640079
0000c0 bb 50 79 3e ba e2 38 3d 18 d2 e0 be 26 f3 90 be
       0.24347202 0.0451381 -0.4391029 -0.28310508
0000d0 e7 1c 44 be cb 77 38 3f db dc 75 3e d8 3e 94 3e
       -0.1915165 0.7205779 0.24010031 0.28954196
0000e0 03 03 93 3c 7b c8 c7 3d 5a 22 fe be 7e 44 1d 3e
       0.017945772 0.097550355 -0.49635583 0.15358159
0000f0 67 12 d6 be c6 0c 32 3e 23 75 d4 bd 55 c3 bd be
       -0.41810915 0.17387685 -0.103739046 -0.3706309

layers.4.b_block.net.3.0.bias f4 [8]
000000 b2 11 ac 3d 29 cb c7 3e f2 d3 b6 3d f5 5d b0 3e
       0.084018126 0.39022186 0.08927144 0.34446684
000010 40 04 df be a6 a6 9e be 31 f7 16 ba 8c 72 28 3e
       -0.4355793 -0.30986518 -0.000575888 0.16449946

layers.4.b_block.net.4.weight f4 [1, 8]
000000 56 be 8f be e4 ae ce 3e 28 2c 00 bf 00 4e 03 be
       -0.28074902 0.40367806 -0.5006738 -0.12822723
000010 f4 40 8b 3e 0a be 47 bd 29 53 2e 3e a9 c4 f0 3d
       0.27197993 -0.04876522 0.1702391 0.1175626

layers.6.s_block.net.0.0.weight f4 [8, 1]
000000 cc 72 13 bf 16 a5 76 bf e3 49 0a be 9a 05 95 3e
       -0.5759704 -0.9634565 -0.13504748 0.29105836
000010 67 a5 bf 3e 96 8d 45 bf 4e 21 3c 3f a7 31 33 3f
       0.3743088 -0.7716917 0.7348832 0.6999764

layers.6.s_block.net.0.0.bias f4 [8]
000000 b6 a4 1b bf 26 c8 9c be 86 40 22 bf a8 87 40 3f
       -0.60798204 -0.3062145 -0.63379705 0.75206995
000010 c0 5c 56 3f 99 b9 33 bf a7 80 3c bf 80 f3 b1 3d
       0.83735275 -0.70205075 -0.7363381 0.08689022

layers.6.s_block.net.1.0.weight f4 [8, 8]
000000 7e 7c 07 be c5 d4 d4 3d ae be 0b 3e b3 04 56 3e
       -0.13231084 0.10392145 0.13646957 0.2090023
000010 24 4d 90 3d b9 13 3a be aa d4 9b 3e ea e0 d5 3e
       0.070459634 -0.18171586 0.30435687 0.41773158
000020 3b 85 2f 3f 78 a1 f5 3e 08 c2 d8 3d 7b 72 ab be
       0.6856267 0.47974753 0.105838835 -0.3348578
000030 76 ad 86 be dc 2d 4e 3e b4 39 b2 3e f2 a3 06 3d
       -0.26304215 0.20134681 0.3480965 0.032871194
000040 6b c2 02 3e 32 6d 37 3d 5f 97 c2 3e d9 fb 9b be
       0.12769477 0.04478187 0.38006112 -0.30465582
000050 8e ce ed 3d 06 dc 6c 3d ad 5a a6 3b 63 59 9b be
       0.11611663 0.05782702 0.0050767274 -0.30341634
000060 46 7f a7 3e 22 9f a7 bd d4 80 92 bc a8 ef e7 bc
       0.3271429 -0.08184649 -0.017883696 -0.02831252
000070 e3 7d 29 bc 16 d0 c1 3e 07 61 f2 3e d1 40 cf 3e
       -0.010344955 0.3785407 0.4733965 0.40479138
000080 a3 19 a3 be 32 88 18 be 13 2f 8f be 36 1b 28 3e
       -0.31855497 -0.14895704 -0.27965602 0.1641663
000090 92 99 80 3e 30 f0 c5 3e 6e 53 d2 bd a4 a5 3d 3f
       0.25117165 0.3865981 -0.10269819 0.7408087
0000a0 93 16 09 be 16 ec b3 be cf 57 d6 bd ce 89 5d be
       -0.13387518 -0.35141057 -0.10465967 -0.216346
0000b0 83 7d 92 be 3f 1d 14 3c 0c a5 fa be 83 ef ee bc
       -0.28611383 0.009040176 -0.48954046 -0.029166942
0000c0 9b 9f d7 be 75 fd ab 3c ef 3d 35 3e 3d 8a e8 bd
       -0.42113957 0.020994881 0.17699407 -0.11354492
0000d0 ed ae 9d be 54 ca 54 be f2 ac 2a bf 08 1a 47 3e
       -0.3079752 -0.20780307 -0.66670144 0.19443524
0000e0 06 d2 5a 3e df 69 b4 3e 6b 4f 16 3f 55 9b 97 3e
       0.2136918 0.35237023 0.5871493 0.29610696
0000f0 40 af 90 3e 46 24 74 be d5 2b 4b be 0a 8e de 3d
       0.28258705 -0.23841962 -0.1984094 0.108669356

layers.6.s_block.net.1.0.bias f4 [8]
000000 88 6d 44 be 94 36 bd bd 44 b4 4a 3e d5 6b bc be
       -0.19182408 -0.092389256 0.19795328 -0.3680102
000010 9c c0 0f 3e 4a ef 58 3e a4 a0 99 3e 3f bd 4e 3e
       0.14038318 0.21185032 0.30005372 0.20189379

layers.6.s_block.net.2.0.weight f4 [8, 8]
000000 11 5b 3b bf 96 b1 a7 3e 5a 51 1f 3e 61 e6 a4 be
       -0.7318583 0.32752675 0.15558377 -0.32207015
000010 a5 1a fa be 24 a2 7c 3e 10 e2 01 3e 41 00 7d 3d
       -0.48848453 0.24671227 0.12683892 0.06176782
000020 78 c4 da bc d0 6c 1d bf 5f ce 39 be 45 20 e7 be
       -0.026705012 -0.6149416 -0.1814513 -0.45141807
000030 f5 0c b6 3e 2f a4 be 3d f9 9e ca 3d 51 d2 f9 3d
       0.3555676 0.09308659 0.09893603 0.12198318
000040 fe d3 b3 be 9e 40 60 bf e0 17 45 be 31 0f 22 bf
       -0.35122675 -0.875986 -0.19247389 -0.6330443
000050 3e 6f 01 bf b9 19 4c be 65 4f dd 3d 9d d5 9c be
       -0.5056037 -0.19931687 0.10806159 -0.30631724
000060 27 9f a1 3d 7b 07 32 3f e6 b0 95 bc 24 85 2f 3f
       0.07891684 0.69542664 -0.018272828 0.6856253
000070 d3 ec eb 3d 65 c5 9d be 2a 33 1a 3e 22 d2 b1 3e
       0.1151978 -0.30814663 0.1505858 0.3473063
000080 51 b6 e8 be 0d 23 04 bf fe 53 87 3e 1f 4f 1c bf
       -0.45451596 -0.51615983 0.26431268 -0.6105823
000090 79 dc 52 be 96 9c bd 3e 75 ae d3 3e 3a 8d 63 3e
       -0.20591916 0.37033528 0.41344038 0.22221842
0000a0 00 ef 39 3d 61 f9 a8 be 73 45 8d 3e b4 55 02 bf
       0.045393944 -0.3300276 0.27592048 -0.5091202
0000b0 ec 9a a3 3d 35 a5 cc 3d 35 bf ba 3e f0 cd be bd
       0.079885334 0.09992448 0.36474004 -0.09316623
0000c0 06 c2 fd 3c 5d 5e 0d bf 69 5f d4 be 49 fd dc be
       0.030976307 -0.5522211 -0.41479042 -0.4316199
0000d0 31 96 bc 3a a8 e5 7e 3e 52 f1 b4 3d 9f 14 a4 3e
       0.0014388022 0.24892294 0.08835091 0.32046983
0000e0 e7 43 a6 3b 7a 88 97 3e 61 68 82 be 46 15 79 bc
       0.0050740126 0.2959631 -0.2547026 -0.015202826
0000f0 3b 48 69 3d 75 0c 1f 3e 6c 37 45 be 8d 83 8a 3e
       0.05695365 0.15532096 -0.19259423 0.2705349

layers.6.s_block.net.2.0.bias f4 [8]
000000 97 a6 27 3e e7 f8 ec 3d 31 f7 86 be be 94 8b be
       0.16372143 0.11570912 -0.26360467 -0.2726192
000010 f9 fe a7 3e 5c c4 05 be ea 2c 6f 3d 5e 66 2a 3e
       0.32811716 -0.13063186 0.058392443 0.16640612

layers.6.s_block.net.3.0.weight f4 [8, 8]
000000 98 cf 27 3e 87 e0 03 bf a1 0b 00 bf d7 0f fd 3e
       0.16387784 -0.51514477 -0.50017744 0.49426147
000010 69 45 df be 1d 17 af bd 09 11 0f bc b3 7c b6 bc
       -0.43607643 -0.085493304 -0.008732089 -0.022276258
000020 c7 01 3b bf d0 43 90 3d 40 bd fc 3d b8 54 81 bf
       -0.73049587 0.07044184 0.12340784 -1.0103979
000030 c4 5b cf 3e 90 0a 77 3e b2 a4 53 be 5a 62 66 bd
       0.404997 0.24125123 -0.20668295 -0.05624614
000040 f1 07 97 be e4 a8 b2 3d e1 f2 46 3e 30 86 f0 bd
       -0.29498246 0.087236196 0.19428588 -0.11744344
000050 03 f7 0b be a8 d4 18 3e d3 90 a7 3e 94 56 5b be
       -0.13668446 0.14924872 0.3272768 -0.21419746
000060 1b 74 ea be c0 5e 52 3e 17 c4 ad 3d ea 1d 37 bf
       -0.45791706 0.20543957 0.08484667 -0.7153002
000070 45 89 54 3e cf c8 98 3d e3 10 be 3d 4c 5d 5d be
       0.20755489 0.07460176 0.09280565 -0.21617621
000080 f9 a5 07 3f 56 35 64 bd 36 d4 15 bf ad 6b 9f 3e
       0.5298763 -0.055714928 -0.58526933 0.31136838
000090 a4 79 97 be 6d 85 b0 bd e6 cd bd be 84 ac 9a 3d
       -0.29584992 -0.08619199 -0.3707115 0.07552436
0000a0 20 e3 98 3e ab 11 94 be 16 f4 b9 be dc 15 16 3f
       0.29860783 -0.2891973 -0.36319035 0.58627105
0000b0 1f 64 1d 3d c4 ba a0 be 67 1a 11 bf df 1f 48 be
       0.03842556 -0.3139249 -0.5668091 -0.19543408
0000c0 21 af 30 be 69 76 58 3e 03 25 14 be ab 57 bf be
       -0.17254306 0.2113892 -0.14467244 -0.37371573
0000d0 9c f9 b8 bd 90 13 a3 be 6a 52 26 be b9 d7 63 be
       -0.09031984 -0.31850863 -0.16242376 -0.2225026
0000e0 09 1d ea 3e 0e e9 08 bf d8 39 2f 3d 12 c5 48 3e
       0.45725277 -0.53480613 0.042779773 0.19606426
0000f0 57 5e 83 3d 59 87 78 bd 22 ac 0b bb 61 a7 49 3d
       0.06414478 -0.060675953 -0.0021312316 0.04923189

layers.6.s_block.net.3.0.bias f4 [8]
000000 b8 e7 a8 3e 65 39 91 3e 94 24 43 bd 85 69 3d 3e
       0.32989287 0.283641 -0.047642305 0.18497284
000010 bf 90 0d 3e 91 9c ac bd a9 f2 f5 bc b3 6e 92 3d
       0.13824748 -0.084283 -0.030022936 0.071500205

layers.6.s_block.net.4.weight f4 [1, 8]
000000 62 97 b1 be 45 84 37 3e fb 30 54 bb 3a d6 a2 3e
       -0.34685808 0.1792155 -0.0032377827 0.31804067
000010 36 4e 05 bf 3c c8 b3 be 52 4e 56 3e b6 d4 71 be
       -0.52072465 -0.35113704 0.20928314 -0.23616299

layers.6.b_block.net.0.0.weight f4 [8, 1]
000000 f6 a3 1f 3f b9 78 34 3e 1a 78 8c 3e 1c e8 f8 bd
       0.6235956 0.17624177 0.2743538 -0.12153646
000010 d3 34 0f 3f ca 48 9d bf 10 77 40 bf e5 eb 82 bf
       0.5593998 -1.2287838 -0.75181675 -1.0228239

layers.6.b_block.net.0.0.bias f4 [8]
000000 8f d1 40 3f db 46 43 bf 9f 47 b4 3e f6 33 67 3e
       0.7531976 -0.7627999 0.35210893 0.22578415
000010 e1 b2 8a bf 0b ce c2 3e 6c 08 3a bf 58 3d 28 3f
       -1.083584 0.38047823 -0.726691 0.65718603

layers.6.b_block.net.1.0.weight f4 [8, 8]
000000 b8 3b 62 bf 8e 95 25 3e 05 7f 99 3c 7a 5c 77 be
       -0.88372374 0.16170332 0.018737325 -0.24156371
000010 1e d0 df bc 25 63 ba 3d 48 c7 11 3f 59 c8 c9 3e
       -0.027320918 0.091009416 0.56944704 0.39410666
000020 8e 48 95 be 9d 78 88 be 0b 01 d3 bd 3a 9d 3a be
       -0.29156917 -0.2665452 -0.10302933 -0.1822404
000030 f0 ff f4 be 5c 99 99 be 08 e2 c8 3d 82 14 50 3e
       -0.47851515 -0.29999816 0.09808737 0.20320323
000040 ff 13 b1 bf 5c fb 1b be 84 da a8 be e1 cf a6 3d
       -1.3834227 -0.15232605 -0.32979214 0.081451185
000050 24 68 13 be 57 d2 7d 3d 39 b4 39 3f da 1c b2 3e
       -0.14395195 0.061968174 0.7254062 0.34787637
000060 ad 5b 18 be f3 0d a4 3d 66 32 80 3e 15 30 de 3c
       -0.14878722 0.08010473 0.2503845 0.027122537
000070 b7 96 f4 3e c0 10 75 3a d8 74 1f 3f 43 a7 dd 3d
       0.47771236 0.0009348504 0.62287664 0.10822918
000080 2e a3 d8 be 57 88 7f 3e b8 b9 85 3d ea b8 60 be
       -0.42311996 0.24954353 0.06529564 -0.21945539
000090 c6 9f 5c 3e 19 29 ff bd 27 0b a3 be 33 c5 8d 3e
       0.21545324 -0.12459011 -0.31844446 0.27689514
0000a0 fd a1 af 3d 55 e4 cb be 54 80 4f 3e c0 9e a9 be
       0.08575819 -0.3982264 0.20263797 -0.3312893
0000b0 f3 5c 03 bf 68 33 b1 3e 90 9f bb bf dd e8 9d 3d
       -0.51313704 0.34609532 -1.465807 0.07710431
0000c0 96 c1 c3 3d ab 4b 8a be 77 65 b5 3e 31 e0 32 3d
       0.09558408 -0.27010855 0.35428974 0.043670837
0000d0 a4 ce 5b bd a9 1f 50 bc c4 06 67 be 26 96 88 3e
       -0.053663865 -0.012702861 -0.22561175 0.26677054
0000e0 d4 c2 18 be e8 a9 84 3e 36 4e 74 3d f9 31 12 bd
       -0.14918071 0.25910878 0.0596449 -0.03569219
0000f0 e3 ca 98 3e bb 18 49 3e de 41 83 be 67 d9 af bd
       0.2984229 0.1963834 -0.2563619 -0.08586388

layers.6.b_block.net.1.0.bias f4 [8]
000000 fb dd c4 be 53 b2 b0 3d 1d b9 f8 be 67 1e 2e 3e
       -0.38450608 0.08627763 -0.4857873 0.17003785
000010 11 0f fc bd 62 d1 d0 3e 7d 8e b4 3e 79 26 19 be
       -0.12307561 0.40784746 0.3526496 -0.14956082

layers.6.b_block.net.2.0.weight f4 [8, 8]
000000 f6 90 50 3d 23 d9 2a bd d6 34 13 be fa 35 d6 3d
       0.050919496 -0.041710984 -0.14375624 0.10459514
000010 df 9d 1f be e2 f4 c1 3c cd 97 fe 3c a6 8a a5 be
       -0.15587567 0.02367634 0.031078244 -0.32332343
000020 12 85 89 3e 60 f6 a4 be 9f 98 af be af 76 9f 3d
       0.26859337 -0.3221922 -0.34296128 0.07786309
000030 22 3a 46 3e 4c 2c d7 3d 21 79 59 3e 28 d3 3d be
       0.19358113 0.10506496 0.21237613 -0.18537581
000040 ef 67 a1 bf 85 7f 27 3e 27 f2 ca bf ea c2 7c be
       -1.2609843 0.16357239 -1.5855149 -0.24683729
000050 dc ef 39 be 2a 72 04 3f 5c af 7d 3e 19 93 61 3d
       -0.18157905 0.517367 0.24773926 0.055071924
000060 ac c2 94 3d bb 86 3d 3e 94 03 e0 bd c1 d5 fe bd
       0.07263693 0.18508427 -0.109381825 -0.12443114
000070 c9 45 b1 be 51 f2 8a 3e 29 03 51 be ad 1e 4c 3b
       -0.34623554 0.27137998 -0.20411362 0.0031146214
000080 4f 07 30 be f8 bd 8a 3d 4d 69 16 bf 60 ff b4 3d
       -0.17190288 0.06774515 -0.58754426 0.088377714
000090 cf 9b 49 3e 06 8d 33 3e 00 53 61 be cf 54 8c 3e
       0.19688343 0.17534265 -0.22004318 0.27408454
0000a0 38 97 d0 3e 69 ee 42 be 21 af 06 3f 7d 09 b2 3d
       0.4074037 -0.19036259 0.52610976 0.08693216
0000b0 a4 b1 f3 bd 81 b6 95 bd 42 57 44 be 89 8e 5c 3e
       -0.11899117 -0.073102005 -0.19173911 0.21538748
0000c0 46 bb b7 3e 1d 59 7f be 79 3c 31 bd 85 ed bf 3c
       0.35885066 -0.24936338 -0.04327056 0.023428688
0000d0 0a 86 54 be 74 9c 2b 3d 39 45 b7 3e 9b 8e 26 3d
       -0.20754257 0.041897252 0.35795 0.040663343
0000e0 20 e5 91 be 4b 16 62 bd 9c 5e e1 3e a2 96 8f be
       -0.2849512 -0.05519704 0.44017494 -0.2804461
0000f0 b4 ee b5 3e f5 19 7e 3d bf 75 e5 3c 03 1a 1b be
       0.3553368 0.062036473 0.028010247 -0.15146641

layers.6.b_block.net.2.0.bias f4 [8]
000000 42 4f 07 be b8 f1 6f 3e 6f 69 96 3d d6 61 55 be
       -0.13213828 0.23432052 0.073443286 -0.20838103
000010 ad df b0 3e 6e 6d f0 3d 21 ab 50 be 82 d9 71 bd
       0.3454565 0.11739622 -0.2037778 -0.059045322
