models/normalizing_flow_epoch_15.pth (torch, 150970 bytes, 270 tensors)

layers.0.s_block.net.0.0.weight f4 [8, 1]
0	0x3e2c7f2b	0.16845386
1	0xbf7b5c92	-0.98188126
2	0xbf1c0ad6	-0.60954034
3	0x3ed19879	0.4093664
4	0x3f0c7ab8	0.54874754
5	0xbfa5e583	-1.2960666
6	0xbf86e99c	-1.0540042
7	0xbede9815	-0.43475404

layers.0.s_block.net.0.0.bias f4 [8]
0	0xbee17337	-0.44033214
1	0xbe2306fb	-0.15920632
2	0xbf33267f	-0.69980615
3	0x3f15bf3a	0.58494914
4	0xbf862f58	-1.0483198
5	0x3e80f4b4	0.25186694
6	0xbe4c94ba	-0.1997861
7	0x3f880194	1.0625482

layers.0.s_block.net.1.0.weight f4 [8, 8]
0	0xbd120fb3	-0.035659503
1	0x3efb76f3	0.4911419
2	0x3e7ca9c2	0.24674132
3	0xbec53a34	-0.38520968
4	0xbe9a5575	-0.30143324
5	0x3e9c28a4	0.30499756
6	0x3edcae74	0.43101847
7	0x3d8d1365	0.06888465
8	0x3f208962	0.6270963
9	0xbe0a87cf	-0.1352837
10	0xbdf5fbf2	-0.120109454
11	0x3e13b72b	0.14425342
12	0x3ebc0864	0.36725152
13	0xbe6954ec	-0.22786301
14	0x3e977962	0.29584795
15	0xbe32d4f2	-0.17464045
16	0x3ed73fc3	0.42040834
17	0xbe4f7384	-0.2025891
18	0xbe02046c	-0.12697
19	0xbebec7e0	-0.37261868
20	0x3e983476	0.29727525
21	0x3e9321ef	0.28736827
22	0xbd2682c0	-0.040652037
23	0xbc8749f0	-0.016514748
24	0x3d240de4	0.04005231
25	0xbfcb79dd	-1.5896565
26	0xbde66ddf	-0.11251425
27	0xbd678c84	-0.05653049
28	0xbe5c6004	-0.21521002
29	0x3e0a14d8	0.13484514
30	0xbf27891e	-0.654436
31	0x3e9b43e4	0.30325234
32	0x3e2ad498	0.1668266
33	0x3be879bc	0.00709459
34	0xbdbfc746	-0.0936418
35	0x3e013ba2	0.12620404
36	0x3edbf06b	0.42956862
37	0x3dafe6ba	0.085889295
38	0x3e84ec7a	0.25961667
39	0xbe7c8466	-0.24659881
40	0x3ec126ec	0.37725008
41	0xbe983eac	-0.29735315
42	0xbef32eaf	-0.47496554
43	0x3dea69ec	0.11445984
44	0x3f2ac45a	0.6670586
45	0x3ec2e8cf	0.38068244
46	0x3ebc49c4	0.3677503
47	0xbe9df352	-0.308497
48	0xbdbe652a	-0.09296639
49	0xbe64b588	-0.22334874
50	0xbf34b405	-0.7058719
51	0xbedcf0a8	-0.43152356
52	0xbed4f212	-0.41590935
53	0x3f27b925	0.65516883
54	0x3ea3ac0d	0.31967202
55	0x3f037bef	0.5136098
56	0x3ee0dae7	0.4391701
57	0xbea29a7f	-0.31758496
58	0xbf05c98a	-0.5226065
59	0xbe881752	-0.26580292
60	0xbcde7b26	-0.027158331
61	0x3e587cef	0.21141408
62	0xbe35495a	-0.17703763
63	0xbe312c1e	-0.17301986

layers.0.s_block.net.1.0.bias f4 [8]
0	0x3d3802e0	0.044924617
1	0xbed1b5ee	-0.40959114
2	0xbec14a0c	-0.37751806
3	0x3dc68749	0.09693772
4	0xbeb71a4d	-0.35762253
5	0xbee1c9c7	-0.44099256
6	0xbe975786	-0.29558963
7	0xbcc23c69	-0.023710446

layers.0.s_block.net.2.0.weight f4 [8, 8]
0	0xbf8ad04b	-1.0844816
1	0xbe7a346a	-0.24434057
2	0x3f07c6ec	0.53037906
3	0x3f66b4b6	0.90119493
4	0x3c974ade	0.018468317
5	0x3dfce039	0.123474546
6	0x3efac353	0.48977146
7	0x3ee5f7f6	0.44915742
8	0x3f0d41b5	0.55178386
9	0x3e282581	0.16420557
10	0xbd26162f	-0.0405485
11	0xbd859795	-0.065230526
12	0xbce6b137	-0.028160674
13	0x3e97b28a	0.29628402
14	0x3ef5f396	0.48037404
15	0xbeb6a43d	-0.3567218
16	0xbe8ee0b8	-0.27905822
17	0xbf4752e1	-0.7786084
18	0xbe45ae9f	-0.19304894
19	0x3f54309b	0.82886666
20	0xbeb9bfd4	-0.36279166
21	0xbeeb7ce6	-0.45993727
22	0x3d102d29	0.035199318
23	0x3e923651	0.28557065
24	0xbe68a6e8	-0.2271992
25	0xbe1c40b7	-0.15259062
26	0x3f3e58e8	0.7435441
27	0x3e61ae9c	0.22039264
28	0xbea451d5	-0.32093683
29	0xbcc4c731	-0.024020763
30	0x3e535c41	0.20640661
31	0x3e41e792	0.18935993
32	0x3e2c4c41	0.16825964
33	0xbe6101a1	-0.21973278
34	0xbf08782f	-0.53308386
35	0xbf52954c	-0.8225906
36	0xbedf6db1	-0.43638375
37	0xbf87d2d3	-1.0611213
38	0xbe19c592	-0.15016773
39	0xbec56454	-0.38553107
40	0x3f115c52	0.56781495
41	0xbd3e9653	-0.04653008
42	0xbf6d1040	-0.9260292
43	0xbf80ab54	-1.0052285
44	0xbece0934	-0.40241396
45	0xbef5859a	-0.47953492
46	0xbd303353	-0.043017697
47	0xbe1da088	-0.15393269
48	0x3dbf703f	0.09347581
49	0xbea68036	-0.32519692
50	0xbe918969	-0.28425148
51	0xbeea6ffa	-0.45788556
52	0xbf103334	-0.5632813
53	0xbf513bdf	-0.8173198
54	0xbf8694d5	-1.051417
55	0xbebdce42	-0.37071425
56	0x3e9d9ee0	0.30785275
57	0xbf678222	-0.9043294
58	0xbdd0435b	-0.10169097
59	0xbf3d56e2	-0.739607
60	0xbd951cac	-0.07280859
61	0xbf5fb8b7	-0.8739123
62	0x3d1577b0	0.036491096
63	0xbec78395	-0.38967577

layers.0.s_block.net.2.0.bias f4 [8]
0	0x3b9a7463	0.0047135814
1	0xbee6ae3a	-0.450548
2	0x3f3ead39	0.74483067
3	0xbecd84a4	-0.4014026
4	0x3ecb7dad	0.3974432
5	0x3e701f50	0.23449445
6	0x3ed0f033	0.40808257
7	0x3ebb778c	0.36614645

layers.0.s_block.net.3.0.weight f4 [8, 8]
0	0xbb654da4	-0.0034988904
1	0x3ebaca2a	0.36482364
2	0xbefe478a	-0.49663955
3	0x3e813f83	0.25243768
4	0xbea7f1bb	-0.32801613
5	0xbe276831	-0.1634834
6	0xbf6983e2	-0.9121686
7	0xbf13a6a6	-0.5767616
8	0x3d7900b1	0.060791675
9	0xbdb6cd71	-0.089259036
10	0x3f1d3326	0.6140617
11	0x3e871946	0.2638647
12	0xbecfd4fa	-0.40592176
13	0xbfc05b5a	-1.5027878
14	0xbe153a5c	-0.14573044
15	0xbeeba28c	-0.4602245
16	0xbf246a44	-0.6422465
17	0xbf152ebb	-0.5827443
18	0x3d49addc	0.04923807
19	0xbf036bf0	-0.51336575
20	0x3ea31b96	0.31856984
21	0x3d3e1b7f	0.04641294
22	0x3f5b8339	0.85747105
23	0x3f102dc1	0.56319815
24	0x3f147ff6	0.5800775
25	0xbd43ac22	-0.04777158
26	0x3d612cbc	0.054974303
27	0x3f24f782	0.64440167
28	0xbf6095b2	-0.87728417
29	0xbead65ba	-0.33866674
30	0xbfa93178	-1.3218222
31	0xbf1e70ab	-0.6189067
32	0xbf2cee27	-0.6755089
33	0xbf3f42cb	-0.74711293
34	0x3ef948f3	0.48688468
35	0xbec89fb0	-0.39184332
36	0x3e87d108	0.26526666
37	0x3e7db8f7	0.2477759
38	0x3ece45cd	0.4028763
39	0x3e5320f2	0.20618036
40	0x3e47cec5	0.1951247
41	0x3ea81865	0.32831112
42	0xbde14ce2	-0.11000992
43	0x3f081ca4	0.531687
44	0xbef7194a	-0.48261482
45	0xbec9fc0d	-0.39450112
46	0xbee93b1c	-0.4555291
47	0xbf35151a	-0.70735323
48	0xbdcbecd4	-0.09957281
49	0x3f21de88	0.6323018
50	0xbe9e46f7	-0.30913517
51	0x3e6782db	0.22608511
52	0xbc167859	-0.009183967
53	0xbedffe3d	-0.43748656
54	0xbebe9dbb	-0.37229714
55	0xbf0c84a2	-0.5488988
56	0xbe936390	-0.28786898
57	0x3f0ac2c8	0.5420346
58	0xbf90cd2b	-1.1312612
59	0x3d978421	0.073982485
60	0xbe20d163	-0.15704875
61	0x3e282da6	0.16423663
62	0x3ecf5c42	0.40500075
63	0x3cd3f73f	0.025874732

layers.0.s_block.net.3.0.bias f4 [8]
0	0xbf09b8cf	-0.5379762
1	0x3e9408fd	0.28913108
2	0x3ef06d53	0.46958408
3	0xbd927618	-0.07151431
4	0x3eaf3072	0.34216648
5	0xbec80184	-0.39063656
6	0xbeed248e	-0.46316952
7	0xbeb7a8f9	-0.35871103

layers.0.s_block.net.4.weight f4 [1, 8]
0	0x3ebc6274	0.36793864
1	0x3ee911a6	0.45521277
2	0xbf17c1fa	-0.5928036
3	0x3f4c527f	0.7981338
4	0xbef1d0e5	-0.47229686
5	0x3f331f96	0.6997007
6	0x3ed74ace	0.4204926
7	0xbf08d1a8	-0.5344491

layers.0.b_block.net.0.0.weight f4 [8, 1]
0	0x3eaa76bd	0.33293715
1	0x3f0c3eac	0.5478313
2	0x3e9af6b8	0.30266356
3	0xbe61ca2a	-0.22049776
4	0xbf8f711e	-1.1206396
5	0xbf209c1a	-0.6273819
6	0xbfd3e813	-1.6555198
7	0x3f7298b8	0.9476428

layers.0.b_block.net.0.0.bias f4 [8]
0	0x3f252d45	0.645222
1	0x3f04148f	0.5159387
2	0x3ead669e	0.33867353
3	0x3ed5bf65	0.41747585
4	0xbf38405e	-0.71973217
5	0x3f15b200	0.5847473
6	0x3f405d6f	0.7514257
7	0xbf02ad04	-0.5104525

layers.0.b_block.net.1.0.weight f4 [8, 8]
0	0xbecb8476	-0.39749497
1	0xbe19a8ac	-0.1500575
2	0xbeaf14e2	-0.3419562
3	0xbeaf9750	-0.3429513
4	0xbf506a91	-0.8141261
5	0x3e49ecf8	0.19719303
6	0xbefb2599	-0.49052122
7	0x3db48d43	0.08816006
8	0xbcf57364	-0.02996225
9	0x3d708a0a	0.058725394
10	0x3ec3acc4	0.38217747
11	0xbe94faba	-0.2909754
12	0xbdc0a4cf	-0.09406435
13	0xbf540c35	-0.82831126
14	0xbe91f93c	-0.28510463
15	0x3eacead7	0.3377292
16	0x3e50d86f	0.20395063
17	0xbd74631d	-0.059664834
18	0xbe6daeaf	-0.23211168
19	0xbcafece4	-0.021475263
20	0xbef984d2	-0.48734146
21	0xbeb7129a	-0.3575638
22	0x3f0eead5	0.55827075
23	0x3e8ca5bc	0.27470195
24	0xbe94d731	-0.29070428
25	0xbd71469e	-0.058905236
26	0x3e33fb8f	0.1757643
27	0xbf01bb9d	-0.506769
28	0xbf245575	-0.641929
29	0xbeae8a8f	-0.34090087
30	0xbdc307fe	-0.09523009
31	0x3ebd4c37	0.3697221
32	0xbe6df18d	-0.23236676
33	0xbfe16be2	-1.7611048
34	0xbf30d5e8	-0.69076395
35	0x3e80e40e	0.25173992
36	0x3f7a0ee8	0.97678995
37	0xbe3fa206	-0.18714151
38	0x3ede693b	0.4343966
39	0xbefbaa97	-0.49153587
40	0x3db8b2de	0.09018491
41	0xbda19213	-0.078891896
42	0xbe88a1f6	-0.26686066
43	0xbebc541e	-0.36782926
44	0x3ed68812	0.41900688
45	0xbed3290d	-0.41242257
46	0x3e82c428	0.2554028
47	0x3ebdd9ff	0.3708038
48	0x3ec5ab6e	0.38607353
49	0xbcfb59ce	-0.03068247
50	0x3ea6fcb5	0.32614675
51	0x3e76b5d4	0.240928
52	0xbea3fd7f	-0.3202934
53	0x3e7c671f	0.24648713
54	0xbf49a887	-0.7877278
55	0xbf18875f	-0.5958156
56	0x3e152d05	0.14567955
57	0xbf8fe277	-1.1240987
58	0xbeaa45dd	-0.33256426
59	0x3eb74746	0.35796565
60	0xbf8479d6	-1.0349681
61	0x3e19f393	0.15034322
62	0x3eb900b0	0.36133337
63	0xbe490507	-0.19630824

layers.0.b_block.net.1.0.bias f4 [8]
0	0xbd3134e4	-0.04326333
1	0x3da7b501	0.08188821
2	0x3ecc0467	0.3984711
3	0xbe6bfd57	-0.2304586
4	0xbeea06a8	-0.45708203
5	0xbf02d7c2	-0.5111047
6	0xbe21b267	-0.15790711
7	0x3dba4006	0.09094243

layers.0.b_block.net.2.0.weight f4 [8, 8]
0	0x3e6b3ed1	0.22973181
1	0x3ed2e0f2	0.41187245
2	0xbe80e7d6	-0.25176877
3	0x3ef64be1	0.48104766
4	0xbab1b762	-0.0013558681
5	0x3ef7308a	0.4827922
6	0xbf0ee78b	-0.55822057
7	0xbf806abc	-1.0032573
8	0xbecf45ce	-0.40482944
9	0x3edc372c	0.43010843
10	0x3ee5107c	0.4473914
11	0x3a6d694e	0.0009056524
12	0xbf1d14ab	-0.6135966
13	0xbda1becb	-0.07897719
14	0xbf153067	-0.5827698
15	0x3eab8701	0.33501437
16	0xbe1851bb	-0.14874928
17	0x3f133a8b	0.57511204
18	0x3f0313c1	0.5120202
19	0xbcc08759	-0.023502039
20	0xbe847695	-0.2587172
21	0xbe30ab60	-0.17252874
22	0xbf0d3866	-0.5516418
23	0xbe203d2a	-0.15648332
24	0xbdca13e2	-0.098670736
25	0xbe3e7a75	-0.18601401
26	0x3d279e33	0.040922355
27	0x3dd9c9e8	0.10634214
28	0xbeecbe15	-0.4623877
29	0x3f790b3e	0.9728278
30	0x3e1a9779	0.15096845
31	0xbe8d3b56	-0.27584332
32	0xbe21524a	-0.15754047
33	0x3ed158e7	0.4088814
34	0x3d9773e5	0.07395152
35	0xbe92e5aa	-0.28690845
36	0xbf2682fd	-0.6504362
37	0xbeb59fe5	-0.35473552
38	0xbf3ab3b4	-0.72930455
39	0xbe6ee7dc	-0.23330635
40	0x3ebde868	0.37091374
41	0xbf2c3439	-0.67267185
42	0x3cae38ed	0.021267379
43	0x3f0d1a5d	0.5511835
44	0xbf39c0d9	-0.7255989
45	0x3ef33490	0.4750104
46	0x3f0cedd9	0.55050427
47	0x3f2f928f	0.68583006
48	0xbed67f57	-0.41894028
49	0x3d9ff6e7	0.07810765
50	0x3e7bd624	0.24593407
51	0xbe3b4038	-0.18286216
52	0x3eb3dd3b	0.35129723
53	0x3f358125	0.70900184
54	0x3f38b346	0.7214855
55	0xbe06ac4f	-0.13151668
56	0x3ea8f13e	0.32996553
57	0x3eaf05d3	0.3418413
58	0x3b29414a	0.0025826269
59	0x3eba6490	0.36404848
60	0xbf3f8269	-0.74808365
61	0x3f012471	0.5044623
62	0x3ebc9c3b	0.36837944
63	0x3f5937a8	0.8485055

layers.0.b_block.net.2.0.bias f4 [8]
0	0xbf04048c	-0.5156944
1	0x3d5c3d26	0.053769253
2	0x3d611da0	0.054959893
3	0xbeb00fc5	-0.3438703
4	0x3e9ace2d	0.30235425
5	0xbd1c61e2	-0.038179286
6	0xbd190fed	-0.037368704
7	0xbd3fec29	-0.04685608

layers.0.b_block.net.3.0.weight f4 [8, 8]
0	0xbd92370f	-0.07139408
1	0xbeddd35f	-0.43325326
2	0xbf34aa7f	-0.70572656
3	0x3de7655d	0.112986304
4	0xbea39c7d	-0.3195533
5	0x3f1f15f5	0.6214288
6	0x3dcf87e8	0.10133344
7	0x3e6ab4a4	0.22920471
8	0xbf6b29b6	-0.9186052
9	0xbd495e15	-0.04916199
10	0x3eac44d7	0.3364627
11	0xbeb02c3d	-0.3440875
12	0x3f0132be	0.5046805
13	0xbfa033d7	-1.251582
14	0xbef56250	-0.4792657
15	0xbf9fc929	-1.2483264
16	0xbe4702bf	-0.19434641
17	0xbf39a930	-0.72523785
18	0xbe0a9bed	-0.13536043
19	0xbe87c5c0	-0.2651806
20	0xbe4eaa30	-0.20182109
21	0x3de6f03b	0.11276289
22	0xbe0a89c7	-0.1352912
23	0xbd150e2e	-0.036390476
24	0x3e8b9304	0.27260602
25	0x3e2a667e	0.1664066
26	0x3f2932b3	0.66092986
27	0x3dbf3b96	0.09337537
28	0x3e8677e5	0.26263347
29	0x3dc7f01b	0.09762593
30	0xbf1e5033	-0.61841124
31	0xbe75c472	-0.24000719
32	0xbf0f9aa8	-0.5609536
33	0x3f2d7f2a	0.6777216
34	0x3f38e298	0.72220755
35	0xbe15b607	-0.14620219
36	0x3f0113ae	0.50420654
37	0xbe47a5d1	-0.19496848
38	0xbf01e221	-0.5073567
39	0x3e728ed0	0.23687291
40	0x3e537b08	0.20652401
41	0x3e79603e	0.2435312
42	0x3dfbccf2	0.122949496
43	0x3d865ccc	0.06560668
44	0xbe64793d	-0.22311874
45	0xbe189f9d	-0.14904638
46	0xbe9e7221	-0.30946448
47	0xbe9db158	-0.30799365
48	0xbe3b99ba	-0.18320361
49	0xbed09539	-0.40738848
50	0x3e0e2790	0.1388228
51	0x3e56d296	0.2097877
52	0x3dc7eef9	0.09762377
53	0x3d4b50b1	0.0496375
54	0x3e77045d	0.24122758
55	0x3e9cebb5	0.3064858
56	0xbdd30c95	-0.10305134
57	0x3e745e71	0.23864152
58	0xbcb2bc50	-0.02181831
59	0x3efaa63c	0.48954952
60	0xbcc5c791	-0.024143012
61	0x3baadebd	0.0052145408
62	0xbeeb048d	-0.4590191
63	0xbae81437	-0.001770622

layers.0.b_block.net.3.0.bias f4 [8]
0	0xbe936dff	-0.28794858
1	0x3ef5ae84	0.47984707
2	0xbe48c7cf	-0.19607471
3	0x3e57277c	0.21011156
4	0x3e282239	0.16419305
5	0xbeef57a9	-0.46746567
6	0x3e310903	0.17288594
7	0xbe35b69f	-0.17745446

layers.0.b_block.net.4.weight f4 [1, 8]
0	0x3f2f6b66	0.6852325
1	0xbf401cd3	-0.7504398
2	0x3e500e07	0.20317851
3	0xbd811f6e	-0.06304823
4	0xbef167fd	-0.4714965
5	0xbe6f3e44	-0.23363596
6	0x3ed27b6b	0.41109785
7	0x3e07fc99	0.13279952

layers.2.s_block.net.0.0.weight f4 [8, 1]
0	0x3f90152b	1.125646
1	0xbde0ae86	-0.10970788
2	0x3f736c0a	0.9508673
3	0x3ed2b4d6	0.41153592
4	0x3ddb8728	0.107191384
5	0xbf6e6433	-0.9312164
6	0xbf3d9f8b	-0.7407157
7	0x3f6e7537	0.93147606

layers.2.s_block.net.0.0.bias f4 [8]
0	0xbedb1ee5	-0.42797008
1	0xbed59bbc	-0.41720378
2	0xbcf6732b	-0.030084213
3	0x3f5efb65	0.8710235
4	0xbf9a25e2	-1.2042811
5	0x3ea2bb80	0.31783676
6	0xbf8def9d	-1.1088749
7	0x3f8f02f1	1.1172773

layers.2.s_block.net.1.0.weight f4 [8, 8]
0	0xbe002741	-0.12514974
1	0xbde3462e	-0.1109737
2	0x3e8091cd	0.25111237
3	0x3e954a1a	0.29158098
4	0x3dd7b58c	0.10532674
5	0x3f094c10	0.5363169
6	0xbf276e17	-0.6540236
7	0xbeba0b12	-0.3633657
8	0x3ef48908	0.47760797
9	0xbc705690	-0.014669076
10	0x3ec24080	0.37939835
11	0xbc88e58f	-0.016711025
12	0x3e6d2237	0.23157583
13	0x3eb3a4f4	0.35086787
14	0xbec81094	-0.39075148
15	0xbf5d1fca	-0.8637663
16	0x3f356586	0.7085804
17	0x3dad1b4b	0.08452471
18	0xbe0926a6	-0.1339365
19	0xbe82b6b5	-0.2553002
20	0x3e03570e	0.12826177
21	0x3c80266d	0.015643323
22	0x3e16013e	0.14648911
23	0xbece2ceb	-0.40268645
24	0xbf2e3487	-0.680489
25	0x3ebdcc27	0.37069818
26	0xbf02958c	-0.5100944
27	0xbc209a77	-0.009802452
28	0xbed573b1	-0.41689828
29	0xbe88c78d	-0.26714745
30	0x3f3c2b4d	0.7350357
31	0xbdb0271c	-0.086012095
32	0x3cbf130e	0.023324516
33	0x3ceb024b	0.028687617
34	0x3ed80107	0.42188284
35	0xbe653a9b	-0.22385637
36	0x3edb9ebe	0.42894548
37	0x3e6550bb	0.22394077
38	0x3c901d7a	0.01759218
39	0x3d3020c7	0.04300001
40	0xbe0fceb9	-0.14043702
41	0xbdf08772	-0.11744584
42	0x3de3506c	0.11099324
43	0xbe7ddf1f	-0.24792145
44	0xbdae6e97	-0.08517187
45	0xbe308d4c	-0.172414
46	0x3e87354d	0.26407853
47	0xbd3deda3	-0.046369206
48	0x3f3d7306	0.74003637
49	0x3f02b3a5	0.51055366
50	0x3f0731c3	0.52810305
51	0x3deef684	0.11668113
52	0x3f0bf669	0.5467287
53	0x3f045a79	0.5170055
54	0xbefa35f9	-0.48869303
55	0x3c85be4d	0.016326094
56	0xbe7688b8	-0.24075592
57	0xbe15cc56	-0.14628729
58	0xbeaf603b	-0.34253106
59	0x3e8a5ce9	0.2702401
60	0xbf3a1d13	-0.72700614
61	0x3e59b5e3	0.2126079
62	0xbd69971e	-0.057028882
63	0x3ecad8c6	0.3961851

layers.2.s_block.net.1.0.bias f4 [8]
0	0x3e167883	0.14694409
1	0xbea069da	-0.31330758
2	0x3e15e6ec	0.14638871
3	0x3e2a9f73	0.16662388
4	0xbf2bf781	-0.67174536
5	0x3def149d	0.116738535
6	0xbe05ce97	-0.13067089
7	0x3f16d7cf	0.5892305

layers.2.s_block.net.2.0.weight f4 [8, 8]
0	0xbe118182	-0.1420956
1	0x3ebbadba	0.3665598
2	0xbe38cb82	-0.18046382
3	0x3caf5551	0.021402987
4	0x3e578084	0.21045119
5	0x3e8740a9	0.2641652
6	0x3e66660b	0.22499864
7	0xbf26bad9	-0.65128857
8	0x3e8b54a5	0.27213016
9	0x3f0edc0b	0.5580451
10	0x3eb02cfe	0.34409326
11	0x3d85b543	0.065287136
12	0xbec0740a	-0.3758853
13	0x3d776244	0.060396448
14	0x3f07fa1d	0.5311602
15	0xbe9e9faa	-0.3098119
16	0xbe2939fe	-0.16526029
17	0x3f552a6b	0.8326785
18	0x3d51de01	0.05123711
19	0xbf061581	-0.5237656
20	0x3d89124c	0.06692943
21	0xbdece7e7	-0.11567669
22	0xbe9c9094	-0.30579054
23	0x3e4e333e	0.20136735
24	0x3d5213d3	0.051288437
25	0xbf83cd34	-1.0296998
26	0xbb9756cd	-0.0046185018
27	0xbe8a265e	-0.26982397
28	0xbf90d824	-1.1315961
29	0x3d97e1b8	0.07416099
30	0x3efebb32	0.49752194
31	0x3d9e7351	0.077368386
32	0x3eba543c	0.3639239
33	0x3f6172cd	0.880658
34	0x3e091738	0.13387764
35	0xbf150f10	-0.5822611
36	0x3f2228f1	0.6334372
37	0xbea99622	-0.33122355
38	0x3dbe3cfb	0.09288975
39	0xbecae361	-0.396266
40	0xbe8f19ea	-0.27949458
41	0x3edff6c3	0.43742952
42	0x3dd55f85	0.104186095
43	0x3d9019b9	0.07036156
44	0x3f3ee2e1	0.7456494
45	0xba8b7eed	-0.0010642685
46	0x3ddeedea	0.10885222
47	0xbf93d666	-1.1549804
48	0xbe82a0d1	-0.25513318
49	0xbe872c47	-0.26400968
50	0xbe01a2ac	-0.1265971
51	0x3eaa2bf3	0.33236656
52	0x3f173102	0.59059155
53	0x3d3fb707	0.046805408
54	0xbed0524d	-0.4068779
55	0xbdfd7e19	-0.12377567
56	0x3d119200	0.035539627
57	0x3e8b744b	0.27237162
58	0xbd0665f2	-0.032812066
59	0x3dac2903	0.0840626
60	0x3dd0406c	0.101685375
61	0x3e5d8b03	0.2163506
62	0xbe5b8dc7	-0.21440803
63	0xbdd83d47	-0.10558563

layers.2.s_block.net.2.0.bias f4 [8]
0	0xbe175fec	-0.14782685
1	0x3e9a56e9	0.30144432
2	0x3e91b9ad	0.28461972
3	0x3d578bae	0.052623443
4	0x3c4833c6	0.012219375
5	0xbe9a9ad1	-0.3019624
6	0x3d283f7f	0.04107618
7	0xbe2549aa	-0.16141382

layers.2.s_block.net.3.0.weight f4 [8, 8]
0	0xbe905f0c	-0.28197515
1	0x3e7b104c	0.24517936
2	0x3e0932a2	0.13398221
3	0xbecefc18	-0.40426707
4	0x3f1756aa	0.59116614
5	0xbf8913b0	-1.0709133
6	0x3e238d28	0.15971816
7	0x3cb240b7	0.021759374
8	0xbe820c12	-0.25399834
9	0xbd90f547	-0.07078033
10	0xbe68b264	-0.227243
11	0x3ebdf0b5	0.37097707
12	0xbe1c04cd	-0.15236206
13	0x3e889060	0.2667265
14	0xbeac71ae	-0.3368048
15	0xbe055d37	-0.1302384
16	0xbd9c2384	-0.076239616
17	0xbef6acc9	-0.481787
18	0x3ed85ba3	0.42257413
19	0xbf1094ca	-0.56477034
20	0x3dc46f40	0.09591532
21	0xbe33ff44	-0.17577845
22	0x3e99a0ce	0.30005497
23	0xbe941157	-0.2891948
24	0x3e95f5b0	0.29289007
25	0xbe59f52c	-0.21284932
26	0xbccab727	-0.024745537
27	0xbeaa56d0	-0.33269358
28	0x3eabf53e	0.33585542
29	0x3f7638f9	0.96180683
30	0x3f05b80a	0.52233946
31	0x3e8c4d35	0.27402654
32	0xbee6e376	-0.45095414
33	0x3de1d2ee	0.1102656
34	0x3df7b9b2	0.120959654
35	0x3f7a8e98	0.9787383
36	0xbf14ffcb	-0.5820281
37	0xbe7ca06f	-0.24670576
38	0x3e9b52d5	0.30336633
39	0xbe2d957f	-0.1695156
40	0x3e7a0fe8	0.2442013
41	0xbdba0d93	-0.0908462
42	0x3ed11670	0.4083743
43	0xbf15c52c	-0.58503985
44	0x3eab12e2	0.33412844
45	0xbf067d52	-0.52534974
46	0xbd9067b9	-0.070510335
47	0x3eae4dd1	0.34043744
48	0xbd9f1e6c	-0.077694744
49	0x3e917c95	0.2841536
50	0x3e769666	0.2408081
51	0xbdd13687	-0.102154784
52	0x3f26c0f3	0.6513817
53	0xbf826753	-1.0187782
54	0xbec66243	-0.38746843
55	0xbc9e3e48	-0.019316807
56	0x3dab04ef	0.083505504
57	0x3d08b23b	0.0333731
58	0xbdaeb04e	-0.08529721
59	0x3ebf625e	0.37379736
60	0x3cd8d3de	0.026468214
61	0x3f20695d	0.6266077
62	0xbe12a712	-0.14321545
63	0xbe0898f4	-0.13339597

layers.2.s_block.net.3.0.bias f4 [8]
0	0xbc80ee84	-0.015738733
1	0xbe6273ba	-0.22114459
2	0x3e8c59ea	0.2741235
3	0xbe78c7db	-0.24294989
4	0x3eca0289	0.3945506
5	0x3e1c0e35	0.15239795
6	0xbe3eb03d	-0.18621917
7	0x3e53212a	0.2061812

layers.2.s_block.net.4.weight f4 [1, 8]
0	0x3f193fe7	0.5986313
1	0xbea97e8a	-0.33104354
2	0x3ec4f564	0.38468468
3	0xbf10fe0b	-0.5663764
4	0xbecee2db	-0.40407452
5	0x3f02f5a8	0.5115609
6	0x3f55cbd2	0.8351413
7	0xbe3a5d84	-0.18199736

layers.2.b_block.net.0.0.weight f4 [8, 1]
0	0x3f905852	1.1276953
1	0x3f6c51ce	0.92312324
2	0x3f5ffd39	0.8749576
3	0xbf2fd354	-0.68681836
4	0xbdd1067e	-0.102063164
5	0xbddb2dd1	-0.10702098
6	0xbf06739f	-0.52520174
7	0xbf619261	-0.8811398

layers.2.b_block.net.0.0.bias f4 [8]
0	0xbf0c2108	-0.547379
1	0x3f67677e	0.9039229
2	0x3eb00e46	0.3438589
3	0x3f9599f3	1.1687607
4	0xbf8607f8	-1.0471182
5	0xbf6b1ea4	-0.9184363
6	0xbf116664	-0.5679686
7	0x3bf151bd	0.0073644803

layers.2.b_block.net.1.0.weight f4 [8, 8]
0	0xbd59f449	-0.053211484
1	0x3e7ec9d3	0.24881677
2	0x3e84eaeb	0.25960478
3	0x3e134f9e	0.1438584
4	0x3c816b8a	0.015798349
5	0xbe67f855	-0.22653325
6	0xbfbe3f88	-1.4863138
7	0xbea0cdc5	-0.3140699
8	0x3f0100da	0.50391924
9	0xbddc062f	-0.10743367
10	0x3eab24b8	0.33426452
11	0xbe15aa41	-0.14615728
12	0x3d8e6003	0.069519065
13	0x3e674dba	0.22588244
14	0x3e3fdc9a	0.18736497
15	0x3e1811f0	0.14850593
16	0xbf4fe477	-0.81207985
17	0xbe540672	-0.20705584
18	0x3d62d88c	0.055382296
19	0x3e38cf13	0.18047743
20	0xbe3edfd0	-0.18640065
21	0x3e139109	0.14410795
22	0xbe84deb4	-0.2595116
23	0xbe4a3462	-0.19746545
24	0xbf83fcce	-1.0311525
25	0x3e10cb47	0.14140044
26	0xbc94b7e5	-0.018154094
27	0x3e96d315	0.29457918
28	0xbf01d537	-0.50715965
29	0xbe84dc51	-0.25949338
30	0x3e048b04	0.12943655
31	0xbec1ec3d	-0.37875548
32	0xbb4e7ce4	-0.0031507546
33	0xbf230a62	-0.6368772
34	0xbf5c79a9	-0.8612314
35	0x3ea92efd	0.33043662
36	0xbd865b35	-0.06560365
37	0x3c8c4c7a	0.01712631
38	0xbe84619d	-0.25855723
39	0xbda33cb9	-0.07970566
40	0xbdc49418	-0.09598559
41	0xbf247367	-0.6423859
42	0xbd0daf73	-0.03459115
43	0x3e6a21fd	0.22864528
44	0x3e699930	0.22812343
45	0xbde3a76b	-0.11115917
46	0xbf052578	-0.520103
47	0xb9bce0c0	-0.00036025606
48	0xbec6e071	-0.3884311
49	0xbecf2451	-0.40457395
50	0xbe909a62	-0.28242785
51	0xbbf5d38b	-0.0075020245
52	0x3d831e01	0.06402207
53	0x3e6ed04a	0.23321643
54	0x3e0b4eb2	0.13604239
55	0xbd90f749	-0.07078416
56	0xbd950961	-0.072771795
57	0x3eaf2727	0.34209558
58	0x3e8a6e71	0.27037385
59	0xbeef3738	-0.46721816
60	0x3d1aaf9b	0.037765127
61	0xbdb3e218	-0.08783358
62	0xbd33cb9f	-0.04389536
63	0xbe3ec662	-0.18630365

layers.2.b_block.net.1.0.bias f4 [8]
0	0x3eab6859	0.33478048
1	0x3e510a8f	0.20414184
2	0xbe3b46de	-0.18288752
3	0x3f05a184	0.5219958
4	0x3d85c779	0.06532187
5	0x3ec7a5e4	0.38993752
6	0xbe172bba	-0.14762774
7	0x3e7230a7	0.23651372

layers.2.b_block.net.2.0.weight f4 [8, 8]
0	0xbd231da1	-0.03982318
1	0x3eafc727	0.3433163
2	0xbeb0024f	-0.3437676
3	0xbf261336	-0.64873064
4	0x3d75283b	0.05985282
5	0x3e936d47	0.2879431
6	0xbcfcad2b	-0.030844292
7	0x3e3ba09a	0.18322983
8	0x3ef51fac	0.47875726
9	0x3e27dfb8	0.16393936
10	0xbd35bbf8	-0.044368714
11	0x3eef70fe	0.46765894
12	0x3c914180	0.017731428
13	0xbee78101	-0.4521561
14	0xbe9ba260	-0.3039732
15	0x3ca36470	0.019945353
16	0xbef74788	-0.48296762
17	0x3e368c00	0.17826843
18	0x3e4ba002	0.19885257
19	0x3da63ac3	0.08116677
20	0xbe1039e1	-0.14084579
21	0x3e6ad987	0.22934543
22	0xbe8c1732	-0.27361447
23	0xbf58ece9	-0.84736496
24	0xbe63d549	-0.2224933
25	0x3e33ead4	0.17570049
26	0xbebeba53	-0.3725153
27	0xbf5c6c14	-0.86102414
28	0xbe2c5440	-0.16829014
29	0xbc38db47	-0.011282749
30	0xbe8ed7a7	-0.27898905
31	0x3e1bff63	0.15234141
32	0xbf0c36ee	-0.54771316
33	0x3e519018	0.20465124
34	0x3a2c6ac2	0.00065771875
35	0xbd9fe4ad	-0.07807288
36	0xbe8025a8	-0.2502873
37	0x3eb400fc	0.35157
38	0xbe4b1545	-0.19832332
39	0xbed1c2cb	-0.40968928
40	0xbe078ddf	-0.13237713
41	0xbe064c83	-0.13115124
42	0x3ed4361f	0.4144754
43	0x3f143149	0.57887703
44	0xbf180b4b	-0.5939223
45	0xbeeb809d	-0.45996562
46	0xbd66d4b2	-0.056355186
47	0x3dd343eb	0.10315689
48	0x3ebd4f0e	0.36974376
49	0x3ee377fe	0.44427484
50	0xbf3a52bb	-0.72782487
51	0xbe8a3cd9	-0.26999548
52	0x3e1f15ad	0.15535612
53	0xbdb49867	-0.08818131
54	0xbe3a40a7	-0.18188725
55	0x3f2c6179	0.6733623
56	0x3dfe785d	0.12425301
57	0xbe747b29	-0.23875107
58	0x3db305d0	0.08741343
59	0x3cecee0f	0.028922109
60	0x3f04a2f2	0.51811135
61	0x3f5b9aac	0.85782886
62	0xbe8ec986	-0.27888125
63	0xbf290963	-0.6602995

layers.2.b_block.net.2.0.bias f4 [8]
0	0xbebdb405	-0.37051407
1	0xbe6d3ab3	-0.23166923
2	0x3eb58575	0.35453382
3	0xbe0a9eed	-0.13537188
4	0xbe6d3caa	-0.23167673
5	0x3e69e592	0.2284148
6	0x3e089813	0.13339262
7	0x3e98fe2a	0.29881412

layers.2.b_block.net.3.0.weight f4 [8, 8]
0	0xbd4cd630	-0.050008953
1	0xbbc1c9cd	-0.005913949
2	0x3e6f2490	0.23353791
3	0xbd88d00f	-0.06680309
4	0x3dc65c74	0.09685603
5	0x3e92ab8f	0.28646514
6	0xbe1f02b1	-0.1552837
7	0xbeb4e135	-0.3532807
8	0xbca1e3df	-0.019761978
9	0xbed19059	-0.4093044
10	0xbe781f96	-0.24230799
11	0xbee7121b	-0.45131
12	0x3dc96348	0.098333895
13	0xbefd3c89	-0.49460247
14	0x3e8b9f5d	0.27270022
15	0x3f2004ab	0.6250712
16	0x3e369c91	0.17833163
17	0xbdb74d1b	-0.089502536
18	0xbe73b797	-0.23800503
19	0x3c8f849d	0.01751929
20	0x3c20e95c	0.009821262
21	0xbde26ccf	-0.1105591
22	0xbe58579f	-0.21127175
23	0x3dbfa57a	0.09357734
24	0xbf2724c8	-0.652905
25	0x3e0f8233	0.14014511
26	0x3d014f44	0.031569734
27	0xbe8544fb	-0.2602919
28	0xbec9d249	-0.39418247
29	0xbe93998a	-0.28828079
30	0x3f1e6c1b	0.61883706
31	0x3e7899cf	0.24277423
32	0xbe060e30	-0.1309135
33	0x3edba6a2	0.42900568
34	0xbf67785a	-0.90418017
35	0x3ebf30b8	0.37341857
36	0xbe794662	-0.24343255
37	0x3eceaa10	0.40364122
38	0xbf1c4d0a	-0.6105505
39	0xbf52b80d	-0.8231209
40	0x3d9e964e	0.07743512
41	0x3d1d34cd	0.038380433
42	0x3ea9aafe	0.3313827
43	0x3cf61e5f	0.030043779
44	0x3e637b27	0.22214948
45	0x3e26f197	0.16303097
46	0xbebd8ea5	-0.37022892
47	0xbe80f664	-0.2518798
48	0xbe1f8335	-0.15577395
49	0xbf4f0e19	-0.80880886
50	0xbe485425	-0.19563349
51	0x3d248c10	0.040172637
52	0xbede0b75	-0.43368116
53	0xbfafe0d1	-1.3740484
54	0x3ecc08d1	0.39850476
55	0x3f1f59c5	0.6224635
56	0x3edb61f8	0.42848182
57	0x3d7b9cb1	0.06142873
58	0xbde15b83	-0.110037826
59	0xbe3b458e	-0.18288252
60	0xbe6b0536	-0.22951207
61	0xbc440ba0	-0.011965662
62	0xbe6e8184	-0.23291594
63	0x3e7d764d	0.2475216

layers.2.b_block.net.3.0.bias f4 [8]
0	0xbe551510	-0.20808816
1	0xbe24c1ac	-0.16089505
2	0xbd23f753	-0.04003079
3	0x3e6ba1fd	0.23011012
4	0x3e0dfd11	0.13866068
5	0xbe34c17a	-0.1765193
6	0xbe95a9ac	-0.29231012
7	0xbe9745e6	-0.29545516

layers.2.b_block.net.4.weight f4 [1, 8]
0	0x3d9385c6	0.0720325
1	0xbed8d9d6	-0.42353696
2	0x3ccc851e	0.024965819
3	0xbef6dda5	-0.48215976
4	0x3f6b4438	0.9190097
5	0x3dd933eb	0.10605606
6	0xbeda8d9e	-0.4268617
7	0x3ea5548e	0.32291073

layers.4.s_block.net.0.0.weight f4 [8, 1]
0	0x3f2ef7eb	0.6834704
1	0xbf104a44	-0.5636332
2	0xbf6ca9c9	-0.9244657
3	0xbea53e47	-0.32274076
4	0x3f50bb5f	0.81535906
5	0xbf038aa1	-0.51383406
6	0xbee98294	-0.45607436
7	0x3f383ab0	0.7196455

layers.4.s_block.net.0.0.bias f4 [8]
0	0x3f41b402	0.75665295
1	0xbf33ca5f	-0.7023067
2	0x3e911d3c	0.28342617
3	0xbef8d713	-0.4860159
4	0x3f830a64	1.0237546
5	0x3f63b367	0.8894562
6	0x3f4da1f9	0.80325276
7	0xbf6055f1	-0.87631136

layers.4.s_block.net.1.0.weight f4 [8, 8]
0	0xbec75052	-0.38928467
1	0xbd51832d	-0.05115049
2	0x3d803d52	0.06261696
3	0xbded7c73	-0.115960024
4	0xbcc4237b	-0.0239427
5	0x3cdc89fd	0.026921267
6	0xbe34e2d8	-0.17664659
7	0x3f1c1946	0.60976064
8	0xbf0306fc	-0.5118253
9	0xbda9c5c6	-0.082896754
10	0x3eec1f4c	0.46117628
11	0xbecf6883	-0.40509424
12	0xbf55da06	-0.835358
13	0x3e4102cc	0.18848723
14	0x3e2275bb	0.15865223
15	0xbe746e60	-0.2387023
16	0x3e7181e5	0.23584707
17	0xbe4785fc	-0.19484705
18	0x3ae88fec	0.0017743087
19	0xbd5beb9f	-0.053691503
20	0xbe258845	-0.16165264
21	0xbedb806a	-0.4287141
22	0xbee9423a	-0.4555834
23	0xbf0652b1	-0.5246993
24	0x3db95aac	0.090504974
25	0xbe52ee8c	-0.20598811
26	0x3e647ad3	0.22312479
27	0x3dc15d2b	0.094415985
28	0x3dc3c1e8	0.09558469
29	0x3e07e2a9	0.13270058
30	0x3e3c170c	0.18368167
31	0xbe5097c3	-0.20370393
32	0xbf311cae	-0.69184387
33	0xbee60b02	-0.44930273
34	0x3da15e0f	0.078792684
35	0xbed1110b	-0.40833315
36	0xbec60239	-0.3867357
37	0x3e0d83d6	0.13819823
38	0xbe8d1c20	-0.2756052
39	0x3e09e2f5	0.13465483
40	0x3e84c971	0.25934938
41	0x3dc151fb	0.09439465
42	0xbe390492	-0.1806815
43	0xbe5cb643	-0.21553902
44	0xbe41da39	-0.18930902
45	0x3e233f99	0.1594223
46	0x3e967177	0.29383442
47	0xbee629c3	-0.44953737
48	0xbb8082ef	-0.0039218585
49	0x3de20ed6	0.11037986
50	0x3d62a62a	0.055334248
51	0x3dd3bee8	0.10339147
52	0x3eb2532a	0.34829074
53	0x3ee784e6	0.4521858
54	0x3e8fffc2	0.28124815
55	0xbf1e0607	-0.61727947
56	0xbd7d249b	-0.061802488
57	0xbf119e25	-0.56881934
58	0x3c3e8da5	0.01163045
59	0xbd974e27	-0.07387953
60	0xbe7f074a	-0.24905124
61	0xbe314566	-0.1731163
62	0x3ed87299	0.4227493
63	0xbe1670a3	-0.14691405

layers.4.s_block.net.1.0.bias f4 [8]
0	0x3d531efd	0.051543225
1	0x3e79bdab	0.24388759
2	0x3d77c7d1	0.060493294
3	0x3ec11ca5	0.37717167
4	0x3e2a172f	0.16610406
5	0xbe0b6ef8	-0.1361655
6	0x3e17640e	0.14784262
7	0xbd1d19f4	-0.03835483

layers.4.s_block.net.2.0.weight f4 [8, 8]
0	0xbec5e461	-0.38650802
1	0xbd776e9c	-0.06040822
2	0x3dc6d989	0.0970946
3	0xbd267c14	-0.040645674
4	0xbf2acadf	-0.66715807
5	0xbe5c5542	-0.21516898
6	0x3c60573b	0.013692672
7	0xbede38d7	-0.4340274
8	0xbeb86238	-0.36012435
9	0xbf8d256c	-1.1027045
10	0x3e407f8c	0.18798655
11	0x3ead70c2	0.3387509
12	0xbed1a4f0	-0.4094615
13	0x3d85a443	0.06525471
14	0x3ed9461c	0.42436302
15	0xbc6963bb	-0.014244969
16	0x3dee5697	0.116376095
17	0xbf3ab8c4	-0.7293818
18	0x3e7debcb	0.24796979
19	0x3e762930	0.2403915
20	0x3eb96403	0.36209115
21	0x3c055173	0.008137095
22	0x3e9a8863	0.3018218
23	0x3d1912e3	0.037371527
24	0x3eba540c	0.36392248
25	0x3ed89138	0.42298293
26	0xbe39db89	-0.18150152
27	0xbe888236	-0.26661843
28	0xbe60ee05	-0.21965797
29	0x3e89c5dc	0.26908767
30	0xbdb4bd72	-0.08825196
31	0xbd8c17f3	-0.068405055
32	0x3da560c8	0.080751
33	0xbe0f524f	-0.13996242
34	0x3cc4669f	0.023974715
35	0xbea1ceae	-0.31602997
36	0x3e47cdaf	0.19512056
37	0xbe83175c	-0.2560376
38	0xbea855d3	-0.3287798
39	0x3e32513c	0.17413801
40	0xbd49b710	-0.049246848
41	0x3eadcb18	0.3394401
42	0xbe8d963f	-0.2765369
43	0xbe806218	-0.2507484
44	0xbec1756c	-0.37784898
45	0x3ec49cdb	0.3840092
46	0xbe6fb0e7	-0.23407327
47	0xbccb3bdb	-0.024808815
48	0x3d1a7251	0.037706677
49	0xbdba12f0	-0.09085643
50	0xbe93ff6b	-0.28905806
51	0xbe73cfdc	-0.23809761
52	0xbd3a82c2	-0.045534857
53	0xbe207757	-0.15670525
54	0xbe9c88dc	-0.30573165
55	0x3e828c26	0.2549755
56	0xbda275a5	-0.07932595
57	0xbf35a4e4	-0.7095473
58	0x3e45b911	0.19308878
59	0x3ea0984f	0.31366202
60	0x3e5bc2b1	0.21460988
61	0x3e0e783e	0.13913056
62	0x3e787f31	0.2426727
63	0xbe41284d	-0.1886303

layers.4.s_block.net.2.0.bias f4 [8]
0	0xbc726af3	-0.0147960065
1	0x3df8acc6	0.12142329
2	0x3d01f2a0	0.031725526
3	0xbe5131b3	-0.20429115
4	0x3ce6f1af	0.028191416
5	0x3dc9fb79	0.09862418
6	0x3ce5c92d	0.02805003
7	0x3bddd59f	0.0067698504

layers.4.s_block.net.3.0.weight f4 [8, 8]
0	0xbe7a598f	-0.24448226
1	0x3db7884e	0.08961545
2	0xbe2ebf57	-0.17065178
3	0x3e972025	0.29516712
4	0x3eafbff2	0.3432613
5	0x3e42e14e	0.1903126
6	0xbe7d9b4e	-0.24766275
7	0x3daf9446	0.08573203
8	0x3d6a6d86	0.057233356
9	0xb908ae01	-0.00013034792
10	0x3e2623cc	0.16224593
11	0x3d889c54	0.06670442
12	0x3ebcd09b	0.36877903
13	0x3e980b98	0.29696345
14	0xbe0161b8	-0.12634933
15	0x3e52b421	0.20576526
16	0x3e18db0c	0.1492731
17	0xbeee6a12	-0.465653
18	0x3c83f7c5	0.016109357
19	0xbe634a66	-0.2219635
20	0xbeb3c897	-0.35113975
21	0xbd8f096d	-0.0698422
22	0x3ea1ec95	0.3162581
23	0x3cd250df	0.025673328
24	0xbe42af0e	-0.1901209
25	0x3e1343c6	0.14381322
26	0xbe886cd6	-0.26645535
27	0x3e282aeb	0.16422622
28	0x3da9f407	0.08298498
29	0xbe3973c4	-0.18110567
30	0x3e277190	0.16351914
31	0x3e53fda5	0.20702226
32	0x3e84a7e1	0.2590933
33	0x3eb60c8f	0.35556456
34	0x3e24c538	0.16090858
35	0xbea869d8	-0.32893252
36	0x3ed2d823	0.41180524
37	0xbe6d80b6	-0.2319363
38	0x3e8b8132	0.27247006
39	0x3ed508ea	0.41608363
40	0xbea9eaf8	-0.3318708
41	0x3e18a125	0.14905222
42	0x3ec6d628	0.38835263
43	0x3cf1f33d	0.02953493
44	0x3ec525f6	0.38505524
45	0xbdc61d90	-0.09673607
46	0x3debfbc8	0.11522633
47	0x3eef3b5b	0.46724972
48	0xbeb0b017	-0.34509346
49	0x3e2842dc	0.16431755
50	0xbe5cd2b4	-0.21564752
51	0xbe03f9be	-0.12888238
52	0x3eb6ce02	0.35704046
53	0x3dd8d1ec	0.105869144
54	0xbdf7d84d	-0.12101803
55	0xbd6526ce	-0.05594521
56	0xbe4f6a25	-0.20255335
57	0x3e0b2b52	0.13590744
58	0x3da92fa8	0.08261043
59	0xbddda768	-0.10822946
60	0x3def76cb	0.1169258
61	0x3eb3ed33	0.35141906
62	0x3e99aa80	0.30012894
63	0xbe7b8936	-0.2456406

layers.4.s_block.net.3.0.bias f4 [8]
0	0xbd352fd1	-0.044235054
1	0xbe8ae9cc	-0.27131498
2	0xbe7284b9	-0.23683442
3	0xbe03fa65	-0.12888487
4	0x399fb45a	0.00030461216
5	0xbad574f6	-0.0016285467
6	0xbb8c605f	-0.0042839493
7	0xbc74e118	-0.014946245

layers.4.s_block.net.4.weight f4 [1, 8]
0	0x3c792331	0.015206144
1	0x3e09c883	0.13455395
2	0xbe30a55c	-0.1725058
3	0x3de53cd6	0.11193244
4	0x3ec51cf1	0.38498643
5	0x3e7ecbd3	0.2488244
6	0xba090818	-0.00052273413
7	0x3b8b14ec	0.0042444374

layers.4.b_block.net.0.0.weight f4 [8, 1]
0	0xbf00179c	-0.50036025
1	0xbef8143d	-0.4845294
2	0x3dbd61da	0.09247179
3	0xbf4542c2	-0.7705499
4	0x3dd5194b	0.10405215
5	0x3f2d3686	0.6766132
6	0xbed42829	-0.4143689
7	0xbda6f2a2	-0.08151747

layers.4.b_block.net.0.0.bias f4 [8]
0	0xbef2a5b1	-0.47392038
1	0xbeeac15d	-0.4585065
2	0x3f85e717	1.0461148
3	0xbc90c2a6	-0.01767094
4	0xbe910979	-0.2832754
5	0x3dcb8361	0.09937168
6	0xbec8eb44	-0.39241993
7	0xbf1b8efd	-0.6076506

layers.4.b_block.net.1.0.weight f4 [8, 8]
0	0x3ea48804	0.32135022
1	0x3f213013	0.6296398
2	0xbdae841c	-0.085212916
3	0x3ea2f337	0.31826183
4	0xbe899468	-0.26871037
5	0xbd342d62	-0.043988593
6	0x3f4b747a	0.79474604
7	0xbdc8b382	-0.097998634
8	0x3d16027c	0.036623463
9	0x3f2fcb11	0.6866923
10	0x3e9930dc	0.2992009
11	0x3ee6ce06	0.45079058
12	0x3db2e141	0.0873437
13	0xbcc85066	-0.0244524
14	0x3e76612b	0.24060504
15	0xbecd1471	-0.40054658
16	0xbc874c36	-0.016515832
17	0x3ee6308d	0.44958916
18	0x3e1f46ab	0.15554301
19	0xbe4ae48c	-0.19813746
20	0xbe2fbb19	-0.17161216
21	0xbf28c548	-0.6592603
22	0xbc8b9c94	-0.017042436
23	0xbde0110b	-0.10940751
24	0xbfae04e8	-1.3595247
25	0xbfa2765a	-1.2692368
26	0xbd5811fb	-0.052751523
27	0xbda7b72c	-0.08189234
28	0x3d80ed81	0.062953
29	0x3f03615d	0.5132044
30	0xbf6895d9	-0.9085365
31	0xbdb10d9a	-0.086451724
32	0xbed0ecde	-0.40805715
33	0xbeb0dd5b	-0.3454388
34	0xbd2b3d62	-0.041806586
35	0xbe5b3028	-0.21405089
36	0xbdefd651	-0.117107995
37	0xbf4d1f9d	-0.80126363
38	0xbdf25790	-0.118331075
39	0x3dcc1b78	0.09966177
40	0x3edd7764	0.4325515
41	0x3cdfebc5	0.027334103
42	0xbed7d807	-0.42157003
43	0xbdbdab3e	-0.092611775
44	0x3ec72f8d	0.38903466
45	0x3eadfe81	0.33983234
46	0x3e4081e2	0.18799546
47	0xbdb8b57b	-0.0901899
48	0x3ee51ecf	0.44750068
49	0x3e06e8ed	0.13174792
50	0x3e44e336	0.19227299
51	0xbe89dafd	-0.26924887
52	0x3d404389	0.046939407
53	0xbeb62f2b	-0.3558286
54	0x3eafe543	0.343546
55	0x3e26691e	0.16251037
56	0x3ecc3b10	0.3988881
57	0x3e98326f	0.29725978
58	0x3efeca0a	0.4976352
59	0xbe849866	-0.2589752
60	0x3ca65140	0.020302415
61	0xbf02697d	-0.5094221
62	0x3f269c4d	0.65082246
63	0x3c0310ac	0.00799958

layers.4.b_block.net.1.0.bias f4 [8]
0	0xbe178ee1	-0.14800598
1	0xbdbc971a	-0.09208508
2	0xbead7d04	-0.33884442
3	0x3ea3bbaa	0.31979114
4	0xbecd0d9f	-0.40049455
5	0xbe3badc6	-0.18328008
6	0x3d9820dc	0.074281424
7	0xbe0e56a8	-0.13900244

layers.4.b_block.net.2.0.weight f4 [8, 8]
0	0x3eb464e5	0.35233226
1	0x3e722093	0.23645239
2	0xbecaa09d	-0.39575663
3	0xbe61bb60	-0.22044134
4	0x3e0e6049	0.13903917
5	0xbce18593	-0.027529513
6	0x3d6a93b1	0.057269756
7	0x3ce4b38e	0.02791765
8	0x3ee6558e	0.44987148
9	0x3cc88833	0.024479007
10	0x3d1bc759	0.03803191
11	0xbe804ac9	-0.25057057
12	0x3ece8f98	0.40343928
13	0x3e7c4fa5	0.24639757
14	0xbe51152a	-0.2041823
15	0xbdd736c9	-0.10508496
16	0x3f197ae3	0.59953135
17	0x3f0c131f	0.54716676
18	0xbdd83bde	-0.10558294
19	0xbf9de44b	-1.2335294
20	0xbefbdf5e	-0.49193853
21	0x3e8dde90	0.27708864
22	0x3da604fe	0.08106421
23	0x3e85f1fa	0.26161176
24	0x3ed1118c	0.408337
25	0x3e8dff12	0.27733666
26	0x3e22d0ea	0.15900007
27	0x3d8680bd	0.06567524
28	0xbe94d378	-0.29067588
29	0x3ecf7a1b	0.40522847
30	0xbe60a76f	-0.21938871
31	0x3e824620	0.25444126
32	0xbd22a23b	-0.039705496
33	0xbd4717a7	-0.04860654
34	0xbca76df1	-0.020438166
35	0xbe543a65	-0.20725401
36	0xbe6c84e9	-0.23097576
37	0x3eb43984	0.3520013
38	0xbe04daae	-0.12974045
39	0xbb9b7222	-0.0047438303
40	0xbf4709b1	-0.7774916
41	0x3e076368	0.13221514
42	0xbeefc86d	-0.468326
43	0x3e895018	0.2681892
44	0xbeea0e17	-0.45713875
45	0xbf19744f	-0.599431
46	0xbf05b35a	-0.52226794
47	0xbf9697e0	-1.1765099
48	0xbeaaf556	-0.333903
49	0x3e06267b	0.13100617
50	0x3e662855	0.22476323
51	0xbf1adaf3	-0.6049034
52	0xbdb8e87c	-0.09028718
53	0x3e76d146	0.24103269
54	0xbddfa0e8	-0.10919362
55	0x3e8da30e	0.27663463
56	0x3ed65ad7	0.4186618
57	0xbbe11e1f	-0.006870046
58	0x3d753e31	0.059873763
59	0xbe8f43f1	-0.27981523
60	0xbeca4674	-0.39506876
61	0x3e13df79	0.14440717
62	0xbc9718e0	-0.018444479
63	0x3dea84b6	0.11451094

layers.4.b_block.net.2.0.bias f4 [8]
0	0x3e57e405	0.21083076
1	0x3e95c365	0.29250637
2	0xbd84a01a	-0.064758494
3	0x3dba19de	0.09086965
4	0x3ed67852	0.41888672
5	0x3e46ab8d	0.19401379
6	0x3e493b7a	0.19651595
7	0x3ea3162c	0.31852853

layers.4.b_block.net.3.0.weight f4 [8, 8]
0	0x3ec8aa51	0.3919244
1	0xbdb65226	-0.08902387
2	0x3f272f10	0.65306187
3	0x3e16a988	0.14713109
4	0x3ea8c601	0.32963565
5	0xbf02d47a	-0.51105464
6	0xbe3344af	-0.1750667
7	0xbe0648d5	-0.1311372
8	0x3d59142b	0.05299775
9	0xbe3935f5	-0.18086989
10	0xbfc84cdd	-1.5648457
11	0xbd8ca2b6	-0.06866972
12	0x3e3f28ff	0.18667983
13	0x3f4eab68	0.80730295
14	0x3eab0743	0.33403978
15	0x3cc1cdec	0.023657762
16	0x3e65bb9c	0.22434849
17	0x3e14bf99	0.14526214
18	0x3f03cb24	0.51481843
19	0x3ea53c8d	0.3227276
20	0x3ea592d0	0.32338572
21	0xbf3aaa40	-0.7291603
22	0x3debc7a0	0.11512685
23	0x3e75a37b	0.23988144
24	0x3eb6843d	0.35647765
25	0x3d0ee34a	0.03488473
26	0x3edcd1c1	0.4312878
27	0x3da81b8f	0.082083814
28	0xba76afae	-0.00094103336
29	0xbf68d226	-0.9094566
30	0xbe285b01	-0.16440965
31	0xbe21080d	-0.15725727
32	0xbe881961	-0.26581863
33	0x3de7501c	0.112945765
34	0xbea3d38c	-0.31997335
35	0x3dc554f5	0.09635345
36	0x3e1328be	0.1437101
37	0x3f27e7ca	0.6558806
38	0x3dff6c1f	0.12471794
39	0xbe018d10	-0.12651467
40	0xbe61109a	-0.21978989
41	0xbe6d179e	-0.2315354
42	0x3ecb6581	0.3972588
43	0xbdd8b267	-0.105809025
44	0xbbfe5c59	-0.0077624735
45	0xbf21d9a3	-0.6322271
46	0xbe19ad02	-0.15007403
47	0xbba23437	-0.004950072
48	0x3e610d46	0.2197772
49	0x3cd334ec	0.025782071
50	0xbeddc13f	-0.43311498
51	0xbe9bebed	-0.30453435
52	0xbe5ce3cb	-0.21571271
53	0x3f34189e	0.7035006
54	0x3e53d7d0	0.20687795
55	0x3e8669f1	0.26252702
56	0x3c8b0392	0.016969476
57	0x3dc2c721	0.09510637
58	0xbef902bd	-0.48634902
59	0x3e1957c8	0.14974892
60	0xbed7a90e	-0.42121166
61	0x3e267037	0.16253744
62	0xbdd74d0e	-0.10512744
63	0xbebe1ba5	-0.37130466

layers.4.b_block.net.3.0.bias f4 [8]
0	0x3da1daeb	0.079030834
1	0x3ec87033	0.391481
2	0x3dad9159	0.084749885
3	0x3eae0392	0.339871
4	0xbed97b56	-0.4247691
5	0xbe9f7f2d	-0.31151715
6	0xbcc83046	-0.024437081
7	0x3e24b29a	0.16083756

layers.4.b_block.net.4.weight f4 [1, 8]
0	0xbe8a6853	-0.27032718
1	0x3eca1caa	0.39474994
2	0xbefc37b6	-0.49261254
3	0xbdefd2cc	-0.11710128
4	0x3e86c2e3	0.26320562
5	0xbd472e12	-0.04862792
6	0x3e10498a	0.14090553
7	0x3dde3d9f	0.10851597

layers.6.s_block.net.0.0.weight f4 [8, 1]
0	0xbf125ea7	-0.5717568
1	0xbf75e8a3	-0.960581
2	0xbe0fd8cb	-0.14047544
3	0x3e9633a6	0.2933628
4	0x3eb90e7b	0.3614386
5	0xbf469de5	-0.7758468
6	0x3f3cbc26	0.7372459
7	0x3f34291a	0.70375216

layers.6.s_block.net.0.0.bias f4 [8]
0	0xbf1c9858	-0.6116996
1	0xbe9c90f1	-0.30579332
2	0xbf213d1a	-0.6298386
3	0x3f40ddba	0.7533833
4	0x3f581bbf	0.8441734
5	0xbf31c4fd	-0.69441205
6	0xbf3c096f	-0.73451895
7	0x3dab2d46	0.083582446

layers.6.s_block.net.1.0.weight f4 [8, 8]
0	0xbe0dc203	-0.13843541
1	0x3db51bd3	0.08843198
2	0x3e0850f2	0.13312128
3	0x3e5a1d46	0.2130023
4	0x3d98d5f8	0.07462686
5	0xbe33ca03	-0.1755753
6	0x3e9e889a	0.30963594
7	0x3ed93178	0.42420554
8	0x3f2c99bd	0.67422086
9	0x3ef2274b	0.47295603
10	0x3ddbf361	0.1073978
11	0xbeab99d1	-0.3351579
12	0xbe86891a	-0.26276475
13	0x3e442226	0.19153652
14	0x3eb4f73a	0.3534487
15	0x3d279781	0.04091597
16	0x3e0d274a	0.13784519
17	0x3d56e85d	0.052467693
18	0x3ec25a51	0.3795953
19	0xbe9ca232	-0.30592495
20	0x3dea2f00	0.11434746
21	0x3d8a2781	0.06745816
22	0x3b9b0fea	0.0047321217
23	0xbe917425	-0.28408924
24	0x3eb12730	0.3460021
25	0xbd756197	-0.059907522
26	0xbca36b63	-0.019948667
27	0xbce5ba70	-0.028043002
28	0xbc2c257c	-0.010506984
29	0x3ecbef95	0.39831224
30	0x3ef34682	0.4751473
31	0x3ecf7709	0.40520504
32	0xbea538f4	-0.32270014
33	0xbe201fdd	-0.15637155
34	0xbe907aa4	-0.28218567
35	0x3e2ca10d	0.16858311
36	0x3e8322b7	0.25612423
37	0x3ec25b8c	0.3796047
38	0xbdd1cb77	-0.10243886
39	0x3f3e765f	0.7439937
40	0xbdd49365	-0.10379676
41	0xbea8dabe	-0.32979387
42	0xbdceddcc	-0.10100898
43	0xbe62b339	-0.2213868
44	0xbe954155	-0.29151407
45	0x3d0e4d05	0.03474142
46	0xbefd460a	-0.49467498
47	0xbd12d35d	-0.035846103
48	0xbed2a6cc	-0.4114288
49	0x3d29f7e1	0.04149616
50	0x3e28e583	0.16493802
51	0xbdd1e4d1	-0.102487214
52	0xbe982997	-0.2971923
53	0xbe3b6ada	-0.1830248
54	0xbf2e8d07	-0.6818394
55	0x3e4bf96f	0.1991937
56	0x3e5df2c4	0.21674639
57	0x3eb8eb55	0.36117044
58	0x3f158319	0.58403164
59	0x3e981d12	0.2970968
60	0x3e90d848	0.2829001
61	0xbe6cb5ce	-0.23116228
62	0xbe519242	-0.20465949
63	0x3dd78e78	0.10525221

layers.6.s_block.net.1.0.bias f4 [8]
0	0xbe41dbf1	-0.18931557
1	0xbdc3474b	-0.095350824
2	0x3e4c4517	0.1994823
3	0xbeb99202	-0.36244208
4	0x3e10af4f	0.14129375
5	0x3e572295	0.21009286
6	0x3ea057fd	0.3131713
7	0x3e54089b	0.20706408

layers.6.s_block.net.2.0.weight f4 [8, 8]
0	0xbf39cd22	-0.7257863
1	0x3ea57efb	0.3232344
2	0x3e1b5150	0.15167737
3	0xbea504ec	-0.32230318
4	0xbefe814f	-0.4970803
5	0x3e80e2d3	0.25173053
6	0x3e05ab8e	0.13053724
7	0x3d656ba4	0.056010857
8	0xbcffe91f	-0.03123909
9	0xbf177104	-0.59156823
10	0xbe3e6cff	-0.18596266
11	0xbee7e2e1	-0.45290282
12	0x3eb271c6	0.34852427
13	0x3dcadeac	0.099057525
14	0x3dbaf743	0.09129193
15	0x3de88c5b	0.11354896
16	0xbeb4c9ba	-0.35310155
17	0xbf5f6ba2	-0.8727361
18	0xbe3add0d	-0.18248387
19	0xbf21aeba	-0.63157237
20	0xbf01a607	-0.5064396
21	0xbe4f3684	-0.2023564
22	0x3e0219d9	0.12705173
23	0xbe9acfa6	-0.30236548
24	0x3daa6e6d	0.08321843
25	0x3f30ef0d	0.6911476
26	0xbc8b6d08	-0.017019764
27	0x3f2fd3a0	0.6868229
28	0x3df45108	0.11929518
29	0xbe9f0bd5	-0.31063715
30	0x3e1f8362	0.15577462
31	0x3eb32dd5	0.34995905
32	0xbeecbaa5	-0.46236148
33	0xbef1b398	-0.47207332
34	0x3e9526a5	0.29131046
35	0xbf1c66e9	-0.6109453
36	0xbe56b660	-0.20968008
37	0x3ebb5e09	0.3659518
38	0x3ed5a2f4	0.41725886
39	0x3e674199	0.22583617
40	0x3d1f393e	0.03887295
41	0xbea79ffb	-0.32739243
42	0x3e8e50c4	0.27795994
43	0xbf037713	-0.5135357
44	0x3d99e121	0.07513643
45	0x3dd3c673	0.103405856
46	0x3eb96c65	0.3621551
47	0xbdc25c87	-0.094903044
48	0x3ca72c69	0.020406919
49	0xbf073297	-0.5281157
50	0xbec567b3	-0.3855568
51	0xbee2a75c	-0.4426831
52	0xbbc83d58	-0.0061108284
53	0x3e8219a9	0.25410202
54	0x3df63b2a	0.120230034
55	0x3ea442d8	0.32082248
56	0x3b4dcc4a	0.0031402283
57	0x3e92b764	0.2865554
58	0xbe7aa4e5	-0.24476965
59	0xbd1b93c8	-0.037982732
60	0x3d71e116	0.05905255
61	0x3e1b2caf	0.15153764
62	0xbe3b9502	-0.1831856
63	0x3e8d4a36	0.2759568

layers.6.s_block.net.2.0.bias f4 [8]
0	0x3e218ac7	0.15775596
1	0x3ddb3079	0.10702605
2	0xbe842477	-0.2580907
3	0xbe8a4b5c	-0.2701062
4	0x3eaa8bec	0.33309877
5	0xbe069f8a	-0.13146797
6	0x3d7fb6fa	0.06243036
7	0x3e2f9eb3	0.17150383

layers.6.s_block.net.3.0.weight f4 [8, 8]
0	0x3e217201	0.15766145
1	0xbf028f70	-0.5100012
2	0xbeffb626	-0.49943656
3	0x3efbe466	0.49197692
4	0xbee3fcd1	-0.4452882
5	0xbda98515	-0.082773365
6	0xbaf329a4	-0.0018551839
7	0xbcb9278e	-0.022601869
8	0xbf3ae230	-0.73001385
9	0x3d8c51d0	0.06851542
10	0x3dfc2dca	0.12313421
11	0xbf801d3a	-1.0008919
12	0x3ecdcfbe	0.40197557
13	0x3e73f081	0.23822214
14	0xbe56c759	-0.20974483
15	0xbd668edf	-0.056288596
16	0xbe99ee78	-0.3006475
17	0x3db65770	0.08903396
18	0x3e47d20f	0.19513725
19	0xbdf6f4a2	-0.12058379
20	0xbe0c2512	-0.13686016
21	0x3e1bccc4	0.1521483
22	0x3ea8d09d	0.3297166
23	0xbe5bc454	-0.21461612
24	0xbef0a376	-0.4699971
25	0x3e4ca91e	0.19986388
26	0x3db9f3ad	0.090796806
27	0xbf387d11	-0.72065836
28	0x3e4e22f8	0.20130527
29	0x3d9e619d	0.07733462
30	0x3db108e5	0.086442746
31	0xbe62efc7	-0.2216178
32	0x3f058253	0.52151984
33	0xbd62ddd9	-0.05538735
34	0xbf14728e	-0.57987297
35	0x3e9d9dea	0.3078454
36	0xbea87bcf	-0.32906958
37	0xbda345c2	-0.079722896
38	0xbebd4b7b	-0.3697165
39	0x3d8cd29d	0.06876109
40	0x3e98227e	0.29713815
41	0xbe8e9896	-0.2785079
42	0xbebc8ee2	-0.3682776
43	0x3f17bbf2	0.59271157
44	0x3ba728be	0.0051012924
45	0xbea289da	-0.31745797
46	0xbf0f3cd4	-0.5595219
47	0xbe476d10	-0.19475198
48	0xbe32d42c	-0.1746375
49	0x3e55bc04	0.20872504
50	0xbe14668b	-0.14492242
51	0xbebdd110	-0.37073565
52	0xbdbd94ae	-0.09256874
53	0xbea41c34	-0.32052767
54	0xbe2ad5b8	-0.1668309
55	0xbe645937	-0.22299658
56	0x3eeb40ed	0.45947972
57	0xbf033a62	-0.5126096
58	0x3d0003a6	0.03125348
59	0x3e4a1b4f	0.1973698
60	0x3d9e13b7	0.07718604
61	0xbd8aa3b8	-0.06769508
62	0x3c9109c2	0.017704848
63	0x3d79a9ea	0.06095306

layers.6.s_block.net.3.0.bias f4 [8]
0	0x3ea83682	0.32854086
1	0x3e90af8f	0.2825894
2	0xbd43d7f5	-0.047813375
3	0x3e379356	0.17927298
4	0x3e029f2a	0.12756029
5	0xbdb3cc3f	-0.08779191
6	0xbcff0976	-0.031132441
7	0x3dae21b4	0.08502522

layers.6.s_block.net.4.weight f4 [1, 8]
0	0xbeaf0800	-0.3418579
1	0x3e33cc81	0.17558481
2	0xbbe4dd00	-0.006984353
3	0x3ea09da8	0.31370282
4	0xbf041db9	-0.51607853
5	0xbeb6949c	-0.35660255
6	0x3e567455	0.20942815
7	0xbe6c6279	-0.2308444

layers.6.b_block.net.0.0.weight f4 [8, 1]
0	0x3f20f7cc	0.6287811
1	0x3e2fcbe6	0.17167625
2	0x3e9108e9	0.2832711
3	0xbe130804	-0.14358526
4	0x3f0db062	0.55347264
5	0xbf9c4da5	-1.2211195
6	0xbf42e5fd	-0.76132184
7	0xbf8380e4	-1.0273709

layers.6.b_block.net.0.0.bias f4 [8]
0	0x3f3f7401	0.7478638
1	0xbf446505	-0.76716644
2	0x3eb0b7c1	0.34515193
3	0x3e68c1f7	0.22730242
4	0xbf8b0ac4	-1.086266
5	0x3ec00a4d	0.3750786
6	0xbf375194	-0.71608853
7	0x3f29971a	0.6624619

layers.6.b_block.net.1.0.weight f4 [8, 8]
0	0xbf62d53b	-0.88606614
1	0x3e24b861	0.1608596
2	0x3c85525a	0.01627462
3	0xbe76526c	-0.24054879
4	0xbcf02b34	-0.029317476
5	0x3dbd3ae0	0.09239745
6	0x3f0ec400	0.5576782
7	0x3eca6b2b	0.39534888
8	0xbe92c65c	-0.2866696
9	0xbe88035d	-0.26565066
10	0xbdc8b820	-0.09800744
11	0xbe3c8a60	-0.18412161
12	0xbeee0f4d	-0.4649605
13	0xbe9d0964	-0.30671227
14	0x3dc63ee9	0.09679968
15	0x3e4ca32e	0.19984123
16	0xbfaf6263	-1.37019
17	0xbe249aff	-0.16074751
18	0xbea2d000	-0.31799316
19	0x3db7bf70	0.08972061
20	0xbe1cff3a	-0.15331736
21	0x3d8ede8c	0.06976041
22	0x3f345539	0.7044254
23	0x3eb62eb9	0.35582522
24	0xbe1db81d	-0.15402265
25	0x3da1ea6c	0.079060405
26	0x3e7b0fc0	0.24517727
27	0x3cf041b8	0.029328212
28	0x3eed894c	0.46393812
29	0x3c17d0ee	0.009266121
30	0x3f1d9ce8	0.61567545
31	0x3de5d5e1	0.11222435
32	0xbed66dbf	-0.41880605
33	0x3e80f9dd	0.2519063
34	0x3d89f605	0.067363776
35	0xbe635410	-0.22200036
36	0x3e5c193b	0.21494
37	0xbe0224c3	-0.12709336
38	0xbea9aa55	-0.33137766
39	0x3e8c7530	0.27433157
40	0x3dbb2498	0.09137839
41	0xbecb611f	-0.39722535
42	0x3e552af5	0.20817168
43	0xbeaada11	-0.33369496
44	0xbeffa2a7	-0.4992878
45	0x3eabffbc	0.33593547
46	0xbfbaec55	-1.4603373
47	0x3d9434d1	0.072366364
48	0x3dce7737	0.10081332
49	0xbe89ab08	-0.268883
50	0x3eb802d6	0.35939664
51	0x3d2a11b6	0.041520797
52	0xbd238540	-0.039922
53	0xbc9f115a	-0.019417454
54	0xbe590d27	-0.21196423
55	0x3e86dd42	0.2634068
56	0xbe12b411	-0.14326502
57	0x3e86035d	0.2617444
58	0x3d85e22c	0.065372795
59	0xbd256dd8	-0.04038796
60	0x3ea01dec	0.3127283
61	0x3e38ba20	0.18039751
62	0xbe88d172	-0.26722294
63	0xbdc1dca7	-0.09465914

layers.6.b_block.net.1.0.bias f4 [8]
0	0xbec48124	-0.38379776
1	0x3db12a17	0.08650606
2	0xbef44ab7	-0.47713253
3	0x3e2de38a	0.1698133
4	0xbe0059d7	-0.12534271
5	0x3ed10d2c	0.40830362
6	0x3eb478c7	0.35248396
7	0xbe199e94	-0.15001899

layers.6.b_block.net.2.0.weight f4 [8, 8]
0	0x3d4ac482	0.04950381
1	0xbd458389	-0.048221145
2	0xbe12e535	-0.14345248
3	0x3ddd9424	0.10819271
4	0xbe229c14	-0.15879852
5	0x3cc14d59	0.023596453
6	0x3d13017c	0.035890087
7	0xbea99cf3	-0.33127555
8	0x3e8b851d	0.27249995
9	0xbea60c57	-0.3243129
10	0xbeacad7d	-0.3372611
11	0x3da798ff	0.081834786
12	0x3e2a7226	0.16645107
13	0x3dd1f2f1	0.102514155
14	0x3e5bd99f	0.21469735
15	0xbe46dd87	-0.19420443
16	0xbfa1f004	-1.2651372
17	0x3e27f3eb	0.16401641
18	0xbfc87a97	-1.5662411
19	0xbe7d5f64	-0.2474342
20	0xbe429afb	-0.19004433
21	0x3f0376db	0.51353234
22	0x3e7e211c	0.24817318
23	0x3d432d5b	0.047650676
24	0x3d8b5082	0.06802465
25	0x3e3e39a3	0.18576674
26	0xbde72526	-0.112863824
27	0xbe0193d1	-0.12654044
28	0xbeb2db50	-0.34932947
29	0x3e8a3811	0.269959
30	0xbe4edaa7	-0.20200597
31	0xbb4ba988	-0.003107639
32	0xbe4a5517	-0.19759022
33	0x3d8bb627	0.06821852
34	0xbf1aea6f	-0.6051397
35	0x3dad86bf	0.084729664
36	0x3e39ea34	0.18155748
37	0x3e2e5af0	0.17026877
38	0xbe61c57b	-0.22047989
39	0x3e888a2c	0.26667917
40	0x3ece4ddd	0.4029378
41	0xbe45fc4a	-0.19334522
42	0x3f01d4b0	0.5071516
43	0x3db238c9	0.08702237
44	0xbe088953	-0.13333635
45	0xbd913d73	-0.07091799
46	0xbe42ee16	-0.19036135
47	0x3e5b5357	0.2141851
48	0x3eb6d975	0.35712782
49	0xbe7e1b37	-0.24815069
50	0xbd7b44c9	-0.061344896
51	0x3c9fc373	0.019502377
52	0xbe4f57d7	-0.20248352
53	0x3d2a3d01	0.041562084
54	0x3eb52609	0.3538058
55	0x3d46afbf	0.04850745
56	0xbe961984	-0.29316342
57	0xbd303f72	-0.043029256
58	0x3eddae5e	0.43297094
59	0xbe948c5d	-0.2901334
60	0x3ec174b0	0.37784338
61	0x3d1fba5b	0.03899608
62	0x3c6afcc5	0.0143424915
63	0xbe0e7c44	-0.13914591

layers.6.b_block.net.2.0.bias f4 [8]
0	0xbe036822	-0.12832692
1	0x3e721c05	0.23643501
2	0x3d979e27	0.07403212
3	0xbe52ea09	-0.2059709
4	0x3eb0c461	0.34524825
5	0x3df35ea0	0.11883283
6	0xbe54d507	-0.20784388
7	0xbd95732e	-0.072973594

layers.6.b_block.net.3.0.weight f4 [8, 8]
0	0x3e2e01bc	0.16992849
1	0x3e870ae0	0.26375484
2	0xbf17fed6	-0.59373224
3	0x3dcb9354	0.0994021
4	0x3e900358	0.2812755
5	0x3d27d5c7	0.04097536
6	0x3e678d81	0.22612573
7	0xbda358e4	-0.07975939
8	0xbdabb671	-0.08384407
9	0xbe301ceb	-0.17198531
10	0xbf1d77d8	-0.6151099
11	0xbd830869	-0.063980885
12	0xbea7410a	-0.32666808
13	0x3c923080	0.017845392
14	0xbe77609c	-0.24157947
15	0x3e351332	0.17683104
16	0xbb6f0086	-0.0036468818
17	0x3d18fa3b	0.037348013
18	0x3f408767	0.7520661
19	0x3d9c0498	0.07618064
20	0x3e38fc47	0.18064986
21	0xbeca4cbf	-0.39511678
22	0x3d0304de	0.031987064
23	0x3e588e02	0.21147922
24	0x3d0cac40	0.034343958
25	0x3e5ae4e0	0.21376371
26	0x3f5a9e8a	0.8539816
27	0x3e555fb8	0.20837295
28	0x3e48da6a	0.19614568
29	0xbf2c2ffc	-0.6726072
30	0xbeb7e547	-0.35917112
31	0xbe8512b1	-0.25990823
32	0x3ebd0699	0.36919096
33	0x3d9d226a	0.076725796
34	0xbdf4818a	-0.1193877
35	0x3ec58831	0.38580468
36	0xbe49b080	-0.19696236
37	0x3de3327f	0.11093616
38	0x3df7f96d	0.12108121
39	0xbde3e7ad	-0.11128173
40	0xbe804f36	-0.25060433
41	0x3e59d755	0.21273549
42	0x3e7c3499	0.2462944
43	0x3db36cb2	0.08760966
44	0xbeac90dc	-0.3370427
45	0x3e9dc297	0.30812523
46	0xbd95e76d	-0.073195316
47	0x3e42412b	0.18970172
48	0xbc100914	-0.008791227
49	0xbe93e869	-0.28888252
50	0xbf48d434	-0.78448796
51	0xbe117b12	-0.14207104
52	0xbe1a19f3	-0.15048961
53	0x3de4d634	0.111736685
54	0xbe360b93	-0.17777853
55	0xbe4891d6	-0.19586882
56	0xbe862654	-0.26201117
57	0x3ea0e4d7	0.3142459
58	0xbf6af433	-0.9177887
59	0xbe67bec6	-0.22631368
60	0xbd736ccd	-0.059429932
61	0x3e94e680	0.29082108
62	0xbe862e80	-0.26207352
63	0xbb23d65e	-0.00249996

layers.6.b_block.net.3.0.bias f4 [8]
0	0xbd0949f4	-0.033517793
1	0xbe110b93	-0.14164571
2	0xbcc3f1db	-0.023919037
3	0x3db8c826	0.0902255
4	0xbe427046	-0.18988141
5	0xbe9e65e8	-0.30937123
6	0xbcf9c931	-0.030491443
7	0x3e940c7d	0.28915778

layers.6.b_block.net.4.weight f4 [1, 8]
0	0xbe8cd3f1	-0.27505448
1	0xbebeef72	-0.37292057
2	0x3f01cef5	0.50706416
3	0x3eddb8fd	0.43305197
4	0x3def69d6	0.116901085
5	0x3e4bbde3	0.19896655
6	0xbdaec8a5	-0.08534364
7	0xbe59ed17	-0.21281849

layers.8.s_block.net.0.0.weight f4 [8, 1]
0	0x3ea982c3	0.33107576
1	0xbde90fcf	-0.113799684
2	0xbd1e50fa	-0.038651444
3	0x3d8c13f2	0.06839742
4	0xbf3e2290	-0.7427149
5	0x3e859b4c	0.26095045
6	0xbf700b15	-0.9376691
7	0xbf884688	-1.0646524

layers.8.s_block.net.0.0.bias f4 [8]
0	0xbe8c8262	-0.27443224
1	0x3e716806	0.23574838
2	0x3ea011d7	0.3126361
3	0xbe8a1e6b	-0.26976332
4	0xbeaa18fc	-0.33222187
5	0x3f6c286a	0.92249167
6	0xbf825db7	-1.018485
7	0x3f57526c	0.8411014
