models/UnconditionalFlowMatchingModel.pth (torch, 64546 bytes, 12 tensors)

time_net.0.weight f4 [32, 1]
0	0xbf2e84da	-0.68171465
1	0xbe766d0d	-0.24065037
2	0x3f10adee	0.56515396
3	0x3f15b574	0.5848
4	0x3f08ac1b	0.5338761
5	0xbef605cb	-0.48051295
6	0x3f426830	0.7594023
7	0x3ef527f2	0.47882038
8	0xbebb9baa	-0.366422
9	0x3f1508f7	0.58216804
10	0x3f7d9b4a	0.9906508
11	0xbd0efa02	-0.034906395
12	0xbf20299e	-0.625635
13	0x3e708996	0.23489985
14	0x3f0e44fe	0.55574024
15	0x3f3eb695	0.7449735
16	0x3e3b06af	0.18264268
17	0x3e836dbc	0.25669658
18	0x3f3ab101	0.72926337
19	0x3f80c582	1.0060275
20	0xbed37808	-0.41302514
21	0x3dc9cd7c	0.09853646
22	0xbf414f87	-0.75511974
23	0x3f027b4c	0.50969386
24	0xbee0a652	-0.43876892
25	0xbf1a1382	-0.60186017
26	0xbe603f02	-0.21899036
27	0x3f039514	0.5139935
28	0x3f3abd2c	0.72944903
29	0x3e99d31d	0.3004388
30	0xbf3bf2f0	-0.7341757
31	0x3ede7873	0.4345127

time_net.0.bias f4 [32]
0	0x3ef03102	0.4691239
1	0x3e429472	0.1900194
2	0xbede608a	-0.43433028
3	0xbeb19663	-0.34685048
4	0xbed215f9	-0.4103239
5	0x3f09c633	0.53818053
6	0xbeb45a41	-0.35225108
7	0x3dc0fc26	0.094230935
8	0x3eff7346	0.49892634
9	0x3f10c8d3	0.56556433
10	0xbf492400	-0.78570557
11	0x3dc048ad	0.09388862
12	0xbe8e29e5	-0.27766338
13	0xbe3bab43	-0.1832705
14	0xbf253c7c	-0.64545417
15	0x3f0c15dc	0.54720855
16	0xbe130b30	-0.14359736
17	0xbe4c5606	-0.1995469
18	0xbe140a40	-0.14457035
19	0xbf19f441	-0.60138327
20	0x3e0d4c70	0.1379869
21	0xbe2c2e7b	-0.16814606
22	0x3ed28520	0.4111719
23	0xbbaeb2ec	-0.0053313877
24	0xbe8f0cd1	-0.27939466
25	0xbea0b20f	-0.31385848
26	0xbf1aecd3	-0.60517615
27	0xbec2c843	-0.38043413
28	0xbeca2cc0	-0.39487267
29	0xbe6f94d7	-0.23396622
30	0x3f0581c9	0.5215116
31	0xbea59908	-0.32343316

main_net.0.weight f4 [64, 34]
0	0xbeb4b99b	-0.35297856
1	0xbdf1d8c0	-0.1180892
2	0xbe06002b	-0.13086002
3	0xbb8d877a	-0.0043191286
4	0xbc01ca21	-0.007921726
5	0x3bdbb49b	0.0067048795
6	0xbdab8765	-0.08375434
7	0x3de94f25	0.11392049
8	0x3d2b5e01	0.041837696
9	0x3e20a9ac	0.15689725
10	0x3d65f39e	0.056140535
11	0xbd9104f1	-0.070810206
12	0x3e857653	0.26066837
13	0x3baf2d70	0.0053459927
14	0x3e00f29a	0.12592545
15	0x3d21b449	0.039478574
16	0xbda95f3c	-0.08270118
17	0x3c588eba	0.013217622
18	0x3e3d78dc	0.18503135
19	0xbc67a88c	-0.014139306
20	0x3d995eaa	0.07488759
21	0x3db7c6cd	0.08973465
22	0x3da02548	0.07819611
23	0x3dc5075c	0.09620544
24	0x3da8b914	0.08238426
25	0xbd5490e9	-0.05189601
26	0xbc22ae60	-0.00992927
27	0xbdf49490	-0.119423985
28	0xbdf383ec	-0.118903965
29	0x3e868786	0.2627527
30	0x3e62ff13	0.22167616
31	0x3df576f1	0.11985577
32	0xbde7fbf4	-0.11327353
33	0x3d951b33	0.072805785
34	0xbc8b8894	-0.017032899
35	0x3f28f165	0.6599334
36	0x3e0da518	0.1383251
37	0x3e0e0086	0.13867387
38	0xbdf0a37b	-0.117499314
39	0xbe1d307b	-0.15350525
40	0xbdf15f70	-0.117857814
41	0x3ddddb57	0.108328514
42	0xbde65a7d	-0.11247728
43	0x3d9d0650	0.0766722
44	0xbd2579f6	-0.040399514
45	0xbda7431a	-0.081670955
46	0x3d743efd	0.059630383
47	0xbcea741b	-0.028619817
48	0xbd584252	-0.052797623
49	0x3cb26115	0.021774808
50	0x3d5749d4	0.052560642
51	0xbdbd874f	-0.09254324
52	0x3d79d410	0.060993254
53	0xbbf61df0	-0.007510893
54	0x3e0de0ec	0.13855332
55	0x3d05b6b8	0.032644957
56	0xbdea7034	-0.11447182
57	0xbcb4cc43	-0.022070056
58	0x3e19a493	0.15004186
59	0xbe273d83	-0.16332059
60	0xba24fd76	-0.0006293872
61	0x3e1af48d	0.15132351
62	0xbdaf0bdc	-0.08547184
63	0xbe15135f	-0.1455817
64	0x3d9fa9b5	0.07796041
65	0x3db1eab8	0.08687347
66	0x3e338815	0.1753238
67	0xbcd292c7	-0.025704755
68	0xbda74e2c	-0.08169207
69	0x3d0f3791	0.0349651
70	0xbe088ffc	-0.13336176
71	0x3d763d06	0.06011679
72	0x3d709590	0.058736384
73	0x3e011600	0.12606049
74	0x3c049062	0.008091064
75	0xbc5649ab	-0.013079087
76	0x3df82a4e	0.12117444
77	0x3e0016ae	0.12508652
78	0xbe374463	-0.17897181
79	0x3ca91771	0.02064106
80	0xbd418219	-0.04724321
81	0xbe35b9a6	-0.177466
82	0x3cef13f7	0.029184325
83	0x3def4bb3	0.1168436
84	0xbd1a8f27	-0.037734177
85	0x3d966af1	0.07344616
86	0xbc8d4335	-0.01724396
87	0xbd99df6d	-0.07513318
88	0xbccee39c	-0.025255017
89	0xbde599de	-0.112109885
90	0xbdbc4060	-0.09191966
91	0x3d8d39a8	0.06895763
92	0x3dd9e0a8	0.10638553
93	0x3deec241	0.11658145
94	0x3e2b5cbe	0.16734597
95	0x3dab1d90	0.08355248
96	0x3df8a238	0.12140316
97	0xbda917a1	-0.0825646
98	0x3e1f64d9	0.15565814
99	0xbd948770	-0.07252395
100	0x3d981cb2	0.07427348
101	0xbd605a46	-0.05477359
102	0xbd9d6f51	-0.076872475
103	0x3f0f3c9e	0.5595187
104	0xbe8be9c7	-0.27326795
105	0x3cda125e	0.026620086
106	0x3e7a561c	0.2444691
107	0x3e3c6805	0.18399055
108	0x3e2a0d89	0.16606726
109	0xbd810ac9	-0.06300885
110	0x3e8bfcf8	0.27341437
111	0x3d710099	0.05883846
112	0xbe0ed787	-0.13949405
113	0x3d8a2ccf	0.06746828
114	0x3c438ab1	0.011934922
115	0xbdf32b82	-0.11873533
116	0xbe12d0b4	-0.14337426
117	0x3e19ceb3	0.15020256
118	0xbdb7a074	-0.08966151
119	0xbc76c511	-0.015061633
120	0x3dd0f440	0.10202837
121	0x3da60b1f	0.0810759
122	0x3e435bb1	0.19077946
123	0x3e7922d3	0.2432969
124	0xbe80de66	-0.25169677
125	0x3cb31590	0.021860868
126	0xbe69fe5a	-0.22850934
127	0xbdb0c8c4	-0.08632043
128	0x3c5d7523	0.013516697
129	0xbe06b87e	-0.13156316
130	0xbd9a33ff	-0.07529449
131	0x3d6bcb5b	0.05756698
132	0x3d5469e6	0.051858805
133	0x3d2befaf	0.041976627
134	0xbe5bf61b	-0.214806
135	0x3d8b8f44	0.06814435
136	0xbab1ae53	-0.0013555981
137	0x3c76affa	0.0150566045
138	0x3d01aed6	0.031660877
139	0x3cd3133c	0.025766008
140	0x3da8808d	0.08227644
141	0xbb7dea8b	-0.0038744535
142	0xbdc40bde	-0.09572576
143	0x3bf0420a	0.007332091
144	0x3d845795	0.064620174
145	0xbd55c2e3	-0.05218781
146	0xbe0f1f49	-0.13976778
147	0xbdbb7601	-0.09153367
148	0xbd3485ca	-0.044072904
149	0x3e24bc87	0.16087542
150	0xbce6104f	-0.028083948
151	0x3d829939	0.06376881
152	0x3c660085	0.01403821
153	0xbe03c26a	-0.12867132
154	0x3d107fa2	0.03527797
155	0x3d5b3865	0.05352058
156	0x3e1de60c	0.15419787
157	0xbde94ef3	-0.113920115
158	0xbdac9128	-0.08426124
159	0xbd7879b9	-0.06066296
160	0xbd0b00a7	-0.03393617
161	0x3cc6b7b2	0.024257515
162	0xbd8dd90e	-0.069261655
163	0x3d2a0153	0.04150517
164	0xbded458b	-0.1158553
165	0x3de1c649	0.11024148
166	0xbd3f23b8	-0.046664923
167	0xbd9bd4bb	-0.076089345
168	0xbdde4ad0	-0.10854113
169	0x3d1578e7	0.036492255
170	0x3b80d4c1	0.0039316122
171	0xbf00e5c9	-0.50350624
172	0xbeb98b1a	-0.3623894
173	0xbd583cf5	-0.05279251
174	0x3ea095ea	0.31364375
175	0x3d34a1e5	0.044099707
176	0x3e81486b	0.25250563
177	0x3c423f16	0.011855861
178	0x3e31bcb8	0.17357147
179	0x3e1a09c0	0.15042782
180	0x3d5a5c93	0.053310942
181	0x3d6329d5	0.055459816
182	0x3e9a3b10	0.30123186
183	0xbe0dbdcd	-0.13841935
184	0xbe0f3b16	-0.13987383
185	0x3e33ed62	0.17571023
186	0x3e3344ff	0.17506789
187	0xbc7370b4	-0.0148584135
188	0x3e8846f4	0.26616633
189	0x3dd4dc69	0.103936024
190	0x3e0e2d9d	0.13884588
191	0x3e15737f	0.1459484
192	0xbe4f0eb1	-0.20220448
193	0x3d18a808	0.037269622
194	0x3b85ff2e	0.0040892577
195	0xbddacfab	-0.10684141
196	0xbe237b9b	-0.1596512
197	0x3da26979	0.079302736
198	0xbe2d4e5e	-0.16924426
199	0x3ea45220	0.32093906
200	0x3e114967	0.14188157
201	0x3e559b9d	0.20860143
202	0xbe7a5d66	-0.24449691
203	0x3eb1a8f5	0.34699216
204	0xbabec4ad	-0.0014554464
205	0x3ee9acee	0.45639747
206	0xbd14aa12	-0.036295004
207	0xbe002ebd	-0.12517829
208	0x3e126932	0.14297941
209	0x3df30e3a	0.11867948
210	0x3bfbddc0	0.007686347
211	0xbdc64136	-0.09680407
212	0xbe138db7	-0.14409529
213	0xbde5c5d1	-0.11219371
214	0xbda3e83f	-0.08003282
215	0x3c832782	0.01601005
216	0xbae144ae	-0.0017186606
217	0xbdc2f537	-0.09519427
218	0x3e2dcbff	0.1697235
219	0x3e11b915	0.1423076
220	0x3e5b61c9	0.21424021
221	0xbe08f781	-0.13375665
222	0xbd453d4f	-0.04815417
223	0x3e084a23	0.13309531
224	0x3ddd4b28	0.108053505
225	0x3c8dcab9	0.01730858
226	0xbd97d2ae	-0.07413231
227	0xbd02cb46	-0.031932138
228	0xbe03d98d	-0.12875958
229	0xbdbfd373	-0.093665026
230	0x3e080404	0.13282782
231	0x3e27fee2	0.16405824
232	0xbdc42a31	-0.0957836
233	0x3e7e2332	0.24818113
234	0xbd92b56d	-0.071635105
235	0x3e3d4f0a	0.18487182
236	0x3d3e776c	0.04650061
237	0x3e4ce94d	0.20010872
238	0xbefea074	-0.4973179
239	0xbd110138	-0.035401553
240	0x3d817665	0.0632141
241	0x3e48edfb	0.19622032
242	0x3c8c91fe	0.017159458
243	0xbe8facbf	-0.28061482
244	0x3dc63579	0.09678168
245	0x3e090f33	0.13384704
246	0xbe3f7117	-0.18695484
247	0xbc0a89bb	-0.008455689
248	0xbd7664d9	-0.06015477
249	0xbddcd85b	-0.10783454
250	0xbe64cd55	-0.22343953
251	0xbd14d614	-0.036336973
252	0x3a370d67	0.0006982893
253	0x3d60a912	0.054848738
254	0xbd383cbc	-0.044979796
255	0x3dc288b1	0.09498728

main_net.0.bias f4 [64]
0	0xbe12ffc5	-0.14355381
1	0x3a708c31	0.00091761636
2	0xbe2bcc48	-0.16777146
3	0x3dda842c	0.10669741
4	0x3c2d8157	0.010589919
5	0xbcca1729	-0.024669247
6	0x3db0443e	0.08606766
7	0xbe0f4bca	-0.13993755
8	0x3d7e34c6	0.062062047
9	0xbd27896e	-0.040902548
10	0x3db1a7b0	0.08674562
11	0xbd1cac74	-0.0382504
12	0xbd5ae202	-0.053438194
13	0xbdca99c2	-0.09892608
14	0x3d432643	0.04764391
15	0xbc7f7ebd	-0.015594182
16	0xbe30669e	-0.17226645
17	0xbc8720bb	-0.0164951
18	0x3d084bc5	0.033275384
19	0xbe2dbe46	-0.16967115
20	0x3d9717bb	0.07377573
21	0x3c0c5cf6	0.0085670855
22	0xbdaff34c	-0.08591327
23	0x3d2eb644	0.04265429
24	0xbd56d846	-0.05245235
25	0xbddb5c68	-0.107109845
26	0xbc5c9b96	-0.013464829
27	0x3d390bbe	0.045177214
28	0xbd9964e5	-0.07489947
29	0x3d093984	0.033502117
30	0x3e1c1852	0.15243652
31	0x3d00f652	0.03148491
32	0x3df7bb6a	0.12096293
33	0xbe4b7cdf	-0.19871853
34	0x3d690f83	0.05689956
35	0xbbc76f65	-0.0060862773
36	0x3c991a38	0.01868926
37	0x3de267c8	0.11054951
38	0xbde31917	-0.1108877
39	0x3d367d34	0.044552997
40	0xbd6d611f	-0.05795395
41	0x3e0794b0	0.13240314
42	0x3d6af1b4	0.057359412
43	0x3c8df793	0.017329967
44	0xbe6ea395	-0.23304589
45	0xbe096a13	-0.1341937
46	0xbe11fc63	-0.14256434
47	0xbdc6fb35	-0.09715883
48	0xbd69f9b4	-0.0571229
49	0xbe1dabee	-0.15397617
50	0xbdb98ed3	-0.09060445
51	0xbdad6d96	-0.084681675
52	0xbc216cc5	-0.009852593
53	0x3cfad9b2	0.030621383
54	0xbe1044a3	-0.14088683
55	0xbe29fa45	-0.16599376
56	0x3d75e98d	0.060037185
57	0xbe2fa53f	-0.1715288
58	0x3e075add	0.13218255
59	0xbe40da0c	-0.18833178
60	0x3d2af551	0.04173786
61	0xbdf7e7ee	-0.12104784
62	0xbd1820a4	-0.037140504
63	0xbe40de41	-0.18834783

main_net.2.weight f4 [64, 64]
0	0x3e520830	0.20510936
1	0xbe803a43	-0.2504445
2	0x3c28992a	0.010290423
3	0xbdcdfea1	-0.10058332
4	0x3c196f30	0.009364888
5	0x3df2aefc	0.11849782
6	0x3d7f91b1	0.0623948
7	0x3d4babde	0.049724452
8	0x3d0faa90	0.03507477
9	0xbd1bddcc	-0.03805332
10	0xbe70c05e	-0.23510882
11	0x3c7e5661	0.015523524
12	0xbd5b4b5f	-0.053538676
13	0x3daea234	0.085270315
14	0xbc3e8d16	-0.011630317
15	0x3de892f8	0.11356157
16	0xbd330e89	-0.043715034
17	0xbdc18616	-0.09449403
18	0xbedd8490	-0.432652
19	0xbd71e158	-0.059052795
20	0xbcb7de39	-0.022444831
21	0x3caad262	0.020852271
22	0x3dbd6632	0.09248008
23	0xbdb3a5de	-0.08771871
24	0x3aa5bb8d	0.0012644395
25	0x3c012490	0.007882252
26	0xbe723c84	-0.23655897
27	0x3e16bd35	0.14720614
28	0xbc62e879	-0.013849371
29	0xbe9cecdd	-0.30649462
30	0x3e23d9f1	0.16001107
31	0x3da91425	0.082557954
32	0x3d5247b6	0.05133792
33	0xbdec794d	-0.11546574
34	0xbe81f968	-0.25385594
35	0xbc199e06	-0.009376055
36	0x3ce7b2ff	0.028283594
37	0x3d383ef6	0.04498192
38	0x3cf9794a	0.030453343
39	0x3db185c4	0.08668092
40	0xbe1ba49b	-0.15199511
41	0x3c1b9ef9	0.009498351
42	0xbdf1d0b9	-0.11807389
43	0xbee85799	-0.45379332
44	0x3da2cb68	0.07948953
45	0xbda0e4ed	-0.07856164
46	0x3cb0d818	0.021587417
47	0xbd7d90be	-0.061905615
48	0xbde15f04	-0.11004451
49	0x3e00a720	0.12563753
50	0xbe3e7063	-0.1859756
51	0x3daec1ae	0.08533035
52	0x3db5ecb5	0.08883039
53	0xbdbe6458	-0.09296483
54	0xbd882c1f	-0.066490404
55	0x3e6babba	0.23014727
56	0x3e02cc21	0.12773181
57	0xbe4a204f	-0.19738887
58	0x3df9d875	0.12199489
59	0xbf442b2e	-0.76628387
60	0xbe0242d6	-0.12720808
61	0x3db53ded	0.08849702
62	0x3df8eeed	0.121549465
63	0xbd5e6b77	-0.054301705
64	0xbe1eb665	-0.15499265
65	0xbd90a1e1	-0.07062126
66	0xbe320b21	-0.17387058
67	0x3e34ba21	0.17649128
68	0x3c16e0f8	0.00920891
69	0x3e1f818d	0.15576763
70	0xbbfd8154	-0.0077363644
71	0xbf10072b	-0.5626094
72	0x3c92cbfc	0.017919533
73	0x3dad3a73	0.08458414
74	0x3e2f982e	0.17147896
75	0xbd04f08f	-0.032455977
76	0xbdf8f938	-0.1215691
77	0xbd85fedc	-0.06542751
78	0x3bc4eeff	0.006009936
79	0xbed7154f	-0.42008445
80	0xbd77acec	-0.060467646
81	0xbea07862	-0.31341845
82	0x3c2f0081	0.0106812725
83	0xbca93587	-0.020655407
84	0x3d7793f6	0.06044384
85	0xbddb59d9	-0.107104965
86	0x3c835188	0.016030088
87	0x3d7596d1	0.059958283
88	0xbdb7a81d	-0.08967612
89	0xbdf100d2	-0.117677346
90	0xbdbf83f6	-0.093513414
91	0x3e29431e	0.1652951
92	0xbd4507ed	-0.04810326
93	0xbc4feb64	-0.012690399
94	0xbf2eb2a6	-0.68241346
95	0xbe619ad9	-0.22031726
96	0x3cd5a24b	0.026078364
97	0xbe119bea	-0.14219633
98	0xbe5314ce	-0.20613405
99	0xbe140ef0	-0.14458823
100	0x3d68c58c	0.05682902
101	0xbda96487	-0.08271127
102	0xbdd07cda	-0.101800635
103	0x3e2a606f	0.16638349
104	0x3cf4d97a	0.029888857
105	0x3d941a6a	0.072316006
106	0x3e683958	0.22678125
107	0x3eacb12a	0.33728915
108	0xbea492df	-0.32143304
109	0xbdd0f7c2	-0.10203506
110	0xbd9112b0	-0.070836425
111	0xbe685121	-0.22687198
112	0x3db402d1	0.087896
113	0xbe3b4bb8	-0.18290603
114	0x3da52d79	0.08065314
115	0xbd542c1d	-0.051799882
116	0x3c09b4b9	0.008404904
117	0x3e5244c8	0.2053405
118	0xbe0f68dc	-0.14004844
119	0xbf637d79	-0.8886333
120	0xbefc7d5e	-0.49314398
121	0xbde860f0	-0.11346614
122	0x3de73827	0.11290007
123	0xbe08a6c6	-0.13344869
124	0xbd0f8e24	-0.035047665
125	0xbf102808	-0.5631108
126	0x3d878740	0.06617594
127	0xbc9f9124	-0.019478388
128	0xbcf3505d	-0.029701406
129	0x3e6e0b55	0.2324651
130	0x3d88268a	0.06647976
131	0xbdd3a449	-0.10334069
132	0x3d77eaf3	0.0605268
133	0x3cef878a	0.029239435
134	0x3e89e2b7	0.26930782
135	0x3d97bf7e	0.07409571
136	0xbd8a433f	-0.067511074
137	0x3d89231c	0.0669615
138	0x3beda3ff	0.007252216
139	0x3e4d12ec	0.2002675
140	0x3e6090b5	0.21930201
141	0xbb35d91a	-0.002774781
142	0x3e03d1a3	0.12872939
143	0xbd278e91	-0.040907446
144	0x3d83e336	0.064398214
145	0x3ec91de7	0.39280626
146	0x3e316a54	0.17325717
147	0x3e299909	0.16562285
148	0x3e520b82	0.20512202
149	0xbd2defce	-0.042465024
150	0x3cd790e9	0.026314216
151	0x3e4756c6	0.19466695
152	0x3e0ffdc9	0.14061655
153	0x3c02c64e	0.00798185
154	0xbcfc6e7d	-0.030814404
155	0x3d0f3ff4	0.0349731
156	0xbdc43ccd	-0.09581909
157	0x3d96bba7	0.073600106
158	0x3d93a6cf	0.072095506
159	0xbd8666d8	-0.06562585
160	0x3caa2c2c	0.020773016
161	0x3e028141	0.12744619
162	0x3dfb3d9a	0.12267609
163	0x3e489109	0.19586577
164	0x3e303fde	0.17211863
165	0xbdf6c518	-0.120493114
166	0xbd690a7c	-0.056894764
167	0xbc83961c	-0.016062789
168	0x3d916cc9	0.07100827
169	0xbdabe5cb	-0.08393439
170	0x3e46429e	0.1936135
171	0x3dcbb6a3	0.099469446
172	0x3e909557	0.28238937
173	0xbdac3b80	-0.08409786
174	0x3e366469	0.17811741
175	0xbdeed92f	-0.11662518
176	0x3e24e3ca	0.1610252
177	0x3e3212b0	0.17389941
178	0x3e02a681	0.12758829
179	0xbe912f3c	-0.2835635
180	0x3ddfb0f6	0.109224245
181	0x3ca2b314	0.019860782
182	0x3d7e942a	0.06215302
183	0xbc90e8ac	-0.017689072
184	0x3e6e1a1a	0.23252144
185	0x3e589307	0.21149836
186	0x3d13a9ea	0.036050715
187	0x3e923a36	0.28560036
188	0xbe28ddcd	-0.1649086
189	0x3d9178a7	0.07103091
190	0x3e4d6b1d	0.20060392
191	0x3e8e2315	0.2776114
192	0x3d22a404	0.0397072
193	0x3d97bbac	0.074088424
194	0x3cb05808	0.021526352
195	0xbdbdee25	-0.09273938
196	0x3d1eac36	0.038738452
197	0x3e23dd8c	0.16002482
198	0xbdae07d8	-0.0849759
199	0x3dccbf91	0.09997476
200	0xbe1a8cbe	-0.15092751
201	0x3bcfb92e	0.006339214
202	0xbd5c6709	-0.0538092
203	0x3b70f1dd	0.0036765255
204	0x3d8c4e7c	0.06850907
205	0x3cadc13a	0.021210302
206	0x3e042a01	0.12906648
207	0x3df9d207	0.12198263
208	0x3d87dd6f	0.06634032
209	0x3ea948bd	0.33063307
210	0x3c8c070b	0.017093202
211	0xbe08099d	-0.13284917
212	0x3debeaf0	0.1151942
213	0xbdd9cf93	-0.10635295
214	0xbdb97817	-0.090561084
215	0x3d78df4c	0.060759827
216	0x3dc2246b	0.094796024
217	0xbe075022	-0.13214162
218	0xbc9ccf1e	-0.01914173
219	0xbd14112c	-0.03614919
220	0x3c93ee7f	0.01805806
221	0xbbfac032	-0.007652306
222	0x3e30ed02	0.17277911
223	0x3d3aa08c	0.045563266
224	0xbc7150bc	-0.014728721
225	0xbda2bd73	-0.07946291
226	0xbe0038ba	-0.1252164
227	0x3dd7df03	0.10540583
228	0x3e02e374	0.12782079
229	0xbceac65c	-0.028659038
230	0x3e9cc001	0.30615237
231	0x3d1afc5d	0.03783833
232	0x3d8b7035	0.06808511
233	0xbe74d351	-0.23908736
234	0x3e10589a	0.14096299
235	0x3ca1a624	0.019732542
236	0x3ca5fda0	0.02026254
237	0x3cebe0b3	0.028793668
238	0x3e2477ba	0.16061297
239	0xbca34ddc	-0.019934587
240	0xbda0e71a	-0.07856579
241	0x3ca523cd	0.020158673
242	0x3d70da8c	0.058802173
243	0xbc3b2df4	-0.01142453
244	0x3d8e59a9	0.06950695
245	0x3b1ba8ea	0.0023751804
246	0x3d2decc8	0.04246214
247	0x3c095de5	0.008384203
248	0x3d97e2db	0.07416316
249	0xbcefe1cf	-0.029282479
250	0xbd9def1b	-0.077116214
251	0xbc70e8df	-0.014703958
252	0xbe96e477	-0.2947118
253	0xbdb881b7	-0.09009116
254	0x3ce88faf	0.028388826
255	0xbe5eb8ec	-0.2175023

main_net.2.bias f4 [64]
0	0x3ceac333	0.028657531
1	0x3db1b4ea	0.08677085
2	0xbe9f7dea	-0.31150752
3	0xbe20bf2a	-0.15697923
4	0x3ddd842e	0.10816227
5	0xbda37d02	-0.07982828
6	0xbdd0a9ca	-0.10188635
7	0xbcec1590	-0.028818876
8	0xbe4ecf59	-0.20196284
9	0x3de6d2c4	0.11270669
10	0xbc7c4fb8	-0.015399866
11	0xbd896405	-0.0670853
12	0xbe16146d	-0.1465623
13	0xbc8bd7ad	-0.017070616
14	0xbd97dafb	-0.07414814
15	0x3d9133a9	0.070899315
16	0xbe503d2e	-0.20335838
17	0xbe1e5e3f	-0.1546564
18	0xbda313a8	-0.079627335
19	0xbd80c8c2	-0.062882915
20	0xbde10114	-0.10986534
21	0x3e170af8	0.14750278
22	0xbe4a9a5e	-0.19785449
23	0xbdfbd226	-0.12295942
24	0x3e098e8e	0.13433287
25	0xbcb3d863	-0.021953767
26	0xbe13e5f3	-0.14443187
27	0xbc27fd71	-0.010253296
28	0x3d63a5c4	0.05557801
29	0x3c20b076	0.009807697
30	0x3de839fc	0.11339185
31	0xbaa7e73c	-0.0012810002
32	0xbda0184e	-0.07817136
33	0x3d812183	0.0630522
34	0x3ddd4a3f	0.10805177
35	0xbd8a0293	-0.06738772
36	0x3cf3353c	0.02968847
37	0xbc59954d	-0.013280225
38	0x3d62d179	0.05537555
39	0xbe3e1a40	-0.18564701
40	0xbe86d998	-0.26337886
41	0x3cd87e26	0.02642734
42	0xbd4f66ae	-0.050635032
43	0x3c2f782d	0.0107098045
44	0xbd72f3c4	-0.059314504
45	0xbe2223f8	-0.15834033
46	0xbdc535fb	-0.096294366
47	0x3bf29829	0.007403393
48	0xbdd5a5e7	-0.10432034
49	0xbcf505f6	-0.029910069
50	0x3d33d8c8	0.04390791
51	0xbded2a5d	-0.11580346
52	0xbc822ee8	-0.015891507
53	0x3dc5af9c	0.096526355
54	0xbdafa41c	-0.08576223
55	0xbddea3fd	-0.10871122
56	0x3d5b3068	0.05351296
57	0xbe625d58	-0.2210592
58	0xbda9cd14	-0.08291069
59	0x3bc9da6c	0.006160071
60	0xbe87df2b	-0.2653745
61	0x3e13fa0e	0.14450857
62	0xbe6987f5	-0.2280577
63	0xbe2eca95	-0.17069466

main_net.4.weight f4 [64, 64]
0	0xbd621e4f	-0.055204686
1	0xbcce278e	-0.025165346
2	0xbf17e425	-0.59332496
3	0x3d7da4fd	0.061924923
4	0xbe83c9bb	-0.25739846
5	0xbd1e2479	-0.038609
6	0xbf51b46c	-0.81915927
7	0xbe55edf4	-0.20891553
8	0xbe94da11	-0.2907262
9	0xbe82812b	-0.25489172
10	0xbe4defc7	-0.20110999
11	0x3df3b7d7	0.11900299
12	0xbdac2321	-0.08405138
13	0x3e6e1fdf	0.23254345
14	0xbd31b054	-0.04338105
15	0x3e182c13	0.14860563
16	0xbe21b5fc	-0.15792078
17	0xbf002463	-0.5005552
18	0x3d6ff5e3	0.058584105
19	0x3e12e678	0.1434573
20	0x3dc74f9b	0.097319804
21	0x3e0a95c6	0.13533697
22	0x3e83e2f6	0.25759095
23	0xbda684e5	-0.08130816
24	0x3e808d29	0.25107697
25	0x3e240b0a	0.16019836
26	0x3dadc53e	0.084848866
27	0x3de24ab3	0.11049404
28	0xbbc2573a	-0.0059308084
29	0xbdc80700	-0.0976696
30	0x3b602fe5	0.0034208235
31	0xbdd9d7e1	-0.10636879
32	0x3d119c03	0.035549175
33	0x3d907f8d	0.070555784
34	0xbe668660	-0.22512197
35	0x3d8da375	0.069159426
36	0xbeb086a4	-0.34477723
37	0xbe60237d	-0.21888538
38	0xbe8ee010	-0.2790532
39	0xbf20b17e	-0.6277083
40	0xbdc28296	-0.094975635
41	0xbdbf4097	-0.093384914
42	0xbda55622	-0.08073069
43	0xbaf398df	-0.0018584988
44	0x3bb35eb9	0.0054739383
45	0xbe092018	-0.13391149
46	0x3de35621	0.11100412
47	0xbe371f69	-0.17883076
48	0x3d539f74	0.05166574
49	0xbe7b6a46	-0.24552259
50	0xbe6e1be4	-0.23252827
51	0x3dd7b693	0.1053287
52	0xbedebd55	-0.43503824
53	0x3e8432ca	0.2582
54	0xbed26a75	-0.41096845
55	0xbe19990e	-0.14999792
56	0x3db632bf	0.08896398
57	0xbef93f19	-0.48680952
58	0xbd9c5987	-0.076342635
59	0xbe542bcd	-0.20719834
60	0x3d646b47	0.05576637
61	0xbe02a1d9	-0.12757052
62	0x3d5b89eb	0.053598326
63	0xbddf27ee	-0.10896288
64	0xbe9e56be	-0.30925554
65	0xbcfb6861	-0.03068942
66	0x3dfa73ea	0.1222914
67	0x3dfc174a	0.123091295
68	0xbe142040	-0.14465427
69	0x3e480cea	0.19536176
70	0x3dbd1fea	0.09234603
71	0x3da0f170	0.078585505
72	0x3e672ac5	0.22574909
73	0xbe277390	-0.16352677
74	0x3e8512b3	0.2599083
75	0xbd213efe	-0.039366715
76	0xbddb09d8	-0.10695237
77	0xbe5fdbe8	-0.21861231
78	0x3e2bea26	0.1678854
79	0xbd90b8fe	-0.070665345
80	0xbe1f84b8	-0.15577972
81	0x3ded11ac	0.11575636
82	0x3d66908c	0.056290194
83	0xbe0ba296	-0.1363624
84	0x3d309c56	0.043117844
85	0xbd9b1b78	-0.075735986
86	0x3cc10216	0.023560565
87	0x3d592f29	0.05302349
88	0xbe57d904	-0.21078879
89	0x3bc11f0e	0.0058935946
90	0x3dd7b55f	0.10532641
91	0x3dcfbd22	0.10143496
92	0xbe56efdc	-0.20989937
93	0x3e1a8200	0.15088654
94	0xbdd02aa8	-0.10164386
95	0x3bf123b2	0.0073589915
96	0x3a17bb8a	0.00057881384
97	0x3d84f21f	0.064914934
98	0xbde214cb	-0.11039122
99	0xba99fce2	-0.0011748339
100	0x3e0e26a6	0.1388193
101	0xbda443c0	-0.08020735
102	0xbd63e8a3	-0.05564178
103	0x3e841cef	0.25803325
104	0x3e8e6299	0.278096
105	0xbe8e7674	-0.27824748
106	0x3e0eb4a1	0.13936092
107	0xbcae0565	-0.021242807
108	0xbd6b839f	-0.05749857
109	0xbe1a58a5	-0.15072878
110	0x3e860b9d	0.26180735
111	0xbe4a5913	-0.19760542
112	0x3d613c10	0.05498892
113	0xbe0bf1c5	-0.13666447
114	0x3d9f2c31	0.07772101
115	0xba8a601b	-0.0010557206
116	0xbb97d40a	-0.0046334313
117	0xbe19f3f8	-0.15034473
118	0xbe04fcd2	-0.12987068
119	0xbe024f56	-0.12725577
120	0x3e6e8fd0	0.23297048
121	0xbeaafa7c	-0.3339423
122	0x3e0ccd4c	0.1375019
123	0xbe3b6948	-0.1830188
124	0xbe23d8f1	-0.16000725
125	0xbd5b2aaa	-0.053507484
126	0xbd677fad	-0.056518245
127	0xbecdbf12	-0.40184838
128	0xbdf688c3	-0.12037804
129	0x3ea908dc	0.33014572
130	0x3cb4bc2f	0.02206239
131	0x3e386825	0.18008478
132	0xbeb244a0	-0.34817982
133	0x3e33d96a	0.17563406
134	0x3e12de39	0.14342584
135	0xbcccf255	-0.025017897
136	0x3d8c32b8	0.06845611
137	0xbe0d2a6f	-0.13785718
138	0x3e2c648b	0.16835229
139	0xbf14b891	-0.58094126
140	0xbe478694	-0.19484931
141	0xbf6439a8	-0.89150476
142	0xbf3fea87	-0.74967235
143	0x3bb53802	0.0055303583
144	0x3d3bbe0e	0.045835547
145	0xbefcc417	-0.49368355
146	0x3c784118	0.015152238
147	0xbec1e351	-0.3786874
148	0x3ca3daf9	0.020001875
149	0x3dce904c	0.10086116
150	0x3b835f9d	0.0040092007
151	0x3df53dad	0.11974654
152	0xbe54886d	-0.20755167
153	0xbe779dc1	-0.24181272
154	0x3d4cac2e	0.04996889
155	0xbeddb7bd	-0.43304244
156	0xbdb9c005	-0.09069828
157	0xbe2c8405	-0.16847236
158	0xbe5bd9cf	-0.21469806
159	0xbdc53b47	-0.09630447
160	0x3c80a094	0.01570157
161	0xbdfd3091	-0.12362779
162	0x3d7a4c1b	0.061107736
163	0xbe10cd21	-0.1414075
164	0x3dec444e	0.115364656
165	0xbd4c25d4	-0.049840763
166	0xbdb19577	-0.08671086
167	0xbe9b2494	-0.30301344
168	0xbf119260	-0.56863976
169	0x3e7cb777	0.24679361
170	0xbea92b54	-0.3304087
171	0xbee8f1db	-0.4549702
172	0x3b8e13b1	0.0043358435
173	0xbe0c433e	-0.13697526
174	0xbf0adce4	-0.542433
175	0xbe69edd9	-0.22844638
176	0xbd32990e	-0.043602996
177	0x3c8344bd	0.016023988
178	0x3cfff393	0.031244075
179	0xbd529d56	-0.05141958
180	0xbea4ad1a	-0.32163316
181	0xbf0417b0	-0.51598644
182	0x3e489166	0.19586715
183	0x3df0060f	0.117199056
184	0xbd779c6a	-0.060451902
185	0xbe5d5562	-0.21614602
186	0xbe85d5c1	-0.26139644
187	0x3db22346	0.08698134
188	0xbdf53193	-0.11972346
189	0x3c7fe2f4	0.015618075
190	0xbe1bc543	-0.15211968
191	0x3e7948bd	0.24344154
192	0xbe2760d2	-0.16345528
193	0xbbd034e0	-0.0063539594
194	0x3cb1618a	0.021652956
195	0xbe01a5e5	-0.1266094
196	0xbda820ae	-0.08209358
197	0x3e616fa5	0.22015245
198	0xbdd4ae47	-0.10384803
199	0xbdc27171	-0.094942935
200	0x3e565a06	0.20932779
201	0x3c821d4d	0.015883112
202	0xbda6547a	-0.081215814
203	0x3e004780	0.12527275
204	0xbe5e52ab	-0.21711223
205	0x3d57b538	0.052663058
206	0x3dec0808	0.11524969
207	0x3e506de1	0.20354415
208	0xbe8d4c3e	-0.2759723
209	0xbe5e1dfc	-0.21691126
210	0x3d0668ba	0.03281472
211	0x3e236510	0.15956521
212	0xbdffe27c	-0.1249437
213	0xbdb442c9	-0.08801801
214	0x3e0d4ee8	0.13799632
215	0xbc27d440	-0.010243475
216	0x3d2a2009	0.041534457
217	0xbd8f97b2	-0.070113555
218	0x3d95cebc	0.07314822
219	0x3d9c7f10	0.07641423
220	0xbc192ac9	-0.00934858
221	0xbe125e1d	-0.14293714
222	0xbc3e45bf	-0.011613308
223	0x3d1fa647	0.038976934
224	0x3e042176	0.1290339
225	0x3d58ef99	0.052962873
226	0xbe06229f	-0.13099144
227	0x3d22e165	0.039765734
228	0xbe1b703b	-0.15179531
229	0x3d25ce0f	0.040479716
230	0xbe46f0b2	-0.19427755
231	0xbd92a3e5	-0.07160167
232	0x3be0a455	0.0068555274
233	0xbe18eade	-0.14933345
234	0x3d597ad5	0.053095657
235	0x3e844821	0.2583628
236	0x3c6729a0	0.014109045
237	0xbd1392e6	-0.036028765
238	0xbd0109c6	-0.03150346
239	0xbdfe5e5a	-0.1242034
240	0xbd50e8d0	-0.051003277
241	0xbecd3068	-0.40075994
242	0xbd228a1b	-0.03968249
243	0x3e190fdb	0.14947455
244	0xbea58c82	-0.3233376
245	0x3c8334c4	0.016016372
246	0x3e6d1790	0.2315352
247	0x3e3b15c4	0.18270022
248	0x3cfc228c	0.030778192
249	0x3d0dcd02	0.03461934
250	0xbdb555aa	-0.0885423
251	0xbd8e9304	-0.06961635
252	0xbd9575ed	-0.07297883
253	0xbe5d75b1	-0.21626927
254	0xbd55d38b	-0.052203696
255	0x3c5a273e	0.01331502

main_net.4.bias f4 [64]
0	0xbc7308ae	-0.014833612
1	0xbe894ff6	-0.26818818
2	0xbddd4542	-0.108042255
3	0xbd343195	-0.043992598
4	0xbd4e7b48	-0.05041054
5	0xbe1bb4e0	-0.15205717
6	0xbd24bc6a	-0.04021875
7	0x3c8348d9	0.016025947
8	0xbe2e9fe0	-0.17053175
9	0xbcc5764c	-0.02410426
10	0x3e0d9a1d	0.13828321
11	0xbd93b94e	-0.072130784
12	0xbe6c4b4c	-0.23075598
13	0x3dacb624	0.08433178
14	0x3c70aa37	0.01468902
15	0xbc7faf28	-0.015605725
16	0xbe3bf506	-0.18355188
17	0xbabb5b44	-0.0014294167
18	0x3cef5163	0.029213613
19	0xbde7f57e	-0.11326121
20	0xbd9c3ed3	-0.0762917
21	0xbd60abf1	-0.054851476
22	0xb8e5ac78	-0.00010951696
23	0xbccf1021	-0.025276246
24	0xbdeb2c96	-0.114831135
25	0x3c7a1abe	0.015265165
26	0x3dfc2626	0.12311964
27	0x3d5245dd	0.051336158
28	0xbe3d6d68	-0.18498766
29	0xbe17cdf3	-0.14824657
30	0xbe214118	-0.15747488
31	0x3c8b8c06	0.017034542
32	0xba3e06ab	-0.00072489184
33	0xbd51d0a8	-0.05122438
34	0x3c828d34	0.015936472
35	0x3d5a2cae	0.053265266
36	0x3d855e0d	0.065120794
37	0xbc461ccd	-0.012091828
38	0xbc905bb2	-0.017621849
39	0xbe44a1a7	-0.1920229
40	0xbe7b48bf	-0.24539469
41	0xbb0efb90	-0.0021817423
42	0xbebdfb15	-0.37105623
43	0xbe396e25	-0.18108423
44	0x3cad6608	0.021166816
45	0x3dc5434f	0.09631979
46	0xbdf2cb62	-0.118551984
47	0x3c23cd29	0.009997644
48	0x3de07f99	0.10961837
49	0xbcb275b3	-0.021784639
50	0xbd33e2ca	-0.043917455
51	0x3e4cd08e	0.20001432
52	0xbd88bc20	-0.06676507
53	0x3c68090c	0.014162313
54	0xbb97c206	-0.0046312837
55	0xbe3d666e	-0.18496105
56	0xbdd1042e	-0.10205875
57	0xbe428e5a	-0.18999615
58	0xbc73f272	-0.014889346
59	0xbd9d4061	-0.07678295
60	0xbde35d4d	-0.1110178
61	0xbda6fe6a	-0.081539944
62	0x3e3439ce	0.17600176
63	0x3e3d5412	0.18489102

main_net.6.weight f4 [64, 64]
0	0xbd41a10d	-0.04727273
1	0x3dbbfc6c	0.09179005
2	0xbeb93137	-0.3617036
3	0x3daf3b51	0.085562356
4	0xbe056324	-0.130261
5	0x3c7b9d78	0.015357368
6	0xbd23cf95	-0.039992888
7	0xbc736275	-0.014855017
8	0x3de16d6f	0.11007201
9	0xbc2764fd	-0.010216949
10	0xbd70d41a	-0.058796026
11	0x3d4cc980	0.049996853
12	0xbe3b2610	-0.18276238
13	0x3de37689	0.11106593
14	0x3dcd880f	0.10035717
15	0xbbffd9d4	-0.0078079496
16	0xbeb8c720	-0.3608942
17	0xbd9501b8	-0.072757185
18	0xbcd1d874	-0.025615908
19	0xbcc0a20b	-0.023514768
20	0xbd8e9e55	-0.06963793
21	0x3de71a60	0.112843275
22	0x3d94dc7e	0.07268618
23	0x3bf8b41d	0.0075898306
24	0xbe14cb0a	-0.14530578
25	0xbdf7a0e1	-0.12091232
26	0x3e9e8455	0.30960336
27	0xbd8094c3	-0.06278374
28	0x3d65f4ee	0.056141786
29	0xbdabeb1d	-0.08394454
30	0xbdd28141	-0.102785595
31	0xbe220467	-0.15821992
32	0x3dec2d5a	0.115320876
33	0xbdc50ac6	-0.096211955
34	0xbd73a0a4	-0.05947937
35	0xbdeb44d0	-0.11487734
36	0x3dc99fab	0.098449074
37	0xbce3bc45	-0.027799735
38	0x3e04a078	0.12951839
39	0x3dc5dafd	0.09660909
40	0x3d80d501	0.06290627
41	0x3d7bb956	0.061456047
42	0x3f163dbd	0.58687955
43	0x3e0a018a	0.1347715
44	0xbdcb49c2	-0.099261776
45	0xbd8ace7b	-0.06777664
46	0xbe02ef3d	-0.12786575
47	0xbdd67dc2	-0.10473205
48	0xbce6e1be	-0.028183814
49	0xbe514af2	-0.20438746
50	0xbe24a2d5	-0.1607774
51	0xbccb5549	-0.02482094
52	0xbc6f8c61	-0.014620871
53	0xbcfb07bb	-0.030643335
54	0x3debae63	0.11507871
55	0xbe89e952	-0.26935822
56	0x3d92301e	0.07138084
57	0x3eaabde9	0.33348015
58	0xbe11eef4	-0.1425131
59	0x3e3629df	0.1778941
60	0xbc69402a	-0.014236489
61	0x3b375de7	0.0027979554
62	0x3e2816a3	0.16414885
63	0x3d4a6778	0.04941508
64	0x3e149d1f	0.14513062
65	0xbeab1442	-0.33413893
66	0x3e459071	0.19293381
67	0x3d50d740	0.05098653
68	0xbc9e42f3	-0.019319033
69	0xbd82865b	-0.063732825
70	0x3e36c55d	0.17848726
71	0x3bc8c936	0.006127502
72	0xbdf2f347	-0.11862808
73	0x3d9e321d	0.07724402
74	0xbd0884f5	-0.033329923
75	0x3e084203	0.13306431
76	0xbcd1d234	-0.025612928
77	0xbd4c2c82	-0.049847133
78	0xbc9ae956	-0.018910091
79	0xbeba4dda	-0.3638752
80	0xbc03a188	-0.0080341175
81	0xbd8c8ab0	-0.0686239
82	0x3e2fbcb1	0.17161824
83	0xbcc122b1	-0.023576112
84	0x3dc5a93e	0.09651421
85	0x3db012aa	0.0859731
86	0xbd5ed32e	-0.054400615
87	0xbcc5c2d4	-0.024140753
88	0x3df433c1	0.11923934
89	0x3d7437f5	0.059623677
90	0x3e20c66e	0.15700695
91	0x3dee8d9e	0.11648105
92	0x3e8bc31b	0.2729729
93	0xba9fec92	-0.0012201241
94	0x3e262932	0.16226652
95	0xbd0abd2a	-0.033871807
96	0xbe2e4a1a	-0.17020455
97	0x3ddc8cc9	0.1076904
98	0xbe3706d4	-0.17873698
99	0x3dcfe56a	0.10151179
100	0xbe860e7c	-0.26182926
101	0xbe1e5843	-0.15463357
102	0xbe7bde3a	-0.24596491
103	0xbc48ddb3	-0.012259888
104	0xbe17fc2a	-0.14842287
105	0x3d8f2c34	0.06990853
106	0xbedb8be3	-0.42880163
107	0xbd164c06	-0.036693595
108	0x3dc8fbd6	0.09813659
109	0xbddaf602	-0.106914535
110	0xbe34cc7a	-0.17656127
111	0xbd8f81ec	-0.070072025
112	0xbd921d5d	-0.07134507
113	0x3e56488e	0.20926115
114	0x3e9ef7ad	0.31048337
115	0x3d37ec4d	0.04490309
116	0xbc047253	-0.008083898
117	0x3e2b2ce9	0.1671635
118	0x3a9fce33	0.001219219
119	0xbc28dffe	-0.01030731
120	0xbda257b8	-0.07926887
121	0x3d4cbacc	0.04998283
122	0xbd7a2330	-0.061068714
123	0xbd8577f2	-0.065170184
124	0xbe15bce2	-0.14622834
125	0x3da43b6a	0.08019145
126	0xbd5f4fc1	-0.05451942
127	0x3e42de90	0.19030213
128	0x3d929e39	0.07159085
129	0x3e08331b	0.13300745
130	0xbe2c2a03	-0.16812901
131	0x3dbd3030	0.09237707
132	0x3ca7f0cb	0.020500561
133	0x3cf87574	0.030329444
134	0xbe938b39	-0.28817156
135	0x3daeb2f9	0.0853023
136	0x3e4d8323	0.20069556
137	0xbec276bb	-0.3798121
138	0xbf1d93a4	-0.61553407
139	0x3bcc3d41	0.006232888
140	0xbe6413f8	-0.22273242
141	0x3d881fad	0.06646667
142	0xbe571e46	-0.21007642
143	0x3d07b847	0.033134725
144	0xbd8ad64c	-0.06779155
145	0x3d174393	0.03692968
146	0xbda9c0b4	-0.08288708
147	0xbe53b4aa	-0.20674387
148	0x3c83183f	0.016002772
149	0xbe9529e8	-0.29133534
150	0x3e1334c5	0.14375599
151	0xbe4d01c8	-0.2002021
152	0x3d98c629	0.07459671
153	0x3cc5a238	0.024125203
154	0xbe3472d5	-0.1762193
155	0xbea18f3f	-0.315546
156	0x3e2d57da	0.16928044
157	0xbf09d104	-0.5383456
158	0xbd22b57b	-0.039723855
159	0xbe40714a	-0.18793216
160	0xbd685346	-0.05672004
161	0x3c65092c	0.0139792375
162	0x3d914df4	0.070949465
163	0xbd9b2e76	-0.07577221
164	0x3e5bc03e	0.21460053
165	0x3e4c36bf	0.19942759
166	0x3bdcea07	0.0067417654
167	0xbd8bc509	-0.06824691
168	0xbd02e09b	-0.03195248
169	0x3cb554ed	0.022135222
170	0x3e188d4b	0.14897649
171	0xbe765cb2	-0.24058798
172	0x3e4787ab	0.19485347
173	0x3e86c4c3	0.26321992
174	0x3d4d779e	0.050162904
175	0x3d80adef	0.06283175
176	0x3d2c45c1	0.04205871
177	0x3ca92b6a	0.020650584
178	0x3f15dc30	0.58539104
179	0xbef6dfc7	-0.48217604
180	0xbe5f2f40	-0.21795368
181	0x3d674ed1	0.05647165
182	0x3d2d589b	0.04232083
183	0xbe43ae57	-0.19109474
184	0x3d55f522	0.05223573
185	0x3e4338b3	0.19064598
186	0xbf01661e	-0.50546443
187	0xbd51a975	-0.051186997
188	0x3e33982c	0.17538518
189	0x3c26ef9c	0.010188963
190	0x3dc67c88	0.09691721
191	0xbea70e41	-0.32628062
192	0x3e532610	0.20619988
193	0xbe3cab35	-0.18424685
194	0xbe0f49b1	-0.13992955
195	0xbd8356e3	-0.06413057
196	0x3cccaaad	0.024983728
197	0xbe3d0922	-0.18460515
198	0xbdf25dd4	-0.118343025
199	0xbd118c7c	-0.035534367
200	0xbcbaff74	-0.022826888
201	0x3e2a79f2	0.16648081
202	0xbc4aa11c	-0.012367513
203	0x3c882642	0.016619805
204	0xbc1f5ee7	-0.009727216
205	0x3dea1c53	0.11431184
206	0x3e07bde5	0.13256033
207	0x3e1ad681	0.15120889
208	0x3e0bcb4a	0.13651767
209	0x3df85170	0.12124908
210	0xbdde625e	-0.10858606
211	0x3dd27835	0.10276834
212	0xbe01e19a	-0.12683716
213	0x3e09339b	0.13398592
214	0x3e87f44d	0.26553574
215	0x3dd5fd2b	0.104486786
216	0x3cbf71b2	0.023369644
217	0x3cc595fb	0.024119368
218	0x3cc2516f	0.023720471
219	0x3ca07d84	0.0195911
220	0x3ea0275c	0.3128003
221	0x3da2932f	0.07938229
222	0xbe31563f	-0.17318057
223	0xbd3ebfb2	-0.046569534
224	0x3ddcc36b	0.107794605
225	0xbdd169b9	-0.10225243
226	0xbc1bc46d	-0.009507281
227	0xbd0b47ab	-0.034003895
228	0x3d13d905	0.036095638
229	0xbe011e39	-0.12609185
230	0x3ebc7e49	0.36815098
231	0xbcf201d3	-0.029541885
232	0x3dea2efa	0.11434741
233	0x3d73cf07	0.05952361
234	0x3e2a8191	0.16650988
235	0x3da20c95	0.07912556
236	0x3d7ab313	0.061205935
237	0xbe25143e	-0.16121003
238	0x3e46744b	0.193803
239	0xbde187e8	-0.1101225
240	0x3d8a7cc8	0.067620814
241	0x3db1690e	0.08662616
242	0xbeb9d1a4	-0.36292756
243	0xbde34590	-0.11097252
244	0xbe3f66c7	-0.1869155
245	0x3dc7b740	0.09751749
246	0xbd939c23	-0.07207515
247	0x3d26c1d8	0.040712208
248	0xbe038395	-0.12843163
249	0x3e2ffc08	0.17185986
250	0x3d21360c	0.039358184
251	0x3df0eef8	0.1176433
252	0x3e129eab	0.1431834
253	0x3e85b0d0	0.2611146
254	0x3d6af42b	0.057361763
255	0xbd1332b8	-0.03593704

main_net.6.bias f4 [64]
0	0xbd28a633	-0.041174125
1	0xbc9d7ae3	-0.019223636
2	0xbde99211	-0.11404813
3	0x3d04f9e0	0.032464862
4	0xbdda1efe	-0.106504425
5	0x3d5f6597	0.054540243
6	0xbdf266d8	-0.11836022
7	0xbe12ac80	-0.14323616
8	0x3da0e02c	0.078552574
9	0x3e29d1cb	0.16583936
10	0xbc241bc1	-0.010016383
11	0xbdd83a70	-0.10558021
12	0x3b89db18	0.004207026
13	0xbe42a447	-0.1900798
14	0xbd191fc2	-0.037383802
15	0x3d810236	0.0629925
16	0x3d80294e	0.06257878
17	0xbc99732b	-0.018731674
18	0xbd26a076	-0.04068037
19	0x3dbe57d8	0.092940986
20	0xbce9b089	-0.028526561
21	0x3d95b198	0.07309264
22	0xbd8141b6	-0.063113615
23	0x3e02ac6b	0.12761085
24	0xbd96c27e	-0.07361315
25	0x3e0c0943	0.13675408
26	0x3c8a3b3b	0.016873946
27	0x3cae43d1	0.021272572
28	0x3d42d671	0.04756779
29	0xbdcc6a8f	-0.09981262
30	0x3da9fc2c	0.08300051
31	0x3d058994	0.032601908
32	0x3dab88ee	0.08375727
33	0x3d5fc713	0.05463321
34	0x3dd1c608	0.102428496
35	0xbd224aaf	-0.039622005
36	0x3db1cd74	0.08681765
37	0x3de8208c	0.11334333
38	0x3dbd95cc	0.09257087
39	0x3d510b93	0.05103643
40	0xbe0a6b99	-0.13517608
41	0x3e088ab9	0.13334168
42	0xbc0e113d	-0.008671102
43	0x3e49a957	0.19693504
44	0xbcc7f7e0	-0.024410188
45	0xbd921654	-0.07133165
46	0x3cb56aa4	0.022145577
47	0x3d928b79	0.071555085
48	0xbd5f02fd	-0.05444621
49	0xbd9c717d	-0.07638834
50	0xbd493af5	-0.04912849
51	0x3cf45565	0.029825876
52	0xbd7227ce	-0.059119992
53	0xbda7b04c	-0.08187923
54	0x3d98d26f	0.07462012
55	0xbd9f1e9b	-0.077695094
56	0x3d782200	0.0605793
57	0xbdbccd8b	-0.09218892
58	0xbd44fe84	-0.048094288
59	0xbd258660	-0.040411353
60	0xbd220046	-0.039551042
61	0xbe062e5c	-0.13103622
62	0x3dc2e8f2	0.09517087
63	0xbe4503a4	-0.1923967

main_net.8.weight f4 [2, 64]
0	0xbcbc0315	-0.022950688
1	0xbd089641	-0.03334642
2	0xbe8790ef	-0.26477763
3	0x3ddfe96f	0.10933196
4	0xbf209a75	-0.6273568
5	0x3dd02981	0.10164166
6	0x3e8b8203	0.2724763
7	0x3dcf1ff5	0.10113517
8	0x3ad582a3	0.0016289543
9	0x3e6b1d9a	0.22960511
10	0xbd3cba48	-0.04607609
11	0xbf58f328	-0.84746027
12	0x3d86ba2b	0.065784775
13	0xbead9f68	-0.3391068
14	0xbca9e718	-0.020740077
15	0x3d20422d	0.03912561
16	0xbe71d014	-0.23614532
17	0xbf0d9998	-0.5531249
18	0x3ee3e4fa	0.44510633
19	0xbe3d946a	-0.18513647
20	0xbcd66ac7	-0.026173962
21	0x3e2f25d5	0.17104276
22	0x3dde120d	0.10843287
23	0xbd2f7ea4	-0.042845383
24	0xbe5ece0d	-0.2175829
25	0x3e52ecd5	0.20598157
26	0xb94f4c28	-0.00019769429
27	0x3d798e7f	0.06092691
28	0x3bf45e40	0.0074575245
29	0x3c8c3fa1	0.017120184
30	0x3dbbd026	0.091705605
31	0xbdf88090	-0.12133896
32	0x3c25ef09	0.010127791
33	0xbdbdb7b5	-0.09263555
34	0x3d581983	0.052758705
35	0x3df9e9dc	0.12202808
36	0x3dc4b568	0.09604913
37	0xbc4fffbc	-0.012695249
38	0x3db5d499	0.088784404
39	0xbe031fc1	-0.12805082
40	0x3daed9cc	0.08537635
41	0xbdd1b44f	-0.10239469
42	0x3da2edf7	0.079555444
43	0x3d0f9757	0.03505644
44	0xbca29a8c	-0.019849084
45	0xbd1b1929	-0.03786579
46	0x3e06801b	0.13134806
47	0x3e00f71b	0.12594263
48	0x3dbcbfb2	0.092162505
49	0x3eaef3e7	0.34170458
50	0xbce2630f	-0.027635125
51	0xbeb24e6d	-0.3482546
52	0x3e285866	0.16439971
53	0xbe02abda	-0.12760869
54	0xbd75f95d	-0.060052264
55	0x3d2befa0	0.04197657
56	0xbd2da53a	-0.0423939
57	0xbd8f7c6a	-0.07006152
58	0xbcea7643	-0.028620845
59	0x3d14ddcc	0.036344334
60	0x3c2c8412	0.010529535
61	0xbed1009a	-0.4082077
62	0xbe1e1bf4	-0.15440351
63	0xbe8d0a12	-0.27546746
64	0x3dbe9e1a	0.09307499
65	0xbdcce2bd	-0.100041844
66	0x3e1b83db	0.15187018
67	0x3df8c6c7	0.12147289
68	0x3e90d00a	0.2828372
69	0xbd655ee4	-0.055998698
70	0xbe2b3464	-0.16719204
71	0x3df88b13	0.12135901
72	0x3dccd0aa	0.10000737
73	0xbd748481	-0.059696678
74	0xbc66ca17	-0.014086268
75	0x3e949f71	0.29027894
76	0xbc85ade2	-0.016318265
77	0x3e84d29f	0.2594194
78	0x3c465a44	0.012106482
79	0xbdb9442c	-0.09046206
80	0xbce75d57	-0.02824275
81	0xbdc21012	-0.094757214
82	0xbd11a45e	-0.035557143
83	0xbd81c866	-0.06337051
84	0x3e9052fd	0.28188315
85	0x3d549a7c	0.05190514
86	0x3cb37e2f	0.021910755
87	0x3de21356	0.11038844
88	0xbde62376	-0.112372324
89	0xbcb1db7a	-0.0217111
90	0xbd4f1178	-0.05055377
91	0x3d8a05cc	0.06739387
92	0xbdfbdec1	-0.12298346
93	0xbe2cef4b	-0.16888158
94	0x3d185c97	0.037197676
95	0x3d1b316d	0.037888933
96	0xbe13aa8e	-0.1442053
97	0x3dbaeb12	0.09126867
98	0xbd92cff8	-0.07168573
99	0x3b27d180	0.002560705
100	0x3d3c4c92	0.04597146
101	0xbe052c81	-0.13005258
102	0x3dcffd86	0.10155778
103	0xbe047c39	-0.12938012
104	0x3e861c19	0.26193312
105	0xbd4894b9	-0.048969958
106	0xbe4b37c4	-0.19845492
107	0xbdf047ef	-0.1173247
108	0xbd03b3a0	-0.032153726
109	0x3e928223	0.2861491
110	0xbd5a0982	-0.053231724
111	0x3e0ddd42	0.13853934
112	0x3dd94770	0.10609329
113	0xbd6a4e5a	-0.057203628
114	0xbcb5fe6f	-0.02221605
115	0xbcc501d1	-0.024048718
116	0x3d8ec023	0.06970241
117	0x3c4a562e	0.012349648
118	0xbcb3f329	-0.021966534
119	0xbccc272b	-0.02492102
120	0xbe007388	-0.12544072
121	0xbef39170	-0.47571898
122	0x3dad8855	0.08473269
123	0xbe4aae72	-0.19793108
124	0x3d959279	0.07303328
125	0xbd76050a	-0.0600634
126	0xbd0c5a3b	-0.034265738
127	0xbe81082a	-0.2520154

main_net.8.bias f4 [2]
0	0xbd5648d8	-0.052315563
1	0x3da9276e	0.08259474
